HAR_APP/app/src/main/assets/cnn_lstm_qat.tflite (tflite, 878224 bytes, 32 tensors)

model_13/batch_normalization_39/batchnorm/mul_1;model_13/conv1d_27/Conv1D/Squeeze;model_13/conv1d_27/BiasAdd;model_13/conv1d_27/BiasAdd/ReadVariableOp;model_13/batch_normalization_39/batchnorm/mul;model_13/conv1d_27/Conv1D f4 [64, 1, 5, 6]
000000 18 a7 37 bf d5 0e ea 3e 25 f8 14 3f 96 e1 5b bd
       -0.7173934 0.4571444 0.5819114 -0.053681932
000010 75 59 bb 3c 8a 50 6a bd 76 9c 96 bf ce 9d 2c 3f
       0.022869805 -0.057205714 -1.1766498 0.6742829
000020 5e fb 1a be 59 c8 d5 3e aa 13 6c be 6d fb ea be
       -0.15134951 0.41754416 -0.23054376 -0.45894948
000030 40 a3 b9 bf 5f 56 f2 be bb 8f 7f be 9e a5 1c 3d
       -1.4502945 -0.4733152 -0.24957173 0.038243882
000040 d1 29 87 be 3d 0c e9 3d ec 33 80 bf 1d dc 17 3e
       -0.2639909 0.113792874 -1.0015845 0.1483006
000050 e4 7b 99 be 91 b8 53 be ee 58 00 3f 54 d2 81 3e
       -0.29977334 -0.20675875 0.50135696 0.2535578
000060 b5 85 ef bf 5e f7 a9 be 55 c0 e5 bc e4 9e 4c be
       -1.8712679 -0.3319654 -0.028045813 -0.19982487
000070 ea 2c 7a bd 08 2a a0 3e 95 0c 19 bf 0a 33 3e be
       -0.06107799 0.31282067 -0.59784824 -0.18574157
000080 be 54 19 bf 00 1a 88 be 43 2c 45 bf 5e 94 42 bf
       -0.5989493 -0.26582336 -0.77020663 -0.7600764
000090 cb 6a af 3e dd 60 8c be db 44 ba 3e 28 78 42 bf
       0.34261164 -0.2741765 0.36380658 -0.75964594
0000a0 d2 0c 86 be 47 3e 26 be dd 41 40 3f d3 9b 71 3f
       -0.26181656 -0.16234694 0.751005 0.94378394
0000b0 c5 af 90 3f 28 2a 0f 3f 2f cf e6 be b1 24 e9 bf
       1.1303641 0.559237 -0.45079944 -1.8214322
0000c0 94 90 0e 3f 9c 9d ed 3d 4f 58 75 3f 3d 4a 21 3f
       0.5568936 0.11602327 0.95837873 0.63003904
0000d0 72 42 31 be e5 5b 32 bf 82 f0 7c bf dc 3b 9c bf
       -0.17310503 -0.6967147 -0.98804486 -1.2205768
0000e0 d3 ab d8 bf 0d d3 49 bf 18 15 25 3e 04 1c 27 3f
       -1.6927437 -0.7883766 0.16121328 0.65277123
0000f0 ad 5a 8d 3f f8 d2 10 bf 84 d9 98 3e 8a 1a 03 bf
       1.1043297 -0.5657191 0.2985345 -0.5121237
000100 5c 9d 20 bf 92 ed 1e be b7 c9 95 3f 19 95 81 bd
       -0.6274011 -0.15520313 1.1702183 -0.06327266
000110 b2 dd 84 3f b1 0a c7 3e ee c3 cb bd af c6 d5 bd
       1.0380156 0.38875344 -0.0994948 -0.104382865
000120 66 b4 88 3f 12 b8 56 bf f1 f4 bd 3f 2b f5 43 3f
       1.0680053 -0.8387462 1.4840375 0.7654597
000130 c8 28 a4 be b5 15 2c bf d8 b6 6f bc 5c d3 83 bf
       -0.32062364 -0.6722062 -0.014630996 -1.0298877
000140 d8 b2 95 3f 57 70 5c bf 12 f5 8f bf 47 be c0 be
       1.1695204 -0.86108917 -1.1246665 -0.3764517
000150 f2 96 80 3e bb b9 cd bd 33 87 d5 3f 30 11 e3 be
       0.25115162 -0.10045191 1.6681885 -0.4434905
000160 07 16 5f 3f fa 9e 2b be b7 07 c3 3d 29 0e 51 bf
       0.87142986 -0.16759863 0.09522956 -0.8166223
000170 b9 33 86 3f 25 7e 3d be cd 35 21 3f f8 c3 96 3e
       1.0484535 -0.18505152 0.6297272 0.29446387
000180 ee 15 27 3e 6a 63 67 bf cf c3 4f bf 66 ed aa 3f
       0.1631696 -0.9038607 -0.81158155 1.3353698
000190 9e 28 ab bd e4 fa f9 3e fa b9 54 bf 86 90 57 3e
       -0.083573565 0.48824227 -0.8309628 0.21051225
0001a0 10 1f 73 bf b0 fc 12 be 26 bb ce be b7 db a7 3f
       -0.9496927 -0.14354205 -0.40377158 1.3113927
0001b0 0b 63 89 bf 15 d4 99 be 60 54 d4 3d 69 fd 38 3e
       -1.073335 -0.30044618 0.10367656 0.18065418
0001c0 a6 cb a4 3c e5 3d 2a 3f 3d 25 37 bf 8d 7f 36 3f
       0.020116638 0.66500694 -0.71541196 0.7128838
0001d0 b2 1f b5 bf 0a af f2 be d4 7c 42 3f e8 10 3b bf
       -1.4150298 -0.4739917 0.7597172 -0.7307267
0001e0 3d 7c 2b 3e 0d 16 2b 3e 16 ee 7c bf 4c a6 4c bf
       0.16746612 0.1670763 -0.9880079 -0.7994125
0001f0 f5 0b b5 bf 7b 85 e2 bf 08 2d 26 3e 20 16 59 bf
       -1.4144274 -1.7696985 0.16228116 -0.84799385
000200 a8 60 26 bf 18 a3 0f bf ba 02 ed be 7c be 80 3e
       -0.64991236 -0.56108236 -0.46291143 0.25145328
000210 e5 2b 21 bf 6b 7c 15 bf eb 8f 8c 3f f2 d4 15 3f
       -0.629576 -0.5839297 1.098142 0.58528054
000220 83 a2 50 3f af cc 2b bf 9a a6 99 be 00 d5 f6 3f
       0.81497973 -0.671092 -0.3000992 1.9283752
000230 52 3e c6 be 40 7b cc bd a1 3f b0 3e 65 02 70 3f
       -0.38719422 -0.099844456 0.34423545 0.93753654
000240 b3 30 82 bf a8 b4 fb 3a f4 14 de 3f 88 94 3a 3f
       -1.0171112 0.001920362 1.7350144 0.7288289
000250 c0 b8 a4 3f 9d a1 9c 3f 02 c6 78 3f 68 1c 00 3f
       1.2868881 1.223682 0.97177136 0.50043344
000260 35 fb 8b 3f 8d 77 0e bd 3d 43 65 3e 70 f2 a9 bf
       1.0936037 -0.03478198 0.2238893 -1.3277111
000270 6f 84 b8 3f 0a 06 4a 3f 86 e8 62 be fb 78 0e 3e
       1.4415416 0.78915465 -0.22159013 0.13913338
000280 11 95 4e be 7e 7c 0f bf 91 df e0 bd 34 a4 a6 3f
       -0.20174052 -0.56049335 -0.10980142 1.3018861
000290 cb 5d 63 3f cd c6 1e 3d 5b 25 0d bf 8e f0 0b bf
       0.8881499 0.03876381 -0.55135125 -0.5466393
0002a0 f9 c1 2b 3f 6a 11 de 3f c1 ac b7 3f da 3a d6 3d
       0.67092854 1.7349064 1.4349595 0.10460444
0002b0 cd 30 1b 3f 0c 1c 91 3f f5 41 af 3e d5 73 05 3f
       0.6062134 1.1336684 0.3423001 0.5212987
0002c0 da d9 8b 3e cb b3 84 be d6 e6 68 be d7 72 c1 3f
       0.27314645 -0.2591842 -0.22744307 1.5113171
0002d0 01 a2 2b 3f 44 80 57 be 94 2e 04 3f c0 6c 2a 3e
       0.67044073 -0.21045023 0.5163357 0.16643047
0002e0 ba c3 3c bc 63 c6 29 be 03 30 3a bf 1b 36 1c 3f
       -0.011521274 -0.16579585 -0.7272951 0.6102006
0002f0 db 0b 47 bd c8 d5 a8 3e c7 e3 a2 bf a7 5f fd be
       -0.04859529 0.32975602 -1.2725762 -0.4948704
000300 6b 9c a0 bf 23 57 c5 bd 18 ca aa bd 9e de 63 bf
       -1.2547735 -0.09635761 -0.083393276 -0.8901156
000310 04 c6 38 3f b7 df b7 3e 21 b6 c3 bf 9b e8 45 bd
       0.7217715 0.35912868 -1.5289956 -0.048317533
000320 df d4 98 bf 8f 48 a0 3e 1a 90 5e 3f 9e ae fe be
       -1.1939963 0.31305358 0.8693863 -0.49742597
000330 ba ba d2 bf 72 06 89 be 59 e2 b5 3e a3 8d 83 3e
       -1.6463234 -0.2676273 0.35524252 0.25693998
000340 2d 9e 56 3e 89 2c 2d 3d 04 ea 78 3e c0 8f af 3e
       0.20958777 0.0422788 0.2430802 0.3428936
000350 e8 85 0a 3f 14 f1 a1 bf fd 7c 22 bf 83 dd 82 bf
       0.54110575 -1.2651696 -0.63471967 -1.022385
000360 1e b5 d0 be 34 7b 39 3f 44 49 dd 3e af 89 85 bf
       -0.4076318 0.7245362 0.4321996 -1.0432643
000370 1c 3a e2 be 85 92 08 bf ad d5 9f 3e 45 3c 85 3f
       -0.4418496 -0.5334857 0.3121771 1.0409018
000380 3a 35 57 bf 06 6f 0a 3f 28 55 ac 3f 13 5b 4e bf
       -0.8406559 0.5407566 1.3463488 -0.8060772
000390 8a 35 8e bf 22 74 85 bf b2 17 16 3f 68 73 83 be
       -1.1110089 -1.0426066 0.58629906 -0.25673985
0003a0 34 74 86 be e8 16 c9 bd a5 87 20 3f 67 19 8d bf
       -0.2626053 -0.09818822 0.6270698 -1.1023377
0003b0 aa 5b 8e bf f7 1c f4 3e d5 5e f6 3e 2c d0 08 3f
       -1.1121724 0.47678348 0.48119226 0.53442645
0003c0 de 62 0b 3d 00 30 41 bf d4 60 41 3f b4 36 b3 bf
       0.034029834 -0.7546387 0.75538373 -1.4001069
0003d0 1a 91 d1 3e 39 1a 2c 3f f6 49 5c bf df db 6c bf
       0.40931016 0.6722751 -0.86050355 -0.92522997
0003e0 1c d7 00 bf b5 7a fe 3d 40 71 b4 be 0b a3 3d bf
       -0.5032823 0.12425748 -0.35242653 -0.7407691
0003f0 cb fb 74 be 6d db b9 bf 03 bc 37 3d e8 aa 4e be
       -0.23924176 -1.4520088 0.044857036 -0.20182383

model_13/batch_normalization_40/batchnorm/mul_1;model_13/conv1d_28/Conv1D/Squeeze;model_13/conv1d_28/BiasAdd;model_13/conv1d_28/BiasAdd/ReadVariableOp;model_13/batch_normalization_40/batchnorm/mul;model_13/conv1d_28/Conv1D f4 [128, 1, 3, 64]
000000 9e 5b dd 3c 0a 87 8b 3d c1 42 04 3d 38 82 5b bd
       0.027021226 0.06812866 0.032290224 -0.053590983
000010 69 f0 2d 3d 24 eb 4e bd 0d a9 a8 bd f0 b0 83 3d
       0.0424656 -0.050517216 -0.08235369 0.064302325
000020 34 43 63 3d 64 5d f5 3c 34 ad f6 3b cf c0 96 3d
       0.05548401 0.029951759 0.0075279716 0.07360994
000030 26 56 e5 bd cb 5b d4 bd 36 a1 92 3d b5 ac 6f 3d
       -0.11198072 -0.103690706 0.07159655 0.058514316
000040 12 f2 bf 3d e5 9c c0 bd f2 ba c3 3d a8 f7 b0 bd
       0.09372343 -0.09404925 0.09557141 -0.08640987
000050 14 c2 c4 3d ab 97 56 ba 13 ed 71 bc 0c f1 4d 3d
       0.0960733 -0.00081860524 -0.014765996 0.05027871
000060 41 0e 77 3b a4 ed 3d bd c7 4e 04 bc 8e d6 10 bd
       0.0037697705 -0.04636921 -0.008075423 -0.035360865
000070 27 29 a5 3d 99 3a e3 bd c7 8e 43 bd 0d 9b 16 3e
       0.0806449 -0.11095161 -0.047743585 0.14707585
000080 9a 7b 9b bd d3 60 98 bb af 90 be 3c f4 d7 38 bd
       -0.075919345 -0.004650214 0.02326235 -0.045127824
000090 52 ad 6e 3c bd 25 0d 3d 97 94 fb 3c 4e 6b 61 3d
       0.01456769 0.03445982 0.030710502 0.055033974
0000a0 8b b3 12 3c 2d b7 8d 3d 1f 2c 2b bd 4b eb 6c 3e
       0.008953939 0.06919704 -0.041790124 0.23136632
0000b0 4f b6 43 bd 8b b3 86 3c ec e5 b2 3d 5e 19 7e bc
       -0.047781285 0.016443035 0.0873526 -0.015508978
0000c0 db 0e a1 bd 2f fe c1 bd 97 68 70 3d 03 97 ad bc
       -0.078641616 -0.0947231 0.058693495 -0.021190172
0000d0 e1 e3 c8 3d 08 da e4 bc b4 60 32 bd c4 a0 04 3c
       0.098090895 -0.027935997 -0.043549255 0.00809497
0000e0 0d 7c af bd af f0 6c bc bb 1d 09 be ae 4e 8c 3c
       -0.08568583 -0.01446168 -0.13390248 0.017127361
0000f0 d1 66 b1 b9 74 35 18 3c f0 76 08 bd d7 9b eb 3b
       -0.00033836675 0.009290088 -0.033316553 0.0071902084
000100 ed 73 0a 3d 77 87 fa bc 62 e7 c3 bb dd 76 eb bd
       0.03380196 -0.030582173 -0.0059785107 -0.11497281
000110 89 c0 99 3d fa 4b 03 3b 88 c4 bb bc 87 5a 07 3b
       0.07507426 0.00200343 -0.022920862 0.0020653324
000120 a2 bc c8 bb 43 55 c6 3d 20 60 ac bd e5 bd ad bd
       -0.0061260024 0.09684231 -0.08416772 -0.08483485
000130 45 f0 94 bd 0f d2 9d 3c 2f f4 6c 3d a4 90 8c 3d
       -0.0727239 0.019265203 0.05785006 0.068635255
000140 7b 7d 4b bd 40 bf 57 bd c1 9e a1 bd af ea a1 bd
       -0.049680214 -0.052672625 -0.07891608 -0.079060905
000150 7d 31 44 bd 61 76 69 3d 67 74 e1 3d 39 b8 81 3d
       -0.04789876 0.05699766 0.1100853 0.06333966
000160 3a 06 eb bd 07 ff 14 3d 8b b2 af 3d 81 64 46 bd
       -0.11475797 0.036376026 0.08578976 -0.04843569
000170 76 4d ec 3d c1 87 43 3d 37 52 da bd dc f3 0a bd
       0.11538212 0.047736887 -0.106602125 -0.03392397
000180 9f 31 66 bd fb 24 0c 3d ec 3e 08 3d 53 66 92 bd
       -0.056199666 0.034214955 0.033263132 -0.07148423
000190 a2 dc b5 3c bb 7e 42 bd a0 2f f8 bd 61 18 48 bb
       0.022199932 -0.04748414 -0.12118459 -0.003053211
0001a0 3d b6 89 3d 97 f9 14 3e 39 9a 02 be 00 49 6d 3e
       0.06724212 0.14548336 -0.12754144 0.23172379
0001b0 11 e6 81 3d 53 06 0e 3e 1f f0 28 bd 39 bf 9a 3d
       0.0634271 0.138696 -0.041244622 0.07556004
0001c0 cf 3a a4 3d 43 e7 c4 3c 01 18 c0 bd 2c b8 80 bd
       0.08019029 0.024036055 -0.093795784 -0.06285128
0001d0 a1 56 0a 3d 55 92 80 bb b4 46 0c be 25 4c 60 bc
       0.033774022 -0.003923694 -0.13698846 -0.013690029
0001e0 c1 63 0e be d0 58 1f 3d 09 76 30 bd 41 32 59 bd
       -0.1390524 0.038903058 -0.043081317 -0.05302644
0001f0 37 86 c5 bc c2 35 b6 3d 9e f4 d2 bd 34 43 86 bb
       -0.02411185 0.08896972 -0.10300563 -0.0040973667
000200 0e 98 6a 3d 5f f3 a5 bd 35 b9 fc 3d 27 86 6f bd
       0.057273917 -0.0810306 0.12340013 -0.058477547
000210 4a 69 cf 3d b1 9a a3 3d 55 57 d7 3c 6b cb cc bc
       0.10127504 0.079884894 0.02628676 -0.024999341
000220 59 e4 b3 bb 51 0c e2 ba 97 bd ac 3d f5 83 c8 bd
       -0.0054898676 -0.0017246102 0.08434599 -0.09790794
000230 d5 8b 86 3d 8c 39 37 3c 1a 6b fb bd f2 49 bb bd
       0.065696396 0.011183154 -0.122762874 -0.09144963
000240 3c 79 8d 3d d3 d7 cf bd 6b b7 a6 3d e1 e2 05 3d
       0.06907889 -0.10148587 0.08140453 0.03268707
000250 0c 67 53 bc f1 f2 21 3d 0b 7d 7b bd d4 83 94 bc
       -0.012902986 0.039538328 -0.061398547 -0.018129267
000260 38 5c 61 bd 8e 85 53 bc 1d ab 28 3c 8e ab 16 be
       -0.055019587 -0.01291026 0.010294703 -0.1471388
000270 d1 c3 be 3d b4 8e 80 3d 61 92 85 bd 2a de de bd
       0.09314693 0.062772185 -0.0652206 -0.10882218
000280 51 c1 3c 3d bd ce 1f 3d e3 a2 a0 bd 4b 6f 22 bd
       0.0460828 0.03901552 -0.07843568 -0.03965692
000290 db b2 1c bd 16 ee 93 bd 78 c3 4e 3a 9f 37 f1 bc
       -0.038256507 -0.07223146 0.00078874035 -0.029445468
0002a0 30 1d aa 3d 59 d2 34 3e bf f7 96 bb a0 61 7d 3e
       0.08306348 0.17658366 -0.0046071704 0.24744272
0002b0 b0 15 50 bb 6a d0 01 3e 72 8a b3 bd 82 63 3b 3d
       -0.0031751208 0.1267716 -0.08766641 0.045749195
0002c0 7c f3 a1 bc ff 1d d3 3c c7 1f cf bd 5c c1 15 3c
       -0.019769423 0.02577114 -0.10113483 0.009140339
0002d0 19 27 1c 3d 17 7e 67 bd f3 d4 12 bd 0b 73 1a 3e
       0.038123224 -0.056516733 -0.035847615 0.15082948
0002e0 53 bc 0a be 28 d8 d9 bd 4b 18 08 bd 6e 0c 0b bc
       -0.13548402 -0.10636932 -0.033226293 -0.00848685
0002f0 25 cd ad 3c 0f ed cd bc de 3d 7e bd 83 5a f3 3c
       0.021215985 -0.025137452 -0.06207072 0.029706245
000300 5e 08 3f bc 53 a8 e8 bc be 9b f9 3d 1a e9 92 bd
       -0.01165971 -0.028400576 0.121879086 -0.07173367
000310 06 1c c0 bd f6 7d 31 3e d9 41 26 3d 69 2b 28 bd
       -0.09380345 0.17333207 0.04059014 -0.041057024
000320 e2 ad 1e 3c 7b de b6 bc 6b 9f 8f bb d9 46 45 bd
       0.009685012 -0.022322884 -0.004383018 -0.04816327
000330 dd f3 91 bd 24 59 28 be 56 fe 97 3d 6e 50 4d 3d
       -0.07126591 -0.16440254 0.074215576 0.05012553
000340 60 70 0f be 49 11 01 be 14 91 ac bd 11 77 d8 3c
       -0.14007711 -0.1260425 -0.08426109 0.026423963
000350 28 6b 5a bd f6 ea 18 be 60 40 eb 3c 0f 03 8d bd
       -0.05332485 -0.1493338 0.02871722 -0.06885349
000360 a7 2c b2 bb cd f4 fc 3c d4 ca b3 bd 50 6e aa bc
       -0.005437452 0.030878449 -0.08778921 -0.020804554
000370 00 e5 dd bd f2 b8 cd bd 5a 98 8c bd 34 54 c4 3d
       -0.10834694 -0.10045041 -0.06864996 0.09586373
000380 2b 0b 6b 3d 3f 58 50 bd 84 c4 ed bd 31 46 0b bc
       0.057383697 -0.050865408 -0.11609748 -0.008500622
000390 32 88 48 bd 8f 30 ee bd 03 14 b4 bd bc 69 3b be
       -0.04895801 -0.116303556 -0.087928794 -0.18302053
0003a0 e1 9b f1 3d 9c 27 72 3d 37 b9 7f bd ef e2 37 3e
       0.1179731 0.059119806 -0.062432494 0.17957662
0003b0 31 82 c8 3c 70 43 07 3e ee 55 ab bd 61 ea 04 3e
       0.024476143 0.13209319 -0.08365999 0.12980033
0003c0 e4 d8 4e 3d 40 c4 f6 bd 72 ca 87 3c 9f 9a 81 3d
       0.05049981 -0.120491505 0.016576026 0.0632832
0003d0 2b 88 1b bd a9 7e d3 3c 11 4a 96 3d dc 3b aa 3b
       -0.037971657 0.025817232 0.07338346 0.005195124
0003e0 12 5d a4 bd 55 6c bb bd 5d 35 ca bd 19 3d 11 3d
       -0.08025564 -0.09151522 -0.098734595 0.035458658
0003f0 b9 8b 70 bc 9f e8 17 3d ce 30 1f 3e 07 3b 98 bd
       -0.01468175 0.03708708 0.15545961 -0.074331336

model_13/quant_dense_27/MatMul;model_13/quant_dense_27/BiasAdd f4 [6]
000000 a8 f2 64 c0 a1 3d c5 bf 47 03 63 c0 f0 9c e5 be
       -3.5773106 -1.5409433 -3.547075 -0.44846296
000010 08 7f bb 3e 0a 3f 8c 40
       0.36620355 4.382695

model_13/batch_normalization_41/batchnorm/mul_1;model_13/batch_normalization_41/batchnorm/add_1;model_13/quant_dense_27/MatMul;model_13/quant_dense_27/BiasAdd f4 [6, 128]
000000 51 05 14 3f 68 66 c2 3e 9d 55 bb 3e 1e ec d6 3d
       0.5782061 0.37968755 0.36588755 0.104942545
000010 ec f8 6f 40 aa b1 2f 3f b6 35 67 3f e4 8e 0b 3f
       3.749568 0.6863047 0.9031633 0.5451491
000020 56 3c 97 3f de 03 93 3f 88 41 6d 3e 3b 6b 21 3f
       1.1815288 1.1485555 0.2316953 0.63054246
000030 3f e5 2f be fa b5 c7 3c f0 65 c2 bf d4 d3 eb 3f
       -0.17177294 0.024378765 -1.5187359 1.842402
000040 4a 44 d2 bc b0 ce cc be bf 9d a0 be 20 7b f5 be
       -0.025667328 -0.4000144 -0.3137035 -0.479455
000050 94 34 5c be be 2f 01 3f 33 98 48 40 fb a2 7b be
       -0.21504432 0.50463474 3.1342895 -0.24573891
000060 5a 7c 03 be e6 91 77 3f 4c 15 2e 40 b4 a9 b6 3f
       -0.12840405 0.96707 2.7200499 1.4270539
000070 71 c9 4e 3d 3f d2 0b 3d c0 d8 98 be c4 ce 93 bd
       0.05048508 0.034136053 -0.29852867 -0.07217172
000080 fa 13 78 3f fb e3 bd be 5f 5b 79 3e 28 a3 06 3f
       0.9690548 -0.37087998 0.24351262 0.52592707
000090 01 d1 45 3e b2 3b c7 be fe e9 84 bf ab fc 8b bf
       0.1931801 -0.3891273 -1.0383909 -1.0936483
0000a0 5b e8 34 c0 e0 65 8f 40 c5 62 70 3f 17 ba 37 bf
       -2.8266819 4.481186 0.9390071 -0.71768326
0000b0 ec 25 1c 3f 4a c0 4a 3f 22 56 a6 3e a4 45 3a 3f
       0.60995364 0.7919966 0.3248759 0.72762513
0000c0 89 cc 29 bf fe 57 30 3f 73 67 0e bf e3 dc 0d bf
       -0.6632772 0.68884265 -0.556266 -0.5541517
0000d0 e5 bb 48 bf 4a 9c 2b bf ab 68 34 3f 81 00 3c be
       -0.78411704 -0.67035353 0.7047221 -0.18359567
0000e0 1a c8 21 bf 2f c0 79 3e ef 16 d6 3d ae aa df 40
       -0.63195956 0.24389718 0.10453593 6.989585
0000f0 c1 3a ae 3d 24 e2 86 be 43 ec 32 c0 14 5c 8d c0
       0.085073 -0.26344407 -2.7956703 -4.41749
000100 46 24 d6 bc 79 b2 7d 3e ee eb 0d c0 dc 71 3d bd
       -0.026140343 0.24775113 -2.217525 -0.046251163
000110 88 e4 d8 bf 75 be c2 3f ce 6e 23 40 3a 21 02 c0
       -1.6944742 1.5214373 2.553638 -2.033278
000120 16 ac 01 3f b0 7e 9f 3c 8f 38 a5 be 37 31 a6 be
       0.5065321 0.019469589 -0.32269713 -0.32459423
000130 53 60 d1 be 53 48 ab 3e e9 9b 7f be 81 b8 a3 c0
       -0.40893802 0.33453616 -0.24961819 -5.1162724
000140 46 e9 48 3e 56 3e 4f bf 45 e2 85 c0 4e 81 59 3f
       0.19620237 -0.8095449 -4.183871 0.8496293
000150 5a 3c 85 bf 70 f8 9c be 0b 92 45 3e 8b 92 29 40
       -1.0409043 -0.30658293 0.19293992 2.6495693
000160 76 fb e3 be f3 ae 56 3f 02 82 64 bc 58 6a 10 bf
       -0.44527787 0.838607 -0.013947012 -0.5641227
000170 b0 82 13 3f d2 38 71 3e 9c 5a 1c 40 10 30 81 3f
       0.5762129 0.23556831 2.4430304 1.0092793
000180 4b 72 e0 3f 0a 46 cb 3e e5 6e 06 bf ed ab f3 3e
       1.753488 0.39701873 -0.5251296 0.47592106
000190 ed 01 8a bf 1e 25 8d 40 c2 bb d6 3e de ce 91 3f
       -1.0781838 4.410781 0.41940123 1.1391256
0001a0 9f d0 e3 be dc 52 12 3f 06 40 49 3f c2 38 b7 3d
       -0.44495103 0.57157683 0.78613317 0.089463726
0001b0 2e b6 18 3f 75 96 c7 3f 9d 0d 4d 3f 2e 28 94 bf
       0.59652984 1.5592791 0.800989 -1.1574762
0001c0 30 d1 b6 3f 63 b6 70 3f a8 43 f4 be b2 92 b7 bf
       1.4282589 0.940283 -0.47707868 -1.4341643
0001d0 d7 d9 8e bd bc b5 f8 3e e0 dd 09 bf e5 77 b3 bf
       -0.069751434 0.48576152 -0.5385418 -1.4020964
0001e0 02 51 c2 be 21 d2 2e bf 4d d9 6e 3e 5f 37 b2 3e
       -0.3795243 -0.6828938 0.23325081 0.3480787
0001f0 63 a2 09 bf 95 d4 b5 3c 40 28 32 3f cc a9 b5 3e
       -0.5376341 0.022196094 0.69592667 0.35481107
000200 23 5b fb be a7 f2 39 be 75 4c 31 bf 17 31 21 3e
       -0.4909297 -0.18158971 -0.6925729 0.15741383
000210 8b 53 43 40 1f 3d 58 3f f7 0c 3c 3f f1 36 85 3f
       3.051974 0.84468263 0.7345728 1.0407392
000220 3b 53 88 bc 03 2c d5 bf ef c9 62 bf bd dc d3 be
       -0.01664125 -1.6654056 -0.88589376 -0.41379347
000230 95 01 56 bf c9 65 f3 3e 4f 68 3f be e3 cc db bd
       -0.83596164 0.47538593 -0.18692134 -0.107324384
000240 de e2 cd be ab c8 65 3e 98 86 ff 3e f9 c3 83 bf
       -0.40212148 0.2243983 0.49907374 -1.0294181
000250 5a bd 15 bf 0e 14 4f 40 2d 17 95 40 e5 21 a0 bd
       -0.5849205 3.235599 4.659079 -0.07818965
000260 90 60 d2 be 0d d8 c0 3e f9 8f 82 bf 74 5c 3f 3f
       -0.41089296 0.37664834 -1.0200187 0.7475045
000270 a1 db 09 bd c9 f2 6b 3f f0 0e 3f bf 89 7d 87 3e
       -0.03365672 0.92167336 -0.7463217 0.26462963
000280 3d b1 c8 bd fb e3 bd 3e 2f 79 2f 3f b1 f6 ed 3e
       -0.097994305 0.37087998 0.68544286 0.46477273
000290 ca 6a 4e 3e 77 00 94 be e7 e2 00 bd 38 45 ff 3f
       0.20157924 -0.28906605 -0.03146639 1.9942999
0002a0 e1 36 c0 bf df a4 83 3f e7 ad 44 3f c3 ab 03 bf
       -1.5016748 1.028469 0.76827854 -0.5143396
0002b0 0c c3 c8 40 46 2e 27 bf c3 83 14 3f 67 a9 1f 3f
       6.2738094 -0.6530498 0.5801355 0.6236786
0002c0 1a d4 90 be e1 d9 86 3f 30 c2 c2 3f 19 3e 5b be
       -0.2828682 1.0535241 1.5215511 -0.21410407
0002d0 ce b0 41 3f 02 5d bd 3d cf b2 03 3f f2 4b 73 3e
       0.7566041 0.092462555 0.51444715 0.2375944
0002e0 4c 0f 02 3f 2c 7b 06 bf 3e ae c0 bd 7b 85 37 c0
       0.5080459 -0.52531695 -0.09408234 -2.867522
0002f0 54 2c 9b 3f 99 01 9e be 56 b8 e3 bf 7e 64 31 be
       1.2122903 -0.30860594 -1.779063 -0.17323491
000300 5b 96 9b bf c4 a3 55 3e c4 97 ee bf be 9a b1 be
       -1.215526 0.20863253 -1.8640065 -0.3468837
000310 af 39 30 bf 57 38 b5 3f 7f 9e 01 40 74 66 71 3d
       -0.6883802 1.4157819 2.0252988 0.058935598
000320 78 50 4d be da 8e 0b bf fc c1 40 3f 55 73 8e be
       -0.20050228 -0.5451485 0.75295997 -0.27822366
000330 e5 4e 14 bf 67 1a d6 be 60 09 2f bf 17 4b ff bf
       -0.57932884 -0.41817018 -0.6837368 -1.9944791
000340 48 c6 2a be 05 a0 67 be 31 ba 44 c0 ec 0d bb 3e
       -0.16677201 -0.22619636 -3.0738642 0.3653406
000350 df a3 cf be b4 82 b9 3e 39 31 51 bf b8 bd 8a c0
       -0.4055471 0.3623253 -0.8171573 -4.335659
000360 f7 71 d2 3e cc 78 0c bf 4a 63 12 bf fd 70 99 3f
       0.41102573 -0.5487182 -0.57182753 1.1987606
000370 31 4f 78 3f df 41 e6 be 75 09 02 bf 7a c9 88 3e
       0.96995836 -0.4497213 -0.5079568 0.26716214
000380 c3 57 2c bf 32 59 a1 3f bf d9 cc bc db 5a 28 3e
       -0.67321414 1.2605345 -0.025006173 0.16440909
000390 a1 74 4c 3f 99 72 95 40 25 c9 6b 3d 62 39 ab be
       0.7986546 4.670239 0.057564873 -0.33442217
0003a0 57 92 3f 3f d8 79 fe 3e 97 a4 0b 3e fd 7e 31 40
       0.7483267 0.49702334 0.13637005 2.7733757
0003b0 01 a3 08 bf ca a1 ce 3e 09 fc ad 3e 29 b0 86 bf
       -0.53373724 0.4035781 0.3398135 -1.052251
0003c0 2d 10 ac 3f 1f 12 69 3f 0d 68 fc 3e 39 5a 34 be
       1.3442436 0.91043276 0.49298134 -0.17612542
0003d0 a1 12 4c 3f 01 ab 53 3e ea 91 8c 3e b1 08 ff 3f
       0.79715925 0.20670702 0.27455074 1.9924527
0003e0 b7 09 70 3e 26 f5 cb bf 85 cc 60 bc fc b6 21 3f
       0.23441206 -1.5934188 -0.013720636 0.63169837
0003f0 71 1d 32 3f 31 09 44 bf 4b ab 00 c0 1e 63 93 be
       0.69576174 -0.76576525 -2.010455 -0.28786558

arith.constant f4 [128, 128]
000000 18 cb 2c bd 68 9f 53 3c e9 ea 87 3d b5 8c bf bb
       -0.042185873 0.012916423 0.066366024 -0.005845631
000010 d3 f8 15 3d 09 b1 32 bd 9e df 01 be b2 70 f8 3c
       0.03661425 -0.043625865 -0.1268296 0.030327175
000020 b8 31 fa 3d 69 58 d0 bc 49 1e b5 bd c2 ae 03 bd
       0.12216514 -0.025432782 -0.08843667 -0.032149084
000030 75 9c be bc 0f 76 6a bd 4f 40 ff bc 93 0a 0a bc
       -0.023267964 -0.057241496 -0.031158594 -0.008425373
000040 5a 9c 54 3d 14 9e 98 bd e6 2f b3 3c 80 b7 c9 bd
       0.05190692 -0.07452026 0.021873426 -0.09849453
000050 db c5 34 bd 83 a7 09 be f4 6c 75 bd d2 02 ba 3d
       -0.044134002 -0.13442807 -0.05991836 0.09082569
000060 1f db 6d bb b7 87 fe ba 2b 08 3a bd 53 8d 21 3d
       -0.0036293936 -0.0019419108 -0.045417946 0.039441418
000070 3e 0a f4 bd 7d 69 95 3d c8 76 d1 3d dd d5 eb bc
       -0.11916016 0.07295511 0.10227734 -0.028788501
000080 97 90 b5 bd 0d 72 c2 bc 2a dd 10 3a d4 82 da 3c
       -0.08865469 -0.023736024 0.000552612 0.026673712
000090 e2 b2 ed 3c fc 5b 1b 3c f4 51 20 be db 52 e6 bc
       0.029015962 0.00948238 -0.15656263 -0.02811568
0000a0 f6 c6 2c bb 33 73 54 3d 9b 73 44 bc fa ba 3d bd
       -0.0026363707 0.051867675 -0.011990453 -0.046320893
0000b0 41 b9 96 bc 3c 22 14 3d cc 0f 89 bd 7e 51 ae 3d
       -0.018398883 0.03616546 -0.06692466 0.08511637
0000c0 69 ba 17 bd 0f e8 48 bd f9 33 b1 bc bd 41 83 3d
       -0.03704301 -0.049049433 -0.021631228 0.06409023
0000d0 bb 5f 41 3d 80 df 8d 3d 4e f9 a9 bc f6 a6 9f 3d
       0.047210436 0.06927395 -0.02074876 0.07795517
0000e0 73 c5 a6 3d 22 37 37 3d 2f 44 a0 3d 73 09 7a bd
       0.08143129 0.044730313 0.07825505 -0.061044168
0000f0 2f 01 bc bb fc 8b 93 bc 13 b3 93 3d 8d 8b f6 bd
       -0.005737446 -0.018011086 0.0721189 -0.12038336
000100 fe 34 74 3d 9d 89 de bd 4f 8b 34 bd 4a 68 7a bd
       0.05962085 -0.108660914 -0.044078168 -0.061134614
000110 7c 9e 0a bd 19 e7 bc bd e0 d2 45 3c c3 46 81 3d
       -0.03384255 -0.09223766 0.012074202 0.06312325
000120 4b 4e 0b 3d 82 01 db 3d de 51 1f be 4c 8c 44 bb
       0.034010213 0.10693647 -0.15558574 -0.002999085
000130 d7 ca 9e bd 0c c9 8d bc 38 7e aa bd 87 51 66 bd
       -0.077535324 -0.01730778 -0.083248556 -0.056230094
000140 10 00 01 bd 82 d9 b5 3d 5a 0c fa bc f8 4b 87 3d
       -0.0314942 0.08879377 -0.030523468 0.06606287
000150 bd 5d 4a 3d 86 17 69 3d 03 60 c6 bc f4 8d 9f bd
       0.049405802 0.0569072 -0.024215704 -0.07790747
000160 6c 29 32 bd a7 ff 81 3c 3e b4 98 3d c3 65 89 3d
       -0.043496534 0.015868975 0.074562535 0.06708863
000170 55 6b 6e 3d b3 97 c9 bb 95 94 cb 3c 74 98 8c bd
       0.05820783 -0.006152117 0.024851123 -0.068650156
000180 5a 52 5a 3c c0 65 9a 3c 03 f0 8a 3d 0b 7e e9 ba
       0.013325298 0.018847346 0.0678406 -0.0017814053
000190 f0 c9 2f bc b5 d0 80 bd e3 a4 c7 3b 96 63 50 3a
       -0.010729298 -0.06289808 0.006092654 0.000794941
0001a0 cf 31 6d 3d 71 38 8a 3c db 4e 04 bd 4a 27 6e 3d
       0.05790883 0.016872616 -0.032301765 0.058142938
0001b0 b2 d9 cb 3c 9f a8 cc 3b fb 32 07 3d 3b c7 7c 3b
       0.024884079 0.006245687 0.033007603 0.00385709
0001c0 ea af 88 bb ac 73 e3 bb ed a5 a7 ba 9f db a1 3d
       -0.004171361 -0.0069412794 -0.0012790539 0.079032175
0001d0 2e 19 30 3d 2b a4 4b 3d e7 f9 30 bd 5a 7a 92 bd
       0.042992763 0.04971711 -0.043207075 -0.07152243
0001e0 7f 1c 16 bd ed 94 3b bd cf dc 0e bd e7 79 b8 bd
       -0.03664827 -0.045796324 -0.03487855 -0.09007626
0001f0 5f 9c 2e bd 93 1f 9d bd 4d a5 17 bd c3 16 3b 3d
       -0.042629596 -0.07672038 -0.037022877 0.045676004
000200 fd 09 8d 3d 84 30 c2 3c 70 19 89 bc 89 e6 52 3d
       0.06886671 0.023704775 -0.016735762 0.051489387
000210 cd 33 f1 3d fb f4 d5 3b ee 8f 53 bd ba 3e 95 3d
       0.11777458 0.006529448 -0.051650934 0.07287355
000220 2d 57 28 bb 2b 61 96 bd 87 77 82 bd fb 30 e2 ba
       -0.0025686726 -0.07342752 -0.06370454 -0.0017257029
000230 69 21 99 bc 52 76 bf 3d 07 5c 52 bd 68 08 a0 3a
       -0.018692689 0.0934874 -0.051357295 0.0012209537
000240 49 93 12 3d dd 51 4d bc 46 69 6a 3c 9c a6 a9 3d
       0.035784993 -0.012531725 0.014307326 0.08283731
000250 ff ac 6c 3c 47 72 80 3d 91 34 80 3d 4c 06 a4 bd
       0.014445542 0.06271797 0.06260026 -0.080090135
000260 de 67 b7 3d a6 24 21 3c 17 b9 ac 3d 8d 91 95 3d
       0.08955358 0.009835398 0.084337406 0.07303152
000270 7e 2d 4a bd 4b c1 1e ba c4 87 be 3d 08 c5 15 3d
       -0.04935979 -0.00060560246 0.09303239 0.036564857
000280 de 1b 19 3d 46 6e e5 bc dc 9e 63 3d d8 d5 45 bd
       0.03738009 -0.028006684 0.055571422 -0.04829964
000290 2e 57 df 3d 68 74 f6 bc ca e7 89 bb d9 c7 b8 bd
       0.109053 -0.030084804 -0.0042085396 -0.09022493
0002a0 ad b4 03 3d 01 ac bb bc 94 0c 97 bd 40 9e c3 bc
       0.032154728 -0.022909166 -0.07375446 -0.02387917
0002b0 bb 97 a0 bd 8a f8 c0 3d fe 6a c9 bd 9d 75 32 bc
       -0.0784144 0.09422405 -0.0983486 -0.010892299
0002c0 1e c2 04 bd 9f 28 72 bd 3a 9e 1e 3d 19 39 63 3d
       -0.032411687 -0.05912077 0.038725115 0.055474374
0002d0 2f b5 e2 bd 7a b7 4e 3d 34 44 47 3d 56 92 dd bc
       -0.11069714 0.050467946 0.048649028 -0.027047317
0002e0 b9 67 50 3c 13 40 63 bd aa 74 15 be 0b 9a 4e bc
       0.012720042 -0.055481028 -0.14595285 -0.012609969
0002f0 48 78 cb 3d 04 1a ce 3c a4 db 30 bd 4d 43 df 3c
       0.09935051 0.02515889 -0.043178216 0.027253771
000300 36 53 09 3d 7f 59 3b bd ea 8e 5a bb bc f0 24 3d
       0.03352662 -0.045739647 -0.0033349344 0.040268645
000310 18 5d 4e 3d ae 0c 96 bd 85 e8 28 3d df b7 6f 39
       0.05038175 -0.07326637 0.041237373 0.00022861313
000320 f7 2d de bd c6 e3 8f bd d9 ac 16 be 0a 52 17 3b
       -0.10848611 -0.07025866 -0.14714374 0.002308967
000330 b2 01 88 3c 06 35 bb 3d 65 5c 15 bd 4a b2 6d bc
       0.01660237 0.09140973 -0.036465067 -0.014507839
000340 24 18 36 3d a5 4d fd bc b4 04 b5 bd 72 de c5 bc
       0.044456616 -0.030920813 -0.08838788 -0.024153922
000350 e4 07 0d 3d 3f 68 a3 bb 08 6d f9 3d c3 8e 2c 3d
       0.034431353 -0.0049867923 0.12178999 0.042128336
000360 91 e1 56 3d a8 5e ae 3b c6 1b 4f bd 61 2c 90 bc
       0.05246121 0.0053213425 -0.050563596 -0.017599287
000370 f2 9b 29 ba cb 10 9f bd c8 33 44 bd 90 30 6d bd
       -0.0006470076 -0.07766875 -0.047900945 -0.05790764
000380 a1 85 a4 3c d5 b0 06 bd 18 12 ab 3d ae 06 4b 3d
       0.02008325 -0.032883484 0.083530605 0.049566917
000390 84 f0 06 bd 4a 47 85 bd fd bb cf bd 21 dd 2f bd
       -0.032944217 -0.06507738 -0.10143278 -0.042935494
0003a0 f3 71 60 3c c0 15 00 be 84 c1 a9 3b e5 5d 83 bd
       0.013699043 -0.12508297 0.0051805396 -0.06414393
0003b0 14 f6 7d 3d 80 df bb bc 03 9d 84 bc 42 3e 42 3d
       0.062002257 -0.022933722 -0.01618815 0.047422655
0003c0 a2 31 af 3c 89 c2 b8 bc d0 76 e7 bd 0d 9d 8d bc
       0.021385971 -0.0225537 -0.113019586 -0.017286802
0003d0 dc 95 ba 3c e9 c0 bc bd e0 23 d2 bc bb fd b4 bb
       0.022776537 -0.09216482 -0.025651872 -0.005523411
0003e0 33 2f 0f bd 3a c0 81 3d 11 96 49 3c bc 9c c2 bd
       -0.034957122 0.063354924 0.012303845 -0.09502551
0003f0 3c 2c a0 bd ac 78 6e 3d f6 52 90 3b 0b be 3f 3b
       -0.07820937 0.05822055 0.004404421 0.0029257562

arith.constant1 f4 [128, 128]
000000 74 36 f6 bb 81 b0 e4 bc 35 63 ac bd c8 56 94 3d
       -0.0075138155 -0.027916195 -0.0841736 0.07243115
000010 2c 5c a8 3c 06 c6 29 3d 40 e1 36 bd c3 ea 3f bd
       0.020551763 0.041448615 -0.04464841 -0.046854746
000020 f0 33 d7 bd c0 2d 82 bd 9a 47 1e 3d 0b 30 44 3d
       -0.10507953 -0.06356382 0.038642503 0.04789738
000030 46 51 42 bd ee 0e c5 3c fb f9 2d 3b c9 0d 2f 3c
       -0.04744079 0.02405497 0.0026546705 0.010684439
000040 bc 50 32 3d ab ea 84 bd 01 e3 0e bd 4f 9b 51 3d
       0.043534026 -0.06490072 -0.034884457 0.051173504
000050 20 8a c9 3c 6d b2 d7 bc ef 52 3f bd fb be d8 bc
       0.024601996 -0.026330197 -0.04670995 -0.026458254
000060 33 f1 1d 3d e7 3d 4b 39 6b 24 56 3d b3 36 4b bd
       0.038560104 0.00019382649 0.052280825 -0.049612712
000070 c8 b5 af 3d 9c 50 00 bc da d1 0a be 85 a6 20 3c
       0.08579594 -0.007831719 -0.13556615 0.009805326
000080 8a 23 9f 3d f2 ea 2d 3d 09 fd 15 bd 29 02 0c bd
       0.077704504 0.04246039 -0.036618266 -0.034181748
000090 c2 c5 f8 3d 81 e7 32 3d ef 20 12 bd 7a 2a 48 3b
       0.12147094 0.04367781 -0.03567594 0.0030542896
0000a0 a9 ab 9a bc 9c 3b 38 3b 52 ee 96 bd ee e4 73 3b
       -0.018880682 0.0028111702 -0.07369675 0.003721531
0000b0 3c 94 61 3d ff 40 78 3d c2 cf 6c 3d f4 ad 56 3d
       0.055073008 0.06060886 0.05781532 0.05241199
0000c0 51 81 7d 3d 06 2e 50 3d a2 e6 d3 bd b5 ec 26 bc
       0.061890904 0.05082514 -0.10346724 -0.010188271
0000d0 30 88 ad 3d 44 fb 95 bd 99 a2 b2 3d 33 0f 46 bd
       0.08473241 -0.07323316 0.08722419 -0.04835434
0000e0 b8 aa 1d 3c ea 80 ee 3c c0 de 61 3c 5c 54 5f 3d
       0.009623222 0.029114205 0.013786018 0.05452381
0000f0 5d 00 47 3c 71 19 0b bd d2 64 52 3d 94 a6 af bd
       0.012146083 -0.03395981 0.05136568 -0.08576694
000100 06 dd c7 bd 26 b5 2f 3d fd 24 11 3c 50 49 8d bc
       -0.09758954 0.042897366 0.008858916 -0.017246872
000110 e4 af 4e 3c 8f ab 40 3c 22 d0 81 3d 65 4f b9 3a
       0.012615178 0.011759653 0.06338526 0.0014138041
000120 c0 31 dd bd dc 0c 48 bc b8 0e a4 3d 9a 2b 84 bc
       -0.10800505 -0.012210097 0.0801062 -0.016134072
000130 15 cc 2f 3d 92 1c 9f bd f9 51 ed 3d 13 4f 92 3c
       0.042919237 -0.07769121 0.11587901 0.017859971
000140 9b 72 17 bc e6 14 64 bb 0c 2a 59 3d ce 14 ae bc
       -0.009243633 -0.0034802496 0.053018615 -0.021250155
000150 4a 74 d8 bb 38 c0 99 3d 93 d5 0b 3c b9 7a c1 3c
       -0.0066056596 0.07507366 0.008534807 0.023618089
000160 1c ea 60 3d 37 dd 24 3c 02 04 b7 3a 89 46 5a bd
       0.054910764 0.010062507 0.0013962986 -0.053289924
000170 bb a0 1f 3d 63 9a cb 3c 22 92 24 bc 39 e9 08 bc
       0.038971644 0.02485389 -0.010044606 -0.008356386
000180 b0 08 0e 3d b1 bd 0a 3d fa 90 ce 3c f7 c2 52 3d
       0.034676254 0.03387231 0.025215615 0.051455464
000190 ff 89 91 bd 2c 04 3d 3c 4e 98 50 3c fd 9e b2 bd
       -0.07106399 0.011536639 0.012731625 -0.08721731
0001a0 03 56 11 3d b0 2e b4 bd 31 2d 8f bd 35 24 c0 bd
       0.035482418 -0.087979674 -0.069910415 -0.09381906
0001b0 ff ad 16 3b ae 58 e5 3c 88 15 01 bd e8 6d 93 bb
       0.0022991893 0.027996387 -0.031514674 -0.004499186
0001c0 e3 f7 9f bb 9b a5 aa bd 27 ba 77 bd a0 12 b5 3c
       -0.0048818453 -0.08332368 -0.060480263 0.022103608
0001d0 ad b2 58 bd d6 4a c7 bc d7 84 6c 3a 28 94 ad 3d
       -0.052904774 -0.024327677 0.000902248 0.08475524
0001e0 32 be 7f bc 24 22 da 3c 5e 1c 7b bd 3b cf 53 3d
       -0.015609311 0.026627608 -0.06130635 0.051711302
0001f0 08 be 79 3d 33 4e 9e bd ad 36 0b 3d c0 d7 65 bd
       0.060972244 -0.07729759 0.03398769 -0.05611396
000200 0d 31 a4 bd 54 8a 43 3c 4f 91 bd 3b 41 f3 40 bd
       -0.08017168 0.011934835 0.0057851444 -0.047106985
000210 35 dd 37 bc ac 87 88 3c c3 10 dc bb 21 c9 84 3d
       -0.011222173 0.016666256 -0.0067158653 0.06483675
000220 d4 ac 48 bd 5e bc 82 bb 15 3c e2 bc d1 f0 91 3c
       -0.048992947 -0.0039897403 -0.02761654 0.017815026
000230 dc e9 fe 3b 85 91 9c 3b 3e b5 f6 3b 29 9f 47 3c
       0.007779343 0.0047780895 0.00752893 0.012183943
000240 b3 c9 8d 3c a9 6d 89 bc 82 40 2e bc 39 0f 4e 3d
       0.017308092 -0.016775923 -0.010635497 0.050307486
000250 ef 24 70 3b fb 2b 02 3d 24 13 16 38 99 f0 cb bc
       0.0036643108 0.031780224 3.5780613e-05 -0.024895
000260 68 be 93 3b 90 97 90 bd c5 fc 13 3d 1a 05 b2 3d
       0.004508782 -0.07060158 0.03612973 0.08692379
000270 f8 0c da 3c 46 03 7c bc e7 5c 44 3d ed 3d 10 bd
       0.026617512 -0.01538164 0.04794016 -0.035215307
000280 2c 4a 8c bc 7e 16 3d bc cd 42 a9 bd 3f 54 62 3d
       -0.017125212 -0.011541007 -0.08264694 0.055256125
000290 23 63 3d 3d 1d 8e 92 bb b3 e0 cd bd 02 59 9f bd
       0.046237122 -0.0044725076 -0.100526236 -0.07780649
0002a0 aa 24 0b bd 80 cb 7b bc e3 54 c8 bc 54 12 53 bd
       -0.033970512 -0.015368342 -0.02445454 -0.05153115
0002b0 9e c2 53 bd 78 63 34 3a 85 4c 84 bc 65 a7 bf bc
       -0.051699273 0.0006881277 -0.016149769 -0.02339525
0002c0 71 e6 f8 3d 1a 1b 75 3c cb 62 04 bd ba 68 77 3d
       0.12153328 0.014960075 -0.03232078 0.06040261
0002d0 fd ba d1 3b 9c 38 79 bc 28 32 c4 3c ac 4a 84 3d
       0.0064004646 -0.015211251 0.023949698 0.06459555
0002e0 a3 65 8a bd a3 3c aa bc d7 e4 be 3c 0c d9 8e bd
       -0.06757667 -0.020780867 0.023302479 -0.06974992
0002f0 43 2c 85 bd a3 d0 81 ba c8 63 ca 3c 30 eb 1b 3d
       -0.06502583 -0.0009904098 0.024705783 0.03806609
000300 00 6d b6 3d 10 63 64 3d 94 c0 81 bc ee 21 bf 3c
       0.08907509 0.055758536 -0.015838899 0.023331609
000310 98 98 98 3d fa 36 c2 bc 2b cb 96 bb 40 7c d1 bc
       0.0745098 -0.023707855 -0.004601856 -0.025571942
000320 45 ee bf 3c ac 61 e2 bc 33 a2 bf bd 12 5d 9f 3b
       0.023429045 -0.027634464 -0.09357109 0.00486339
000330 c8 7f e7 3c fa 6d e9 3c 0e 65 d2 bc f4 4d c6 bd
       0.028259173 0.028494824 -0.025682952 -0.09682837
000340 fb 1e 4b 3c 3d 69 2b bc 56 fd de 3d dd b6 ea bd
       0.012397523 -0.0104621025 0.10888164 -0.1146066
000350 df d6 eb 3c 8d 33 92 3d f6 06 79 3d 4a e7 4e bd
       0.028788982 0.07138739 0.060797654 -0.050513543
000360 68 d8 fe bb 6f d3 3d bd 83 b8 3e bb 33 ac 24 3d
       -0.0077772625 -0.046344217 -0.0029101677 0.040203284
000370 e6 3c 0f bc bf a8 1b 3d 2f 4d b8 bc a4 1e b1 bd
       -0.008742547 0.038002726 -0.022497742 -0.08648422
000380 bd 5d 59 bd 9a 86 b6 bc b7 8e e2 3c 3d cf a8 3d
       -0.05306791 -0.02228098 0.027655942 0.082426526
000390 d6 87 f4 3c 43 d6 27 3d 4a ba 81 3d b2 64 3f bd
       0.029849928 0.04097582 0.0633436 -0.04672689
0003a0 a2 27 6b bd 28 27 02 3c fe 2a 44 bb 03 9e b1 3d
       -0.057410844 0.007943906 -0.0029932852 0.086727165
0003b0 a2 b4 07 bd 68 8e 7e bb 91 c9 f9 3a 04 59 42 3c
       -0.03313125 -0.0038842205 0.0019057264 0.011862043
0003c0 73 0f a6 bd 3c 5c f9 3b 9b 43 11 3d 70 5c 79 bc
       -0.081084155 0.007609872 0.035464864 -0.015219793
0003d0 7f 4c b3 3c 4a 96 f7 3d 65 fb 33 3d 37 ce 98 3d
       0.021887062 0.12089212 0.04394092 0.07461207
0003e0 a5 b2 e9 3c 59 52 74 bb 1d 89 af bc 85 00 0c 3d
       0.028527567 -0.0037280528 -0.021427685 0.034180183
0003f0 2e 07 7d 3c c5 fe 58 3d 18 76 e4 bd 75 9e 17 3e
       0.015443606 0.052977342 -0.11155337 0.1480654

arith.constant2 f4 [128, 128]
000000 e6 d1 0a 3d 63 7f 93 3c ae eb 8b 3c a1 1a 43 bd
       0.03389158 0.018005079 0.017080154 -0.047632817
000010 c7 20 f2 3d 28 15 e8 bd 99 a2 40 bc 20 a9 65 3b
       0.11822658 -0.1133216 -0.011757516 0.0035043433
000020 5b da b3 3d c8 5a d5 3c 3b 71 37 3b 23 21 5f bd
       0.087818824 0.026044264 0.0027991075 -0.05447496
000030 08 04 da bc 70 d3 66 bc 38 6e 26 3d 50 0c ed 3a
       -0.02661325 -0.014088497 0.040632457 0.0018085334
000040 08 1b dd 3d 3a ac 52 bd 62 1e 99 3c 22 aa 62 bd
       0.107961714 -0.05143378 0.018691245 -0.055338033
000050 5d 6b 26 3d 15 26 54 bc cf 3d f9 3d bc e8 7f 3a
       0.040629733 -0.012948533 0.12169992 0.0009762158
000060 11 ef 90 bc 4a c0 c8 bc 87 b1 bc bd 5e 00 b0 ba
       -0.01769212 -0.024505753 -0.09213548 -0.0013427844
000070 4f 56 87 bd 43 5a 07 3d 0c df 2f 3d 09 12 99 3c
       -0.06608259 0.033045065 0.042937323 0.018685358
000080 7d be 80 bd da 3f 8f 3c d2 5c 59 3c c9 5c 0e bd
       -0.06286333 0.017486501 0.013266759 -0.034756456
000090 8f d1 95 3d 20 f4 27 bd 2f aa b9 bc 0b e8 71 bd
       0.07315361 -0.0410043 -0.022664158 -0.059059184
0000a0 83 9d 37 bd 9e c0 3b 3d 89 e6 31 3d 4d 38 95 bd
       -0.04482795 0.04583799 0.043432746 -0.07286129
0000b0 bb 62 8e bd b0 a5 ec 3c f7 16 0e bd d9 ab 0f 3e
       -0.06952425 0.0288876 -0.03468987 0.14030398
0000c0 c2 86 9c 3c f0 44 c1 3c 9c 94 40 3d db 4a 43 bc
       0.019107226 0.023592442 0.047016725 -0.011919702
0000d0 fe 18 e8 bc b9 82 22 3d ab c1 2a 3d 6a 5d 1e 3d
       -0.02833223 0.039675448 0.041688602 0.038663305
0000e0 33 5a 54 3d df eb d3 3c a8 df d0 3c d5 7f ff bc
       0.051843833 0.025869308 0.025497273 -0.031188885
0000f0 93 a7 85 bb 91 50 e5 3c 3d be 39 bc 6a 70 f7 3c
       -0.0040788143 0.027992519 -0.01133686 0.03020497
000100 d8 89 48 bc 57 8b 81 bd f7 25 a6 bd 4c 80 89 bd
       -0.012239896 -0.06325405 -0.0811271 -0.06713924
000110 f5 16 a9 3c cf fd ed 3b 5f 0b 9d bd f0 2c 86 bc
       0.02064083 0.0072629224 -0.076681845 -0.01637885
000120 7f 62 a2 bc 57 35 96 bd 07 a2 c6 bd 35 93 a0 bc
       -0.019822357 -0.073343925 -0.09698873 -0.019601444
000130 ee 2c 7d 3d dd 70 79 bd c0 59 30 bd 17 f9 a0 bb
       0.061810426 -0.06089865 -0.043054342 -0.0049125063
000140 ab ad 26 3c fe 20 03 bd d1 51 25 bd d9 26 ba 3b
       0.010173242 -0.032013886 -0.04036123 0.0056809005
000150 1e 17 4d bd ce 54 09 3d f1 19 af 3b 11 d3 20 bd
       -0.050070874 0.03352814 0.0053436686 -0.03926379
000160 4d a9 b9 3c ea 7e 8b 3d 72 3c 14 bc 2f 30 4d 3b
       0.022663737 0.06811316 -0.009047614 0.0031309237
000170 fa d2 b9 3d 1d ab 5e 3d bc 3e 11 bc 9a e2 35 bd
       0.09073444 0.054362405 -0.008865055 -0.044405557
000180 98 9c 7e bc 9a 7e 19 bc a0 67 ae 3d 53 e6 bc bd
       -0.015540265 -0.009368563 0.08515859 -0.09223618
000190 8a 32 79 3d d2 7a 82 39 0e 12 c9 3c fa b1 25 3d
       0.060839213 0.0002488704 0.024544742 0.040452935
0001a0 28 09 3f bd 9c 4b a9 bb 37 7a a6 bd d9 dc 0b 3d
       -0.04663959 -0.005166484 -0.081287794 0.034146164
0001b0 f6 e9 30 bd a3 78 93 bd ab 14 e9 3c 57 fd 1d bd
       -0.043191873 -0.07200744 0.028452238 -0.03857168
0001c0 8c 43 34 3c d2 a3 60 bc fd bf dc 3c dd cf 5d 3d
       0.011002433 -0.013710933 0.026947016 0.054153312
0001d0 44 e1 da 3d 89 82 82 3d 66 44 0f bd 16 82 ae bc
       0.10687497 0.06372554 -0.03497734 -0.021302264
0001e0 7b 64 48 3d 31 78 88 bc 92 c9 bc bb 54 6e 7b bc
       0.04892395 -0.016658874 -0.0057613337 -0.0153461285
0001f0 a6 5e 11 3d 71 96 92 bc a0 9d 66 bd d0 c2 77 3d
       0.035490654 -0.017894002 -0.056302667 0.060488522
000200 42 b5 bf 3b 86 42 a7 bd a6 13 2b 3d c7 58 b6 3b
       0.005850465 -0.08166985 0.041766785 0.0055647823
000210 10 02 86 bc 6c 6f 12 3d a3 9c 84 bc a3 82 8b 3d
       -0.016358405 0.03575079 -0.016187971 0.06812026
000220 a5 36 6e bc b2 8f 86 3d 34 3d 38 bd 12 0d b6 3d
       -0.014539395 0.065703765 -0.044980243 0.08889212
000230 60 a6 49 bd f2 c8 89 3d 77 cb ea bb 6b 8f 19 3c
       -0.049230933 0.067277804 -0.007165368 0.009372572
000240 ee f2 8f 3d f6 04 6d 3d 00 4c 24 3c 66 be b0 bc
       0.07028757 0.05786606 0.010027885 -0.021575164
000250 f3 2f a4 bd b8 c7 93 3b 7b d3 83 3d 9b 6c 8c bc
       -0.08016958 0.0045098923 0.06436821 -0.01714163
000260 74 f5 44 bd 4e 34 97 bd eb 5b b9 bd 7d ba 16 3d
       -0.048085645 -0.07383023 -0.09050735 0.036798943
000270 43 4e 95 bd 2e 9a 5c bd d0 fd 4d 3d 9c 11 c3 3d
       -0.07290318 -0.053857975 0.050290883 0.09524843
000280 db 89 bb bb ab af bf bc df fe 02 3d 5b a8 35 3d
       -0.0057232208 -0.023399195 0.031981345 0.04435001
000290 a5 e8 63 3d 8b 2c b9 3c de b6 10 be c8 30 a0 bc
       0.05564179 0.022604248 -0.14132258 -0.01955451
0002a0 2d 50 29 bc 01 c6 b0 3c 07 3a 07 3d ae 68 e2 3c
       -0.010334057 0.02157879 0.033014324 0.027637806
0002b0 f3 07 4d bc 4e 91 c9 3d 2b 98 b3 bd 33 03 56 bc
       -0.012514102 0.09842168 -0.08769258 -0.013062286
0002c0 b7 1e 9d bd aa 80 b1 bb 33 51 f2 3d 5b 25 81 bd
       -0.07671874 -0.0054169493 0.11831894 -0.06305953
0002d0 40 77 6d bd e8 55 88 bd 2c 77 ee 3c 12 b7 d3 3c
       -0.057975054 -0.0665701 0.02910956 0.02584413
0002e0 b1 f4 03 bd 2c 4c 9a ba 51 14 cd 3a 14 4a 87 3c
       -0.032215778 -0.0011771969 0.0015646314 0.016514815
0002f0 b6 c5 f3 bb 6f ef b0 3d bf 13 23 3c f5 4a 65 bd
       -0.0074393405 0.08639418 0.009953438 -0.055979688
000300 89 32 c9 bc 14 c3 4d ba e7 40 ab bd d9 61 18 3d
       -0.02456023 -0.00078491983 -0.083619885 0.03720269
000310 15 ce 35 3c 27 cc b6 bc 76 bc 86 3d fb bf 3f 3d
       0.011096497 -0.022314144 0.06578915 0.046813946
000320 41 c7 92 bd db d8 47 bd e3 82 16 be d9 58 64 bd
       -0.07166911 -0.048790794 -0.14698367 -0.055748794
000330 5e 22 25 bd 7d 66 de bc 82 60 dc bc ee 8f b7 3c
       -0.04031598 -0.02714848 -0.026901487 0.022407498
000340 bb 61 b5 bc a4 66 f0 3c 65 5f a3 bc fc 38 5f bd
       -0.022141328 0.029345818 -0.019942949 -0.054497704
000350 14 06 3d 3d 4d 34 94 bd 89 95 09 3d 79 21 6e 3d
       0.046148375 -0.07236538 0.033589873 0.05813739
000360 81 5e 54 bd f0 65 1e 3d b8 cd 01 bd 8b fb 91 bd
       -0.05184794 0.038671434 -0.03169033 -0.07128056
000370 97 aa 04 3e 05 72 87 bc 60 9e e6 3b 18 df dc bb
       0.129557 -0.016533861 0.0070379227 -0.006740462
000380 ac 6d 3b bd ca c2 1f 3d f7 64 73 bb fb 1b 68 bc
       -0.045758888 0.039004125 -0.0037139037 -0.014166827
000390 ff c8 2a ba a3 5e 68 bc b6 bc f3 3c 7c d2 ef 3c
       -0.0006514936 -0.014182719 0.02975307 0.029275171
0003a0 3e 7b ed 3c 6e e1 46 bd 56 5a 2a bb 94 5a ff bd
       0.02898943 -0.04855483 -0.0025993786 -0.12468448
0003b0 98 17 12 bd 99 79 91 3c 73 d0 10 3d 37 38 9a 3c
       -0.035667032 0.017758178 0.035355043 0.018825633
0003c0 89 66 f1 3c 32 a3 b0 bc 3a 22 b0 3d 43 25 58 bd
       0.029467838 -0.021562193 0.08600278 -0.05276991
0003d0 5c b9 71 3b 18 d2 af bd b1 a9 b0 bc 48 d7 59 bd
       0.0036884164 -0.08584994 -0.02156529 -0.053183824
0003e0 f5 87 b4 bc de 28 ff bc cc fa c9 bd d8 77 5c bc
       -0.022037486 -0.031147417 -0.09862289 -0.013456307
0003f0 92 44 75 3d 24 fe 02 3d 37 5c 53 bd b9 29 b8 bb
       0.059879847 0.03198065 -0.051601615 -0.005620208

arith.constant3 f4 [128, 128]
000000 20 d4 6d bc 2b 56 71 3d 70 11 67 3d 59 1a 09 3d
       -0.014515907 0.058920067 0.056413114 0.033472393
000010 ca fd 91 3d 33 8a 99 bd e2 ab 36 bd 40 33 71 3d
       0.071284845 -0.074970625 -0.044597514 0.058886766
000020 17 4e 15 bc a8 c4 a8 3c 21 86 07 3c 64 05 c9 bd
       -0.009112856 0.020601586 0.008271725 -0.09815481
000030 9b 2f 06 3d cb 14 80 ba 34 d4 99 3d 58 3a b6 3c
       0.032760244 -0.0009771822 0.07511178 0.022244617
000040 73 d3 15 3c 55 d5 90 3d e8 7a b4 bd 3c 8e b5 bc
       0.009144652 0.0707194 -0.08812505 -0.02216255
000050 61 93 99 bc e7 f7 6f bd 07 bf 2a 3d d9 d8 a3 bd
       -0.018747034 -0.058586027 0.041686084 -0.08000345
000060 da c8 e3 3c 00 85 61 bc 48 c3 dc 3c 8c 93 32 bc
       0.027805734 -0.01376462 0.026948586 -0.010899436
000070 b7 81 c3 bd a8 4f 59 3d f3 76 73 3d 4d 5e b7 3c
       -0.095462255 0.05305448 0.05943961 0.022383833
000080 80 96 3b bd c3 72 73 bd b3 f1 0f bd b3 00 8b 3b
       -0.045797825 -0.059435617 -0.03514261 0.0042420267
000090 e5 62 bc 3d d5 78 75 bd 3b 17 10 be 69 65 e2 39
       0.0919855 -0.059929688 -0.14071362 0.00043181636
0000a0 10 c6 2b bc 68 fd 45 3b 1d 1f a3 3d 01 b9 8e 3d
       -0.0104842335 0.0030210856 0.07964919 0.069688804
0000b0 3e 90 4a bd 93 f3 91 3d bd 6d f0 3c 99 d6 d3 3d
       -0.049453966 0.07126536 0.029349202 0.10343666
0000c0 89 f4 07 3c 3d f2 3e 3d 16 86 cc bd 32 f8 8e 3d
       0.008298048 0.046617735 -0.09986512 0.06980933
0000d0 12 ec ba bb 29 24 1b 3d 96 87 33 bd b3 18 5a ba
       -0.0057044113 0.037876282 -0.043830477 -0.00083197205
0000e0 27 10 73 3d d5 3e 79 3b 88 cf ed bc db 48 1f 3c
       0.059341576 0.0038031836 -0.029029623 0.00972196
0000f0 64 74 61 bd 1f 7e a9 bc c6 a8 06 3d 49 3d e3 bb
       -0.05504264 -0.020690022 0.0328758 -0.006934796
000100 85 c2 a9 3c 4c e7 1a bd 64 c0 77 3d 2b 6a 67 bc
       0.020722637 -0.03781824 0.060486212 -0.0141244335
000110 c2 d7 12 3d e3 b0 7e 3d a7 c0 02 3d e7 2c ec bc
       0.035850294 0.06218041 0.03192201 -0.028830005
000120 e4 28 46 3d f6 5d be bc 54 7a d8 bd c6 45 e9 bc
       0.04837884 -0.023238163 -0.10570207 -0.028475653
000130 78 7e ce 3d dc bb dd bc 94 f5 b7 bd 6b 03 ee bd
       0.10082716 -0.027067117 -0.08982387 -0.11621746
000140 72 eb 32 bd 4e c2 35 bd ee ff 33 ba b1 80 1d 3d
       -0.04368157 -0.044374757 -0.00068664446 0.038452808
000150 32 de a8 3b cb a3 10 3d 0c c7 76 bc a4 4c 53 3c
       0.005153441 0.035312455 -0.015062105 0.0128966905
000160 c3 99 ae bd ca 14 73 bd 32 03 ec 3c 86 56 20 3d
       -0.085254215 -0.059345998 0.028810117 0.039145015
000170 25 55 9d 3d 01 53 36 bb b7 77 9f bc 6b 45 1d be
       0.07682256 -0.002782047 -0.019466264 -0.15358512
000180 19 fb 58 bd aa be 8e bd 5e 43 8f ba 47 1d 00 bd
       -0.05297384 -0.0696996 -0.0010930111 -0.03127792
000190 2a 56 f7 3c 33 94 2f bc 37 61 6e bc db 10 8c 3d
       0.030192453 -0.010716486 -0.014549545 0.068391524
0001a0 6e 38 bd bb 9e 78 56 3d d5 cb cd bc 69 c2 eb bb
       -0.005774549 0.052361123 -0.025121609 -0.0071948064
0001b0 0d 9f 8b 3b c1 61 90 bc 51 4f ca 3c f4 63 56 bd
       0.0042609037 -0.017624738 0.024696024 -0.052341416
0001c0 28 e8 cf bc 5a e5 67 3d 07 14 87 3c 71 05 33 3d
       -0.025379255 0.05661521 0.016489042 0.04370636
0001d0 cf 84 bb 3a 40 57 83 ba 68 7d 1e bd e1 fd 6a bd
       0.0014306548 -0.0010020509 -0.038693815 -0.057371024
0001e0 a7 dd 05 bd be 58 d5 bd 29 2e bc bd c0 92 9e bc
       -0.032682087 -0.10417317 -0.09188492 -0.019357085
0001f0 40 73 0c 3c 42 df 82 3d e5 28 1d bd 6b 7b 13 bd
       0.0085724 0.06390239 -0.03836908 -0.036006372
000200 28 00 7b 3d 25 d3 9b bd b9 dc 77 bd 32 3c 9f bc
       0.061279446 -0.07608632 -0.060513232 -0.019437883
000210 fe a3 11 3c 68 81 bb bc b8 70 f9 3b 2d 48 0c 3d
       0.008889196 -0.022888854 0.007612314 0.03424852
000220 fc e0 aa bd 04 b4 a8 bd 4e af be bd b5 1f 0a be
       -0.083436936 -0.0823746 -0.093107805 -0.13488658
000230 18 c2 07 bc 17 30 17 3a d9 af b3 bc da 7d 3a bd
       -0.008286022 0.0005767359 -0.021934437 -0.045530178
000240 9c 83 d9 3c 32 1e 88 3c 0d fb a0 3d 3e 7d 8b bc
       0.026552014 0.01661596 0.07860384 -0.017027494
000250 b9 3f d1 bc 28 cb 73 bd aa ac ae 3d 44 31 9b bd
       -0.02554308 -0.059519917 0.08529027 -0.07577756
000260 65 f5 85 3d f4 36 37 bd 41 67 b2 3c ed f1 df 3c
       0.06540946 -0.04473014 0.02177775 0.027337039
000270 d6 24 6b bc dd 3a 40 3d da a8 ed 3c 4d f7 9b 3c
       -0.014352044 0.046931136 0.029011179 0.01903882
000280 78 b2 f6 bc eb 7f 91 bd 11 40 ab 3d 5c dc 65 bd
       -0.030114397 -0.071044765 0.08361829 -0.056118354
000290 b9 81 61 3d f2 90 e5 bc 13 20 89 bc 51 5e ca 3c
       0.055055354 -0.028023217 -0.016738927 0.024703177
0002a0 80 e4 4e 3c 36 09 c6 ba 49 04 d1 bc f4 d9 fb bc
       0.012627721 -0.0015108946 -0.025514739 -0.030743577
0002b0 5d 82 47 bd 1b f1 c2 3d 7a 0a a7 3c 7b e7 9e 3c
       -0.04870831 0.095186435 0.020390738 0.019397488
0002c0 c3 a1 42 bd a5 45 e0 3d e1 a0 3e bc 2e e3 c1 bc
       -0.04751755 0.10950784 -0.011635036 -0.023667898
0002d0 cf d2 a5 bd fd 0d 6f bb 0e 18 2f 3d 6a 59 a9 3c
       -0.08096849 -0.0036476844 0.04274755 0.020672519
0002e0 63 ba 87 3b 9a f4 55 bd 7c 95 5e bd a3 af 4e 3d
       0.004142092 -0.052235223 -0.05434178 0.05046047
0002f0 ad c2 28 3d 9f 4e 22 3d 4f 22 da bc 7b 68 a8 bb
       0.041201282 0.03962576 -0.026627688 -0.005139408
000300 e7 9c b1 3d b4 4d f4 3d e7 a2 93 3b fa 7b 1c bb
       0.08672505 0.11928883 0.0045055035 -0.0023877607
000310 7c df c4 3c ee f9 ff bc 48 64 04 3e dd 54 85 bd
       0.024032347 -0.031247105 0.1292888 -0.06510327
000320 4c 4d 32 3c 31 0a 70 bd d3 d8 e2 bc 0f 67 3b bd
       0.010882687 -0.05860347 -0.02769128 -0.04575258
000330 51 69 10 3b 7f 00 2d bb 33 32 0b bd af 75 a0 bc
       0.002203543 -0.0026398 -0.03398342 -0.019587366
000340 71 b7 c1 bb 8b 64 4b bd 07 bc 87 bb f7 1e 9b bd
       -0.0059117605 -0.049656432 -0.0041422877 -0.075742655
000350 da cf 92 3a 6e d9 04 bd 0d 7a c2 3d e6 53 00 3d
       0.0011200861 -0.03243392 0.094959356 0.03133001
000360 87 64 0b bc 76 f4 50 3d d2 44 7b bd 5c 9a 12 3c
       -0.008507854 0.051014386 -0.06134493 0.008947935
000370 6c f1 8b 3d bf 17 15 3d 6c ce ad 3c 34 62 69 bd
       0.06833157 0.0363996 0.021216594 -0.05697842
000380 e1 4a af bc 41 32 74 3d 44 2b 28 3e 25 f2 e8 3a
       -0.02139801 0.05961824 0.16422755 0.001777236
000390 06 6a 4b bc 87 d9 89 3d 3e cb 5a 3d 41 1f c5 bd
       -0.012415415 0.06730943 0.053416483 -0.09625102
0003a0 43 a5 24 3c 41 2a 1b bc 93 c7 92 3b 46 4c da bd
       0.010049167 -0.009470523 0.0044793575 -0.10659079
0003b0 5b 56 db 3b da 02 26 bc 51 7c fe bc cb b5 a8 3d
       0.006693644 -0.010132516 -0.031065138 0.08237799
0003c0 66 75 10 bd d1 99 ac 3b b1 f0 4e 3d 7b 01 b4 bc
       -0.03526821 0.00526736 0.05052251 -0.021973362
0003d0 47 71 7e bc b7 37 b4 bc 82 17 26 ba 1b 0e b0 bb
       -0.015529937 -0.021999223 -0.00063359004 -0.0053727753
0003e0 29 bd c3 bd d5 2f bb bc 1d 92 2a bb b2 27 ef bd
       -0.09557564 -0.022849957 -0.0026027032 -0.11677493
0003f0 f8 68 99 3d 95 59 ca bb 55 08 3c 3d 7f 11 dc bc
       0.07490724 -0.00617523 0.045906384 -0.026863812
