HAR_APP/app/src/main/assets/cnn_lstm_qat_wisdm.tflite (tflite, 877792 bytes, 32 tensors)

model/batch_normalization/batchnorm/mul_1;model/conv1d/Conv1D/Squeeze;model/conv1d/BiasAdd;model/conv1d/BiasAdd/ReadVariableOp;model/batch_normalization/batchnorm/mul;model/conv1d/Conv1D f4 [64, 1, 5, 6]
000000 fa c4 25 bd 1f 22 49 3c 45 43 a6 3c 5a 86 f6 3c
       -0.040471055 0.0122762015 0.020295748 0.03009336
000010 fd 41 4e 3c 1f 5b ee bc d6 3d 00 3c d5 9c 85 3c
       0.012588975 -0.029096184 0.007827243 0.016310135
000020 e5 70 50 3d b0 bf 8f bc e4 7b 16 bd 66 a4 3c bd
       0.050888915 -0.017547458 -0.036739245 -0.04605522
000030 56 75 21 3d dc 2c cc bc 68 6a 0c bd a9 3b 0b bc
       0.03941854 -0.024923734 -0.034281164 -0.008498111
000040 e7 5b 40 bd e3 f1 1c bc 8c 14 fe 3c 05 e8 06 bd
       -0.046962645 -0.009579155 0.031015657 -0.032936115
000050 7e 04 95 3d 05 17 4d bc 38 65 9f 3b 09 6b 2b 3d
       0.072762474 -0.012517695 0.004864361 0.041850124
000060 41 20 16 bb 1e 96 1d bd 4f 2a 71 3d da cd 27 bd
       -0.0022907408 -0.03847324 0.05887824 -0.0409678
000070 64 8e 25 bc 86 02 0d bc 9b b0 b1 bc ea e4 79 bd
       -0.010104749 -0.008606559 -0.021690657 -0.061009325
000080 4f 83 f7 3c 7e ba 5c 3d df 37 c7 3c 03 91 a7 3a
       0.03021398 0.05388879 0.024318634 0.0012784306
000090 43 e5 a3 3c 4d 78 05 bd c3 c8 84 bd 53 af 52 bd
       0.020006781 -0.03258543 -0.06483605 -0.051436733
0000a0 17 b3 be bc ef d3 0b bd 67 d7 69 bd e4 83 d9 3c
       -0.023278756 -0.034137663 -0.05709019 0.026552148
0000b0 ac 7f 63 bc 01 7e 77 3d e0 83 b6 ba e1 84 45 bd
       -0.01388542 0.0604229 -0.00139248 -0.048222426
0000c0 b3 85 96 bd 8c d6 fb bb 65 13 db 3c bf 93 ce bc
       -0.0734972 -0.007685488 0.026742646 -0.025216935
0000d0 8a b1 7a bd 10 4a c6 3b fd cd 06 3c 73 02 70 3c
       -0.06120447 0.0060513094 0.008227822 0.014649021
0000e0 eb 43 1d 3d fd 18 67 3a e7 bb 05 bc 84 15 08 3d
       0.03839485 0.0008815674 -0.008162475 0.033223644
0000f0 67 8a 64 bc 38 2b 1c bd df e1 87 bc 96 6b e2 bb
       -0.013949013 -0.038127154 -0.016587196 -0.006909798
000100 a3 5f 4a 3d 31 83 e9 3b 6c 01 8b bb 27 63 f9 bc
       0.049407613 0.007126235 -0.004242113 -0.030442787
000110 0a ab 09 bc e8 61 10 bb f5 0a 81 bd 71 c9 5d bd
       -0.008402595 -0.0022031013 -0.06300918 -0.054147188
000120 7e 8b 69 bc c0 02 41 bd 84 73 b3 bb 80 40 26 3d
       -0.014254449 -0.047121763 -0.005476417 0.040588856
000130 21 8d a8 b9 b5 79 96 bc 8b 67 d6 bc b3 8f a1 3d
       -0.00032148606 -0.018368581 -0.02617242 0.078887366
000140 96 97 2a 3d 2c 30 e5 bc 10 a5 14 bc b8 be 80 3d
       0.04164847 -0.027977072 -0.009072557 0.06286377
000150 75 fd b2 38 13 5d 65 3d d3 fe 84 3d ba d1 32 3d
       8.5349115e-05 0.055996966 0.06493916 0.043657042
000160 d8 af 79 3d d2 5e 98 3c 38 bb 86 3c aa 50 b9 3c
       0.060958713 0.018599901 0.016446695 0.022621471
000170 33 dd 56 3d e1 c5 08 bd 44 91 92 3d 9d b5 1d bd
       0.052457046 -0.033391837 0.071566135 -0.038503278
000180 2d 0d 37 bc 56 d9 50 bb 83 a6 88 3d 6f 61 fe bb
       -0.011172575 -0.0031867824 0.066723846 -0.00776308
000190 1f 50 7c 3d a9 dc a7 bb 5d db 7c 3d 55 60 b8 bc
       0.061599847 -0.0051227403 0.06173264 -0.022506872
0001a0 5e f0 0f bd 68 71 97 3d 7d 80 33 bd 37 61 42 3d
       -0.03514134 0.073946774 -0.043823708 0.047455993
0001b0 f9 f6 6b 3b f5 db 63 3d d0 e0 9e bd 4a 8d 80 3d
       0.0036005361 0.05562969 -0.07757723 0.06276949
0001c0 4f b7 01 bd cc 5c 43 bc ea 56 aa bd 70 5e 12 bd
       -0.031668957 -0.01192398 -0.08317359 -0.035734594
0001d0 2d 4a ce bd 9d 49 2d 3d 49 58 28 3c 89 da 37 bd
       -0.10072742 0.04230653 0.010274955 -0.044886146
0001e0 cd a8 9b 3b 26 0a 92 3b 8b 0f 4c 3c 58 9a 35 bc
       0.004750347 0.004456776 0.012454878 -0.011084162
0001f0 16 c7 06 3d 57 51 01 3d 03 c0 2c 3d f1 1c b4 bc
       0.032904707 0.031571712 0.042175304 -0.021986457
000200 a9 de 93 3d 21 bf f8 bb b6 1e 10 bd 75 a8 90 bc
       0.072202034 -0.0075911437 -0.03518554 -0.017658452
000210 92 ef db bb d9 18 b8 bb 1d e1 9f bd 92 b9 d7 bc
       -0.0067119086 -0.0056181964 -0.07806609 -0.026333604
000220 3e 36 3d 3d 10 7a c9 3c d7 c4 92 3b 0b d6 2b bd
       0.046194308 0.024594337 0.0044790315 -0.041952174
000230 61 2b bb bd ed 16 34 bd 4d be c9 3c 46 c2 f6 bc
       -0.09139133 -0.043967176 0.024626875 -0.030121934
000240 50 86 28 3d 99 5c 17 bd 60 f6 07 3d bb 60 50 3d
       0.041143715 -0.036953542 0.033193946 0.0508735
000250 77 ce 17 bd dd 32 b0 bc 11 75 1e bd b8 e6 bb 3c
       -0.037062135 -0.021508629 -0.038685862 0.022937164
000260 6f d3 d6 39 b9 27 5a bc 34 ba a7 bc 4c 5d 08 bd
       0.0004097479 -0.013315135 -0.02047453 -0.0332921
000270 48 73 27 3d 59 c4 6c 3d 0d df 46 bb a9 99 45 bd
       0.040881425 0.05780444 -0.003034535 -0.048242245
000280 0e ee cb bc 8e 36 2e bc b1 18 85 3d f2 bc 12 3d
       -0.024893787 -0.010633124 0.0649885 0.035824724
000290 c7 cd a4 3c 71 f3 eb 36 74 39 1b bd 12 78 88 bc
       0.020117654 7.031886e-06 -0.03789659 -0.016658816
0002a0 30 bd 5a 3b 8a d5 a0 bc 4e 8c 00 bd 3d 80 a9 3c
       0.0033376925 -0.019633073 -0.031383805 0.020691032
0002b0 47 1a 57 3d df af 53 3d 30 7b 2b 3d dc 65 d5 bc
       0.052515294 0.051681396 0.041865528 -0.026049547
0002c0 27 80 a9 bc 1b 26 07 bd 5d 87 e2 bc b2 ff 4c bd
       -0.02069099 -0.032995325 -0.027652437 -0.050048538
0002d0 e9 19 37 3d db 2b 54 3d dc a9 0e bd 83 0b 17 3d
       0.044702444 0.051799636 -0.03482996 0.036876213
0002e0 7f 79 5c 3c 8c 16 d9 3c f2 dc bd 3c 2b e2 49 3d
       0.013456701 0.026500009 0.023176644 0.049287956
0002f0 29 ec ab bc be 07 36 bc 73 ae 00 3c 04 bf 36 3d
       -0.020986633 -0.011110244 0.007854092 0.04461576
000300 ed 39 e6 bb 2f 37 34 3d 87 4e a2 3d 00 b8 9d bc
       -0.0070259483 0.04399794 0.07925134 -0.019252777
000310 50 11 40 3d 04 e8 e2 bb bb e3 80 3c b5 d3 cd bc
       0.04689151 -0.006924631 0.01573359 -0.025125364
000320 9b 31 4b bc 07 77 63 3c 06 e8 1d 3d 4e 00 a3 ba
       -0.012401964 0.013883359 0.038551353 -0.0012436004
000330 92 24 81 3c ae dc a3 3b c4 be 90 3c c2 2b 50 3d
       0.015764508 0.0050006723 0.01766909 0.05082298
000340 96 f8 86 3c 42 ba dc 3c b9 f6 f3 3a b7 f9 9d 3d
       0.016475957 0.026944283 0.0018612958 0.07713645
000350 3e 66 c1 bb 5a b2 bb 3c 0a 67 0d bd 1d b2 55 3d
       -0.005902081 0.022912193 -0.034522094 0.052171815
000360 69 68 d9 3b d9 f4 be bc 2c 3c 51 3c ca 42 0e bd
       0.006634761 -0.023310112 0.012770694 -0.034731664
000370 7e cd 06 bd e7 46 b0 3c 09 20 49 3d 50 9d f4 bc
       -0.032910816 0.021518184 0.049102817 -0.029860169
000380 ad d4 34 3d a1 3d 76 3d 58 f4 87 3b 83 40 b6 3c
       0.044148136 0.060117368 0.004149001 0.022247558
000390 9d 63 10 3d 2f b8 97 bd fe 7e 19 bd 9c 1b 25 3d
       0.03525125 -0.07408177 -0.037474625 0.040309533
0003a0 ac 2c 61 bc c8 e4 d7 bc dc 4b 74 bd 2d e0 50 bc
       -0.013743561 -0.026354209 -0.059642658 -0.01274876
0003b0 98 1d d5 3c b8 c4 fd 3b 77 ae 56 bd 09 77 e2 3c
       0.026015088 0.007744398 -0.052412476 0.027644651
0003c0 4a 57 0e bd 63 52 79 bd 37 ec 80 bd 1f cb d9 bc
       -0.034751214 -0.060869586 -0.062950544 -0.026586113
0003d0 d6 77 a2 3c 08 1e 9b bd c5 85 40 bc 8b 4d 8e 3d
       0.019832533 -0.075740874 -0.011750643 0.06948384
0003e0 52 6b c3 3c d2 ba 6d 3d d9 7d 3a bd 4f 3c 8e 3c
       0.023854885 0.058039494 -0.045530174 0.017362742
0003f0 21 2c e0 3d ed fd 83 3d 4e 67 24 bd 2c a5 81 3d
       0.10945917 0.06444917 -0.04013758 0.06330332

model/batch_normalization_1/batchnorm/mul_1;model/conv1d_1/Conv1D/Squeeze;model/conv1d_1/BiasAdd;model/conv1d_1/BiasAdd/ReadVariableOp;model/batch_normalization_1/batchnorm/mul;model/conv1d_1/Conv1D f4 [128, 1, 3, 64]
000000 be f4 29 3d 8a 30 9d 3d f1 d4 a3 3d d6 55 e6 3c
       0.04149317 0.07675274 0.079996 0.028117102
000010 3b 17 c3 ba fb e0 86 bd 81 53 41 3d 6c 53 04 be
       -0.0014884243 -0.0658588 0.047198776 -0.12922448
000020 63 6c db 3c fd 99 f2 3d cd 8b 08 3d 20 2e f0 bd
       0.026785081 0.11845777 0.03333645 -0.11727548
000030 ad 89 da bb ee bc b6 bd 81 b5 8b bc 9a 53 99 3d
       -0.0066692443 -0.08922754 -0.017054321 0.07486649
000040 9b d4 3a 39 2c 6e 24 3e bd aa af 3d d7 1d fd bd
       0.00017817544 0.16057652 0.085774876 -0.12359207
000050 80 83 f4 bd 7f 6d a5 3d d1 1b d1 bd b6 4f f3 bc
       -0.11939144 0.08077525 -0.10210384 -0.029701095
000060 a2 c1 ae bc 10 c4 09 3e e7 c8 35 3d 08 27 d5 3d
       -0.021332566 0.13453698 0.04438105 0.10407835
000070 8f bc 79 3d 71 07 95 bd 49 d8 88 bd e8 7a 49 bd
       0.06097084 -0.0727681 -0.06681878 -0.04918948
000080 1b de 27 bd 16 d3 5e bd 16 1b c9 bd 0f 42 6f bd
       -0.0409833 -0.054400526 -0.09819619 -0.058412608
000090 ef ed 8d 3b 61 25 28 3d c7 ac 51 bd a5 1a 45 3d
       0.0043313424 0.041051272 -0.051190164 0.048121113
0000a0 d8 06 3a 3e 77 59 8d bd 3a 74 85 3d 2e d9 91 3d
       0.18166673 -0.0690183 0.06516309 0.07121502
0000b0 4f aa b6 3d 47 5d 2f 3d 82 6b a5 ba 6e a9 c2 3d
       0.089192025 0.042813566 -0.0012620541 0.095049724
0000c0 b9 c0 ae 3c e1 fc 16 3d 6e 0d 32 3d 81 6a 0a 3c
       0.021332132 0.036862258 0.04346984 0.008448244
0000d0 16 d6 12 be 80 ba 37 3e 89 b3 fa bd 13 a3 dd 3d
       -0.1433948 0.17942238 -0.12241275 0.108221196
0000e0 a0 a7 e2 bd 37 c9 91 3d 70 0d c7 3d 03 df 65 3d
       -0.11067128 0.07118457 0.0971936 0.056120884
0000f0 94 15 18 3e 1c 55 8e 3b 01 f1 cc bd 66 ee 0d bd
       0.14851981 0.004343642 -0.10006905 -0.034651183
000100 4f 80 37 3d 30 00 fa bd 28 32 a7 3d af ff ef 3d
       0.0448001 -0.12207067 0.081638634 0.1171869
000110 9d 11 e7 b9 ec a7 54 3c 39 b3 ee 3c 70 83 58 bd
       -0.00044072876 0.012979489 0.029138194 -0.052859724
000120 2a 2d 92 3d 93 62 d1 bd 03 b1 96 bd 01 b7 fa bd
       0.071375206 -0.1022388 -0.07357981 -0.122419365
000130 30 7a 8d bd 2d a0 87 3d af c2 d8 bc 88 55 9e 3d
       -0.06908071 0.06622348 -0.02646002 0.077311575
000140 c7 23 18 3e 6c 21 e4 3d cf af 8c 3c 15 e3 e9 3d
       0.14857398 0.11139187 0.017173676 0.114202656
000150 27 23 ed bd 26 80 f9 bd a5 7b fc 3c f2 3c 11 3e
       -0.115789704 -0.121826455 0.030820677 0.14183405
000160 77 10 84 3d f6 a3 b7 bd 9f 11 9a 3d 56 a0 ad 3d
       0.06448453 -0.0896682 0.07522892 0.08477847
000170 04 c7 df bc 78 db 03 be 1b 4d 27 be fd ee d6 ba
       -0.027316578 -0.1287669 -0.16338007 -0.0016398128
000180 32 2e 90 3b 93 59 f6 bc 6c 55 37 3c 4f ea 9f bd
       0.004400038 -0.03007201 0.0111898 -0.07808363
000190 07 0d b1 3d 61 6b a8 3d ab 0d db bd 63 52 5c 3d
       0.08645063 0.08223606 -0.10695966 0.053789508
0001a0 97 0a 51 bd bb 88 5a bd 03 38 db bd b3 88 cd 3c
       -0.05103549 -0.053353053 -0.10704043 0.025089597
0001b0 1b 82 5d bd 66 f5 d1 bd 8f 92 ae 3d 4f 62 80 bc
       -0.054079156 -0.10251884 0.085240476 -0.015671877
0001c0 59 3d a2 3d b1 de 8b 3d f7 4f fe 3d 3a 57 b0 bd
       0.079218574 0.068295844 0.12417596 -0.08610387
0001d0 26 db 94 3c 35 01 c8 3d 31 63 cd bd c2 60 cb 3d
       0.018170904 0.09765855 -0.10028685 0.099305645
0001e0 a6 08 bf 3c 8a 43 f3 bd 94 70 8d bd 23 3d 6b 3d
       0.023319554 -0.118781164 -0.06906238 0.05743135
0001f0 b7 93 0b 3e c5 fa 54 3c a6 f6 bc 3d 06 1b ef bd
       0.13630567 0.012999241 0.09226732 -0.11675076
000200 ef 77 9c bd 44 6d 33 bd 93 74 dd 3b 59 e4 2e 3e
       -0.07640063 -0.043805376 0.0067582815 0.17079295
000210 cd 92 2e bd 6c 76 a3 bd c1 c0 5e 3c 1f a1 a5 3d
       -0.04262047 -0.079815716 0.013595761 0.08087372
000220 a2 05 68 3d 68 3b b2 bd 9b 73 2a 3d e5 31 f8 3a
       0.056645997 -0.08702737 0.041614156 0.0018935768
000230 ad a5 df bd 37 29 9a bc 07 77 d6 bd f9 c7 48 3c
       -0.10920272 -0.01881848 -0.104719214 0.012254708
000240 7e ff 69 bd 57 ec da 3c 94 41 36 3c 0c eb a3 3c
       -0.057128422 0.026724024 0.0111240335 0.02000954
000250 8b c8 a3 3d 2d f9 78 3b 0b 98 ee bd c0 42 9e bd
       0.07997235 0.0037990317 -0.11650094 -0.07727575
000260 96 64 e4 3c ed cd 47 3d 5c f1 41 3d 31 56 d9 3b
       0.027879994 0.04878037 0.04734932 0.0066325893
000270 63 c0 0a 3e 9f a4 41 be 76 9c db bd e1 63 b0 bd
       0.13549952 -0.18910454 -0.10723202 -0.086128004
000280 8c df bb bd 9c 72 15 be ec 2c 21 3d 6f 0e b3 bd
       -0.091734976 -0.14594501 0.03934948 -0.08742987
000290 ee 74 c0 3d 94 89 ca 3d 6b 95 69 ba 31 65 0c 3e
       0.093973026 0.09889522 -0.00089105096 0.13710476
0002a0 1d 99 05 3e c7 56 f5 bd 55 7b 0a 3c 90 12 cf 3c
       0.1304669 -0.11979442 0.008452256 0.025277406
0002b0 24 1e 9d bd aa fc ba 3c dd d5 dc 3b 2f 1e 51 3d
       -0.076717645 0.022825558 0.0067393617 0.051054176
0002c0 90 a3 78 3d 21 60 c0 3d a2 f7 21 be be ea 36 bd
       0.06070286 0.09393335 -0.1581712 -0.04465746
0002d0 23 4d b6 3c 2c 8c 16 bd ae 13 c5 3c c4 85 c4 3c
       0.022253579 -0.036754772 0.024057236 0.023989566
0002e0 8c ed 0c be 7c e4 58 bd b3 07 62 bd 42 5e 41 bc
       -0.13762492 -0.052952275 -0.055183124 -0.011802258
0002f0 ed 75 74 bd 75 2a 12 3d 82 ba b3 3c fb 89 f1 bd
       -0.059682775 0.03568502 0.02193952 -0.11793896
000300 c3 26 7e 3c 2c c1 29 bd 3e eb e0 3a 03 58 2a bd
       0.015512171 -0.04144399 0.0017159951 -0.04158784
000310 05 ab 18 be 03 1e a7 3c 28 36 ce 3c 9e bc 87 3a
       -0.14908989 0.020400053 0.025172308 0.0010355895
000320 a7 5a 03 3d 42 6c 79 bd f6 d0 8f bd ae 94 d7 3c
       0.032068875 -0.06089426 -0.07022278 0.026316013
000330 ef 29 0c bd c8 57 8a bd 67 62 1d bd 88 0e 9c bd
       -0.03421968 -0.06755024 -0.038423922 -0.07619959
000340 04 f8 29 bc 9f c9 62 bd b1 52 86 bd c7 87 f4 3d
       -0.010374073 -0.055368062 -0.06558741 0.1193996
000350 91 45 2f 3d e7 a4 0c 3d fa 90 a5 3d 6c 22 75 bb
       0.042790953 0.03433695 0.08084293 -0.003740455
000360 6d a9 ab 3d c2 ed 88 3d 6b d6 7e 3d 10 7e 80 3d
       0.08381925 0.06685974 0.062216204 0.062740445
000370 18 79 ec 3c b9 25 4e bd e5 b5 1b 3d ad b7 cf 3d
       0.028866336 -0.050328944 0.038015265 0.10142455
000380 b8 a6 e4 3d 24 3c fd 3c 3b bb e8 bd cc 03 60 bd
       0.111646116 0.030912466 -0.113638364 -0.05469112
000390 31 d1 fe bc e3 e3 8d bd c7 82 57 3d 45 85 97 3c
       -0.03110561 -0.069282316 0.052614953 0.018496165
0003a0 14 a5 dd 3d 1e a6 8a bd 76 52 c2 bc 48 4a 1c 3d
       0.10822502 -0.067699656 -0.023720961 0.038156778
0003b0 25 83 c2 3c dd 94 a0 bd ed 3c cb bd 88 64 63 3d
       0.023744175 -0.078408934 -0.0992373 0.055515796
0003c0 b5 95 8a 3d ca 4c eb bd 62 da a5 bd 5c 93 92 3b
       0.067668356 -0.11489256 -0.08098294 0.004473133
0003d0 73 39 8a bd eb cf 49 bb 24 b8 26 3d 6a 36 ba bc
       -0.06749239 -0.0030794095 0.040702954 -0.022731025
0003e0 7f a8 86 bb 24 14 8f bc 28 c4 32 bd 8a 52 cc bd
       -0.004109442 -0.017465658 -0.0436441 -0.099766806
0003f0 e4 3c 2e bd 44 83 a3 bc 9e 6e ff bc 1e 5f 10 bd
       -0.04253854 -0.019960053 -0.031180676 -0.03524696

model/quant_dense_1/MatMul;model/quant_dense_1/BiasAdd f4 [6]
000000 39 be 8f 3e 73 32 48 bf 9c 43 13 40 6e 5c b2 3f
       0.28074816 -0.7820198 2.3010015 1.3934457
000010 69 e7 5c bf 62 95 89 3f
       -0.86290604 1.0748713

model/batch_normalization_2/batchnorm/mul_1;model/batch_normalization_2/batchnorm/add_1;model/quant_dense_1/MatMul;model/quant_dense_1/BiasAdd f4 [6, 128]
000000 33 57 00 bf 2f 9d 8e 3f 4b d3 98 be 80 4f 94 3e
       -0.50133055 1.1141719 -0.29848704 0.28966904
000010 c5 e5 90 3e be 5b 80 c0 69 0c 26 3f 65 a7 ae 3e
       0.283003 -4.011199 0.64862686 0.34112087
000020 2c 0d 20 bf 1a eb 17 3f d5 f2 70 bf 09 7a 23 3e
       -0.625201 0.5934311 -0.9412053 0.15964521
000030 1b 20 65 be 1e d3 aa 3d a1 d8 55 bf bc 2b 16 bf
       -0.22375529 0.08341049 -0.83533674 -0.58660483
000040 9a c9 de be 39 66 07 3f a6 8e 9d bc 58 24 50 c0
       -0.43513185 0.52890354 -0.01923306 -3.2522182
000050 bd 89 b0 c0 a3 48 48 be 10 54 17 3f 6c 34 a1 3d
       -5.5168138 -0.19558959 0.59112644 0.07871327
000060 93 28 17 3f 3c 58 52 c0 7d f1 47 3f 94 6e 29 40
       0.59046286 -3.2866354 0.78102857 2.6473742
000070 0d 21 23 3f 3d ee 56 3f 9a aa 09 c0 89 5a 85 3f
       0.63722306 0.8395727 -2.1510377 1.0418254
000080 e6 e7 11 bf 91 0b 17 bf 19 26 6e be 0c 3b 00 bd
       -0.56994474 -0.59002024 -0.2325672 -0.03130631
000090 a6 03 a3 3f 7d 90 66 3f 67 92 66 be 6e 8b 88 3d
       1.2735488 0.9006422 -0.22516786 0.06667219
0000a0 2a 47 8c 3f 01 cb 9c 3e 56 22 14 bf 0e 76 a5 3d
       1.0959218 0.3062363 -0.5786489 0.08079158
0000b0 fc a5 bf 3f 8d 30 92 40 62 03 39 3f c7 57 f1 3f
       1.497253 4.5684266 0.72270787 1.8854913
0000c0 a8 fa 29 3f 4f 70 42 3f 98 c6 6f bf 1a b9 c0 bc
       0.66398096 0.7595262 -0.93662405 -0.023525763
0000d0 2f de a4 c0 3d 55 a5 bf a6 c1 93 bf ae 66 6a c0
       -5.152122 -1.2916638 -1.1543472 -3.662517
0000e0 ab a3 09 40 62 65 81 3d b8 b2 92 be 53 36 39 3f
       2.1506145 0.06318165 -0.28651977 0.7234852
0000f0 98 8e 2d bf 75 9b f4 3e 22 c5 db be c5 66 02 bf
       -0.67795706 0.47774854 -0.42923838 -0.50938064
000100 5c 0b 5b be 28 83 18 3e 79 51 81 3d d3 bb 38 3f
       -0.21391052 0.14893782 0.06314368 0.72161597
000110 5d df 22 bf 7a 52 06 3d ad 22 ad 3e b5 4e c4 3c
       -0.63622075 0.0327935 0.33815518 0.023963312
000120 40 2f e9 be 6e ce 70 3f d0 89 d0 3e 73 c4 e2 be
       -0.4554386 0.94064987 0.40730143 -0.44290504
000130 c4 e5 c6 bf cb 00 a5 be 63 2d 8c bd 1d 83 9f 3e
       -1.5538869 -0.32227167 -0.06844594 0.3115472
000140 79 e2 38 3e 69 8b bd be be e9 a0 bf 24 55 8c bf
       0.18055142 -0.37020424 -1.2571332 -1.0963483
000150 5e 4f b8 40 39 da ae 3f f3 d0 a3 bd ce a7 1b 3f
       5.7596884 1.3660346 -0.07998838 0.60802925
000160 6a 4d 92 40 a9 15 e4 3e db b1 d0 be 49 95 2d bf
       4.57195 0.44547775 -0.40760693 -0.67805916
000170 2a ee 59 bf ae af 23 bf 59 4e 10 c0 24 58 4c 3f
       -0.85129035 -0.6393994 -2.254782 0.7982199
000180 5c bf 5f 3e a2 d4 a5 3f a1 25 9d 3f 1d d4 09 bf
       0.21850342 1.2955515 1.2277108 -0.53839284
000190 e9 d3 92 bd 9f df 8e bf 9c 33 ed 3e d2 8e 33 3f
       -0.07169325 -1.1161994 0.46328437 0.701398
0001a0 3e 6e 10 bf df 1e b8 3e 7b 67 80 bf 80 34 c3 bf
       -0.56418216 0.35961053 -1.003158 -1.5250397
0001b0 3e 49 43 3f 08 e2 36 be 03 c9 80 be 5e f1 3e 3f
       0.76283634 -0.17859662 -0.2515336 0.7458705
0001c0 44 23 25 bf 74 70 49 3f 12 55 41 be d3 4f c4 3e
       -0.64506936 0.78687215 -0.18880108 0.3834215
0001d0 cc 6f 41 be ad 67 a3 be f0 a5 7f be ba 4b d4 3e
       -0.18890303 -0.31915036 -0.24965644 0.41464025
0001e0 29 04 81 c0 56 44 fc bd 2d e4 91 3c cc 1b 7a 3c
       -4.031758 -0.123177215 0.017808998 0.015265416
0001f0 f5 1c bc bc 94 98 32 bd ce 02 b6 3e c3 1f eb c0
       -0.022963027 -0.04360254 0.35549015 -7.347627
000200 e7 4c a9 be 62 86 af bf a2 ee 0a be 8b 46 c3 bf
       -0.33066484 -1.3712885 -0.13567594 -1.5255903
000210 29 a5 81 bf ea c2 8f 40 3a a8 df 3e 45 0a d3 be
       -1.0128528 4.492543 0.43683034 -0.41218773
000220 b7 b8 2a 3e 70 49 85 3f 98 fa 23 c0 5f 84 79 be
       0.16672026 1.0413036 -2.56217 -0.24366902
000230 66 05 0c be 18 35 e0 be 6e 8c cc be 42 db a6 3e
       -0.13673934 -0.43790507 -0.3995089 0.32589155
000240 13 f2 c8 3e 4d 88 34 3e 58 1b fb be da b9 b8 40
       0.39247188 0.1763012 -0.490443 5.772687
000250 5b 44 66 c0 e1 78 68 3f bc 16 9f 3f c9 2a 9c be
       -3.597922 0.90809447 1.2428813 -0.30501392
000260 77 38 95 3f 1e aa 01 c0 48 f8 6c 3d d8 9e 54 bd
       1.1657857 -2.0260081 0.057853967 -0.051909298
000270 9a 66 f0 3e fc 5d 3e bf 93 98 fd bf 13 c5 3e 40
       0.4695328 -0.7436216 -1.9812187 2.9807785
000280 a8 44 4c be cd c6 a4 bd e8 b4 66 40 81 c6 75 3f
       -0.19948065 -0.08045731 3.6047916 0.9600602
000290 ac a2 a8 3e 6b a0 45 be b2 c1 22 3f 6e 8b 08 3d
       0.3293661 -0.19299476 0.63576806 0.033336096
0002a0 3f 4c 16 40 31 fd f4 3e 6c 60 7c be d1 24 ba be
       2.3484037 0.4784942 -0.24646157 -0.36356214
0002b0 fb 87 ff 3e 5d 6f 9d c0 62 03 b9 be 9e ba d0 3f
       0.49908432 -4.919844 -0.36135393 1.6306951
0002c0 5f e1 03 3f 4a 49 b6 be 00 00 00 00 46 0c 92 3f
       0.51515764 -0.3560279 0.0 1.1409996
0002d0 ef 77 00 c0 f5 0e 2f bf cd 9b 21 40 6b af 26 40
       -2.0073202 -0.683822 2.5251343 2.6044567
0002e0 1d 66 e5 bf 6c 71 e2 3f d7 25 ab 3e e5 b0 a6 3f
       -1.7921788 1.7690864 0.33427307 1.3022734
0002f0 7e 53 49 bf 82 25 5c be 19 86 08 bf 4f 52 c9 3d
       -0.78643024 -0.21498683 -0.53329617 0.09830152
000300 7c 41 6a 3f be 88 49 bf b3 72 cf 3f e6 b4 01 bf
       0.9150617 -0.78724277 1.6206878 -0.50666654
000310 a9 97 de bf 54 4e a2 3e 02 e0 3c 3e 62 62 75 be
       -1.7390033 0.31700385 0.18444827 -0.23963311
000320 89 f3 ce bf 35 b9 82 bf 51 2d 5d bf 70 c6 ac bd
       -1.6168071 -1.0212771 -0.8639727 -0.084362864
000330 1e 7e a7 3e 52 f8 6e be 27 4d 6e 3f ba 92 8b 3d
       0.32713407 -0.23336914 0.93086475 0.06815095
000340 ce cf 86 3f 94 63 87 be 13 85 bd 3f 32 77 c4 3f
       1.0532167 -0.2644316 1.4806236 1.5348876
000350 48 f4 2a be fd 3b 8b bf 6e 52 de 3e 71 73 6e 3e
       -0.16694748 -1.0877682 0.43422264 0.23286225
000360 e0 00 51 3f a3 0c 85 be 55 9d 38 3f 6e 1d 24 3e
       0.8164196 -0.25986204 0.7211507 0.16026852
000370 1d 70 15 3d 00 00 00 00 33 e6 e4 bf b6 79 23 3e
       0.036483873 0.0 -1.7882751 0.15964398
000380 47 b7 7b 3e b2 ab 89 be 7a 01 dc bf d1 b0 78 bf
       0.24581634 -0.26888806 -1.7187951 -0.971448
000390 9b c5 77 be e8 79 08 3d f9 05 fa be 8d fe 5c bf
       -0.24196474 0.033319384 -0.48832682 -0.86325914
0003a0 94 de 93 3f a4 ac 6b 3f 31 73 3a 3f 99 57 87 bf
       1.15523 0.92060304 0.7283202 -1.0573608
0003b0 71 96 2d bf ca 76 7b 3f fc d9 03 bf 14 1e ac 3e
       -0.6780768 0.9822813 -0.5150449 0.33616698
0003c0 df 51 8d 3f 18 57 46 bf e1 b3 46 bf de 3b 13 bf
       1.104061 -0.77476645 -0.77618223 -0.57513225
0003d0 1a ad e1 3e a5 8f b5 bd b3 f6 20 3e cc 38 1f 3f
       0.4407738 -0.08865289 0.15719108 0.6219604
0003e0 c3 d9 23 41 81 ae 2b bf f6 3e ad 3e da a3 0e bf
       10.2406645 -0.67063147 0.33837098 -0.5571877
0003f0 1a 05 71 bf 76 63 8d 3f b2 8e 46 bf 05 2b 0e c0
       -0.9414841 1.1045978 -0.77561486 -2.2213757

arith.constant f4 [64, 64]
000000 81 eb 01 bd 70 0e 24 3c 98 05 b7 3d 2b d4 8b 3d
       -0.031718735 0.010013208 0.08936614 0.06827577
000010 1a f1 d4 3d a7 0b 02 3c fa a8 10 3e a0 db d1 bd
       0.10397549 0.007937348 0.1412696 -0.10246968
000020 66 42 3d bb 50 b0 6f 3d 09 ad 2f bd a9 5f aa 3c
       -0.0028878688 0.058517754 -0.04288963 0.020797567
000030 6b 19 d1 3d 84 72 86 3d 9d 54 ed bd 5c d8 b0 bc
       0.10209926 0.06564811 -0.11588404 -0.021587543
000040 82 34 3e bd d5 bd 7b bd cf 4e 98 bd de 4a b2 bc
       -0.046436794 -0.061460335 -0.074369065 -0.021764215
000050 9f f3 dc bd ac 29 32 3e 1b c9 ae 3d 19 a0 f6 3c
       -0.107886545 0.17398709 0.085344516 0.030105637
000060 c6 e9 0c 3d aa b8 19 3d 70 09 48 bd 75 56 55 bc
       0.03440263 0.037529625 -0.048837125 -0.013021101
000070 bb 08 03 3d 9a 7d c0 bd 8e a3 82 3c 46 ac e6 bc
       0.031990748 -0.093989566 0.01594713 -0.028158318
000080 d9 27 8f 3c ff ea f5 3c 66 26 31 3d 23 e9 9f 3d
       0.017475056 0.030019281 0.04324951 0.07808139
000090 e3 c3 86 bd 12 f3 0f be 95 d9 7c 3d 2a c6 48 3d
       -0.06580331 -0.14057568 0.06173094 0.04901711
0000a0 36 91 d9 3c 5d fc 9b 3d 1b 58 ca bc 41 30 ed bd
       0.0265585 0.07616494 -0.024700215 -0.11581469
0000b0 ba e5 26 3a 4e 81 74 bd 72 b1 96 3d 1b 08 02 be
       0.00063666294 -0.059693627 0.07358064 -0.12698404
0000c0 cb b1 24 3c 43 6a 5f 3c 7e 19 8a 3d de a7 cf bc
       0.010052155 0.013636175 0.067431435 -0.0253486
0000d0 04 84 cf bd eb fb d6 bc d1 f6 89 bd ea cb 8d bd
       -0.10132602 -0.02624317 -0.067365296 -0.06923659
0000e0 e9 35 66 3c 27 b3 bb bd b4 4f cd bd a2 d3 20 bc
       0.014050939 -0.0916503 -0.10024968 -0.009816082
0000f0 e0 24 06 be eb 15 0a bc ff 80 af 3d 53 47 e5 bd
       -0.13100004 -0.008428077 0.08569526 -0.11195245
000100 af 6e 27 bd 67 f6 25 bd e9 d2 0a be 9c be 9e 3c
       -0.04087704 -0.04051819 -0.13557018 0.019377999
000110 ad e1 ff 3c 27 ad a9 3d c0 ca 4a bd 7e e3 50 3d
       0.03123554 0.08284979 -0.049509764 0.050998203
000120 69 f3 20 3e 75 3a 54 3d d6 cb 0d bb 86 a5 8b bc
       0.15717854 0.05181356 -0.0021636388 -0.017046701
000130 d0 3f 20 bc 13 5a 89 bd 77 53 5a bd 6a 48 81 3d
       -0.009780839 -0.067066334 -0.053302255 0.0631264
000140 f4 80 2b 3c db c3 ce bc 1f 32 06 3c 86 b8 44 3c
       0.010467757 -0.025239876 0.008190661 0.012006884
000150 82 f1 d7 bb 73 01 d9 bd 2d d5 80 bd 1c 73 a9 3d
       -0.0065900693 -0.105959795 -0.0629066 0.082739085
000160 5f f3 17 3e 1a 76 a5 bc 41 d6 ce 3b 68 30 f5 bc
       0.14838932 -0.020197917 0.006312162 -0.029930308
000170 fe 9d e6 bd 01 10 88 bd 50 bf 26 bd 5d 33 46 bd
       -0.11260603 -0.066436775 -0.040709794 -0.048388828
000180 13 25 85 bd c1 ef dd 3d 1c 6b 8b 3d 9a 9a a0 3d
       -0.06501212 0.10836745 0.06807539 0.07841988
000190 0d aa 14 bc 0b 13 20 3c a5 14 21 bd 73 f0 99 3d
       -0.009073746 0.009770165 -0.03932633 0.07516565
0001a0 93 52 05 3c e7 d5 02 3e 43 95 84 bb 1b 9b eb ba
       0.008137363 0.1277691 -0.0040461137 -0.0017975302
0001b0 6e c6 14 bc 29 7e 9f bc c6 0f 36 3d 45 9e 19 3e
       -0.009080512 -0.019469338 0.044448636 0.15001781
0001c0 e7 6d db bc 65 70 10 3c 8d 78 a2 3d 17 c8 9d 3d
       -0.026785804 0.008815859 0.079331495 0.0770418
0001d0 f8 22 b6 bd 3f 47 03 bd 58 0b 6f 3d 65 d7 25 bd
       -0.088933885 -0.032050367 0.058360428 -0.04048862
0001e0 8a b5 8f bd 84 0b 02 3e 7e c0 6e bd 38 a6 fe bd
       -0.07017048 0.12699705 -0.058289044 -0.124340475
0001f0 b2 b8 98 bd 83 df 21 3c 97 f6 95 bc 04 0f 36 bd
       -0.07457103 0.0098799495 -0.01830606 -0.044447914
000200 8b d9 85 3d 4a d3 19 3d 0a 12 41 bd d1 5a 77 bd
       0.06535634 0.037555017 -0.047136344 -0.060389344
000210 ad e6 b7 3c 1b 07 3b 3d e7 f5 a0 bc b2 3e a8 3c
       0.022448862 0.045661073 -0.019648505 0.020537708
000220 f6 75 89 3c 49 f8 a0 3d 82 da fb bb c0 92 81 3c
       0.016779881 0.07859857 -0.0076859603 0.015817046
000230 ac 92 14 bd e4 fc e1 bb c3 a3 20 bd 8a cf fe 3d
       -0.03627269 -0.006896602 -0.039218675 0.12441929
000240 03 17 92 3c 7d da 93 3d ca dc 1e bd ab ff 08 3c
       0.017833238 0.07219408 -0.03878478 0.008361737
000250 3b 94 c4 bd 01 af 22 3d 8f d6 54 3d 8d 18 a9 3c
       -0.09598585 0.039717678 0.05196243 0.02064159
000260 58 b6 e4 bd 0c b2 b8 3c 75 81 03 3c ef 26 52 bb
       -0.11167592 0.022545837 0.00802647 -0.0032066663
000270 98 f4 39 3d b9 92 ae bb 4b de 52 3d 8d 3f 5a 3d
       0.04539928 -0.0053275493 0.051481526 0.053283263
000280 22 0e ab bc 38 62 df 3c 65 43 bc 3d 9a d9 7c 3d
       -0.020880762 0.027268514 0.09192542 0.06173096
000290 a9 25 41 3c 5c ae 44 3d d2 48 d3 bc 5b 30 0d be
       0.011788764 0.048017845 -0.02579156 -0.13787977
0002a0 ae 87 c6 bd 99 92 c7 3d 37 46 a3 3c 38 30 0a bd
       -0.096938476 0.09744758 0.019930942 -0.03373739
0002b0 8e 57 42 bd ef 63 8d 3d fe d1 be 3d dd f7 dd bc
       -0.04744678 0.069038264 0.093173966 -0.02709573
0002c0 33 94 93 3d 8a f4 0a bc 38 47 bd 3d 39 12 e8 bd
       0.07206001 -0.008481154 0.092420995 -0.11331601
0002d0 30 94 b2 bd 78 f9 c5 bd 6f d8 bb 3c ac ed 14 3e
       -0.08719671 -0.09666723 0.022930352 0.1454379
0002e0 68 74 5f bb df 94 c0 3c 5f 80 f2 bd 8b dc ef 3c
       -0.0034096483 0.023508487 -0.11840891 0.029279968
0002f0 40 b9 9a bc 12 7c 15 bd 63 31 15 be 9d bd f1 bc
       -0.018887162 -0.036495276 -0.14569621 -0.02950936
000300 f4 5b 26 bd 83 12 7b 3d 22 d6 26 bc e3 85 61 3c
       -0.040615037 0.06129695 -0.010182889 0.013764831
000310 4e fa dc 3c 76 3e ab bc 8d 3e 78 3b c5 57 e9 bc
       0.026974823 -0.020903807 0.003787908 -0.028484235
000320 f2 1c 22 3d 28 5c 3a 3d 8b 20 b1 3d f3 49 09 3c
       0.039578386 0.045498043 0.08648785 0.008379447
000330 b9 c3 15 bd 6a 1f 53 bc 1f 6a 82 bd c1 0b f2 3d
       -0.03656361 -0.012885908 -0.06367897 0.11818648
000340 46 72 c1 bd 22 1b 92 3c 20 83 37 3c b3 5f 1e 3d
       -0.09445624 0.017835204 0.011200696 0.038665485
000350 4f cc 71 3d 4a 61 92 3c 7c 26 0d 3c 30 a0 6e 3a
       0.059032734 0.017868657 0.008615132 0.0009102849
000360 8e e3 a8 3a 7a 7c 22 bc c8 6f 58 bd e8 88 9f 3d
       0.0012885199 -0.009917373 -0.052840978 0.07789785
000370 a2 10 c5 3d 0e 38 3d bd 36 f7 18 bc 90 e7 42 3e
       0.09622313 -0.046196036 -0.009336283 0.19033647
000380 a8 a3 29 bc d6 2f 3e bc e1 ec 7d 3d 30 df 64 bd
       -0.01035396 -0.011608085 0.061993483 -0.05587691
000390 d5 09 1f be 23 32 04 3d b8 86 11 3d 27 87 d1 bb
       -0.15531094 0.032274377 0.03552887 -0.0063942852
0003a0 9b 92 4f 3d 69 6c 1a 3c 6c 03 45 bd 23 f2 3a 3d
       0.050676923 0.009425261 -0.048098966 0.045641076
0003b0 f2 cf 97 bd 63 b7 a1 3d 07 d8 4e bd c5 c3 0b 3d
       -0.07412709 0.07896306 -0.05049899 0.034122247
0003c0 c5 c4 26 3d 62 9d 1e 3e 17 5a 25 3d bd b5 39 bd
       0.040714998 0.15489724 0.04036912 -0.045339335
0003d0 be 7a aa 3d 34 89 96 bd 65 1a 90 bd 6d 08 06 bb
       0.083241925 -0.07350388 -0.07036284 -0.00204518
0003e0 6e ff 72 3d 3c f3 23 be e9 91 f6 bc 8e 6b 1b bd
       0.059325628 -0.16010755 -0.030098872 -0.03794437
0003f0 fe 67 f6 3c fe 00 02 3d ff 12 a7 3c d9 17 d9 bd
       0.030078884 0.031739227 0.0203948 -0.10600252

arith.constant1 f4 [64, 64]
000000 5c 5b 61 3d d6 1d df 3d 5d 59 cd bd e8 04 81 3d
       0.055018768 0.10894363 -0.1002681 0.06299764
000010 dc 1f d8 3d 29 83 19 be 25 e8 db 3d 8f 0e 22 3c
       0.10552952 -0.1499144 0.107376374 0.009891166
000020 a9 a8 36 3d 0b 5a 5c 3d 30 97 2d 3e 11 c5 70 bd
       0.04459444 0.05379681 0.16952205 -0.058781687
000030 66 38 62 3c 2c 54 28 3d ed d6 a6 bd 01 6d 9c bc
       0.013807392 0.041095898 -0.081464626 -0.019094946
000040 e2 80 fd bd f7 34 5b 3c d1 1e 83 bd f6 dc 33 3d
       -0.12378098 0.013379327 -0.06402362 0.043911897
000050 b6 cd ba 3d b2 cb 1b 3d 62 4e 10 be 5e f0 16 3d
       0.091212675 0.038036056 -0.140924 0.036850326
000060 51 91 83 bd e5 08 2e bd c9 c9 d3 3d 80 3f 09 be
       -0.06424201 -0.04248895 0.10341222 -0.1340313
000070 ab 62 2e 3d e7 aa 6c bd f0 22 4a bd 11 71 fa bd
       0.042574566 -0.057780173 -0.049349725 -0.12228597
000080 61 51 37 bd 9f b2 75 3d 48 c3 e6 bc bd 97 c9 3d
       -0.044755343 0.0599848 -0.02816929 0.09843395
000090 9b 83 1f bb 79 ec 0b 3d 05 27 88 3c 2c 93 5c 3c
       -0.0024339918 0.034161065 0.016620168 0.013462823
0000a0 6e d7 cf 3d 69 22 3b 3d 1f d7 d8 3d d1 31 78 3d
       0.10148512 0.045687113 0.10587906 0.060594384
0000b0 e0 fc d5 3d 8e 49 38 3d 75 8d 8d bd c8 23 d3 bd
       0.10448623 0.044992022 -0.069117464 -0.10309559
0000c0 01 aa 43 3d e4 cb b3 bc a8 d3 f5 3c 93 97 71 bc
       0.04776955 -0.021947809 0.030008152 -0.014745611
0000d0 e0 08 e1 3d ae a1 c7 ba bd 27 d5 3d 26 76 01 3c
       0.10988021 -0.001523068 0.1040797 0.007901704
0000e0 4c 62 b1 bd 3c 66 47 3d 5b da 41 bd 5c b2 f5 bc
       -0.08661327 0.048681483 -0.04732738 -0.029992275
0000f0 b6 eb 74 bd 73 0f e2 bb 33 b0 75 3d a2 5c ba bd
       -0.059795104 -0.0068988143 0.05998249 -0.090996996
000100 a3 47 63 3d 57 d2 13 bd da 1c e3 3c 44 c7 83 3d
       0.05548824 -0.036089268 0.027723718 0.06434491
000110 c8 79 8e bb 8b ba da 3d 16 c7 85 3d 4c be 9b ba
       -0.0043480136 0.106801115 0.06532113 -0.0011882274
000120 99 ce c9 bc 13 21 0f 3d 1d ee 37 ba 7e 7a 7c bd
       -0.024634646 0.03494365 -0.00070163776 -0.061640255
000130 27 82 90 bd 76 62 e6 bb a7 ba c6 3d 2b 23 a9 bd
       -0.070560746 -0.0070307804 0.0970357 -0.08258661
000140 3d 2a 7f bc 49 4e 15 3c e9 c6 e6 3c 20 d2 ab 3d
       -0.015574035 0.009112903 0.02817102 0.083896875
000150 95 b1 4c bd 81 e6 c2 3d 58 1f d5 bb 8f 16 65 bd
       -0.049974043 0.095166214 -0.0065039806 -0.055929717
000160 89 6e df bb 54 81 d6 3c 95 bb 50 bd 5d 13 7e 3d
       -0.0068185967 0.026184715 -0.050960142 0.062030185
000170 bf 95 b4 3d df e8 dd 3b c6 23 1c bd 22 f2 fa bb
       0.08817624 0.006772145 -0.038120054 -0.007658259
000180 9f 64 33 3c 2b fe aa bc 31 22 30 bd b5 83 de bc
       0.010949283 -0.02087315 -0.043001357 -0.027162412
000190 42 a1 04 bd 2f 78 af 3d 06 8e 00 3d 16 e3 f0 3c
       -0.03238035 0.08567845 0.031385444 0.029405158
0001a0 85 ab 1c bd df 23 17 3e e8 2b 8b 3d c1 17 6e bd
       -0.03824951 0.14759777 0.06795484 -0.058128122
0001b0 31 9e 46 bd d1 5b cc bd e1 cd 11 be a8 ae 4a be
       -0.048490707 -0.0997845 -0.14238693 -0.19793189
0001c0 2a 74 8c 3d ce fd b6 3b d7 49 4f bc 72 28 00 3d
       0.06858094 0.005584455 -0.012651882 0.03128857
0001d0 cc 1f a1 3d 20 4a fb bd 70 b9 c4 bc 78 68 d8 bc
       0.07867393 -0.122699976 -0.024014205 -0.026417002
0001e0 17 31 d1 bd ff 68 e8 3c b6 d2 a9 bd b7 bc 1f 3d
       -0.10214441 0.028370379 -0.08292143 0.038998332
0001f0 ae 00 83 39 89 c8 99 3b 8e 44 8b 3c 7c 46 63 3d
       0.00024986773 0.004693095 0.017000463 0.05548714
000200 4e cf 1b bd 34 4c 54 bd b2 5f 0b 3d 2f 80 cd bc
       -0.038039498 -0.051830485 0.03402681 -0.025085537
000210 07 99 b5 3c 79 4f a1 3d 58 ef 96 bd b9 1d 21 3d
       0.022167696 0.07876486 -0.0736987 0.039334986
000220 de b7 83 3d 9f 8c 8e 3c 01 dc 9a bd ac 5c 76 bd
       0.06431554 0.017401038 -0.07561494 -0.060146973
000230 29 26 68 3c c5 0f 6e bd fc f0 1b bd 87 05 7a 3d
       0.014169254 -0.058120508 -0.038071617 0.061040428
000240 ef d6 6e 3d af c0 d8 3d e0 83 ba 3d de b1 7f bd
       0.058310445 0.105836265 0.091071844 -0.062425487
000250 0b 0f 95 3d 50 ef 81 bd b0 d5 c9 bd eb b9 35 bd
       0.0727826 -0.06344473 -0.09855211 -0.04436676
000260 e5 e6 50 3c 54 53 31 3d 66 c7 97 3b 44 c7 b9 bb
       0.012750362 0.04329236 0.0046319244 -0.0056695063
000270 ac 77 da bd 1a 09 04 3e 5b 7f c5 3c 2b 88 4f 3d
       -0.10667357 0.12894097 0.02410858 0.05066697
000280 04 55 85 bd 43 ab b2 3d bd 4d 9c bc 3a 13 27 bb
       -0.06510356 0.08724072 -0.019080037 -0.0025493638
000290 67 d8 03 3e 03 3c 51 3d 6c d2 82 bd 4e f0 74 bd
       0.1287552 0.051082622 -0.06387791 -0.059799485
0002a0 1a 89 4e bc 9d 99 bc 3c 65 a9 29 3d 18 20 75 3c
       -0.01260593 0.023022467 0.041421313 0.014961265
0002b0 c4 ce f7 bd 4e 62 2c bd ab ec ef bb 90 82 8f 3d
       -0.12099984 -0.04208594 -0.007321914 0.07007325
0002c0 85 26 81 bd 82 d1 8f 3a 57 5a 96 3c a3 7e bb bd
       -0.06306175 0.0010972472 0.018353624 -0.091550134
0002d0 0c c4 5a 3d 3b 09 34 bc d3 d3 cd 3b c7 25 5a 3d
       0.05340962 -0.010988529 0.006281355 0.053258684
0002e0 4e 3e 07 bd d8 e8 a1 bd 8f 82 68 bc 99 28 c0 bd
       -0.033018403 -0.079057395 -0.014191284 -0.093827434
0002f0 0d 46 f8 3d 01 2f 71 be 0e d2 e2 bc e8 fb b3 bc
       0.12122736 -0.23553087 -0.027688053 -0.021970704
000300 5a 09 3d bd 51 8c 0a 3b d6 4e d5 bc a6 0b 7c 3b
       -0.046151496 0.0021140764 -0.026038568 0.0038459091
000310 e5 fc cb 3d 10 eb 14 bd 4b 62 87 3d 10 b9 b4 3a
       0.09960345 -0.036356986 0.06610545 0.0013788063
000320 de 4f 89 3d 86 b0 43 bc 54 49 33 ba 6c 69 57 3d
       0.067046866 -0.011943942 -0.0006839235 0.052590773
000330 c5 79 e6 bc 4c c0 9c bc 56 c0 54 3d 10 52 55 3d
       -0.028134236 -0.019134663 0.05194124 0.052080214
000340 84 64 e3 bd 48 9f 99 bd a9 37 8e 3d e0 25 4e bb
       -0.11103156 -0.075010836 0.0694421 -0.003145568
000350 52 be 06 3e f8 ab 6a bd b3 98 8f bc 3d 26 01 3d
       0.13158539 -0.05729291 -0.017528867 0.031530607
000360 b8 c1 2c bc ad e0 d9 bd b5 a3 82 bc ae f2 3f bd
       -0.010544233 -0.10638557 -0.015947202 -0.046862297
000370 9e f6 d6 bc 11 88 e9 3d 78 9a 5f 3d fe b3 a3 bd
       -0.026240643 0.11402906 0.054590672 -0.07993315
000380 d5 6d e4 bd e0 09 01 3d 62 57 a7 bd a7 6b 49 bc
       -0.11153761 0.03150356 -0.08170964 -0.012293733
000390 95 1e eb 3b 70 99 84 3d a3 fe 47 bc 57 e0 5c 3d
       0.0071752765 0.064745784 -0.012206706 0.053924885
0003a0 ae d4 83 3d 1d 6d 61 bb 7c e2 78 bc 2e f9 d3 bc
       0.0643705 -0.0034397312 -0.015190717 -0.025875654
0003b0 b3 ed 8a 3d cb f5 e7 bc 34 99 05 3d 38 db e9 3d
       0.06783619 -0.028315445 0.03261681 0.11418766
0003c0 5b a4 cc bd ce f3 cc bd 17 a9 66 3d 58 8d 10 3d
       -0.09992286 -0.100074396 0.0563136 0.035291046
0003d0 70 20 07 3c d1 39 27 3d f0 54 48 bd 7b d5 a6 bd
       0.00824748 0.040826622 -0.048909128 -0.08146187
0003e0 3c 3f e9 bc 56 e4 86 bd 75 aa 7f 3d 6f ea de 3d
       -0.028472535 -0.065865204 0.06241842 0.108845584
0003f0 67 4d cd bd 61 21 b0 3c 4b ae 9e bd bb 36 4d 3c
       -0.10024529 0.021500291 -0.077480875 0.012525256

arith.constant2 f4 [64, 64]
000000 d5 7d c4 bd 7e 56 b1 3d 63 39 55 3d 33 e3 a7 bc
       -0.09594313 0.08659075 0.05205668 -0.02049408
000010 61 51 c3 3d 98 f9 c7 3d 25 6e 43 3d eb 9d 05 be
       0.09537006 0.09764403 0.047712464 -0.13048522
000020 b0 84 13 bd ab d7 7e 3c 13 79 d0 3c 28 95 01 3d
       -0.036015213 0.015554349 0.025448358 0.031636387
000030 63 d9 50 bd 58 a1 5b 3d d2 b5 96 3d 8b 23 ba bd
       -0.050988566 0.053620666 0.07358898 -0.090888105
000040 68 63 ac 3d a9 b9 30 3d 10 d5 0b bd cf 3c e6 bb
       0.08417398 0.04314581 -0.03413874 -0.007026292
000050 8d 2f bf 3b 49 b8 ce bc d8 2a 18 bc b6 e3 62 bd
       0.005834526 -0.025234358 -0.0092875585 -0.055392943
000060 fe fb 1e 3d 71 64 bd bd 99 bc c1 bd 2d 8e de 3c
       0.038814537 -0.09247673 -0.094598 0.027167404
000070 79 90 24 be 63 8c 96 3d 78 4b cb 3d f8 1d a0 bc
       -0.16070737 0.073509954 0.09926504 -0.01954554
000080 27 15 55 bd 42 61 bf bd cb 29 d7 bc 02 0a e3 39
       -0.052022126 -0.09344722 -0.026265046 0.0004330427
000090 68 62 ab 3d 11 01 03 bd 08 df 84 bd 28 2d 9f bd
       0.08368379 -0.03198344 -0.06487852 -0.07772285
0000a0 cb a9 62 bd f6 0f df bd f6 53 3a be 4e 16 45 39
       -0.05533771 -0.10891716 -0.18196091 0.00018795693
0000b0 05 04 de bd a2 b9 3c 3a 42 d4 71 bd ab 81 28 be
       -0.108406104 0.00071992923 -0.059040315 -0.16455714
0000c0 d9 6d 90 bc 43 0c b8 bc 7a b2 ef 3b 35 f7 04 be
       -0.017630504 -0.022466784 0.0073149772 -0.12984927
0000d0 7d 65 16 bd cc d3 06 3d 63 f5 4b bc 89 e8 2f 3e
       -0.03671788 0.03291683 -0.0124486415 0.17178549
0000e0 3d d7 6b bd e8 69 57 3d 43 55 ef bc 01 ce 38 3d
       -0.057578314 0.052591234 -0.02921546 0.045118336
0000f0 76 5f 8d 3a d3 59 36 bd 94 45 08 3e 24 c7 11 bd
       0.0010785896 -0.044519257 0.13307792 -0.035590306
000100 e3 b6 b3 3d 66 f4 1f 3e 44 ad ab 3d d0 e1 e6 bd
       0.08775117 0.15620574 0.08382657 -0.11273539
000110 ad b6 77 bd 8b 11 8d 3d e8 af 24 bd ca 94 07 3e
       -0.060476948 0.06888112 -0.04020682 0.13240352
000120 53 e2 11 3d d0 e4 3b bd f4 c8 60 3d 5f c6 39 3b
       0.03561623 -0.04587251 0.054879144 0.0028346998
000130 61 03 e7 3b 78 59 a4 3d 4d 39 06 be b3 12 f8 3c
       0.0070499633 0.08024877 -0.13107796 0.030282354
000140 49 28 8d 3d 3d 89 6d 3b 41 1d 31 3d 5b e5 cb 3c
       0.068924494 0.003624513 0.04324079 0.024889639
000150 20 25 a8 bd 93 35 0b 3d 13 2e cd bc 1e ea 7a bd
       -0.08210206 0.03398664 -0.025046384 -0.061258428
000160 13 1e eb 3b 28 d5 b7 3d ba 4c f9 bb f5 46 2d bd
       0.007175216 0.08976203 -0.0076080235 -0.042303998
000170 cb 91 8f bd fc 08 00 be 03 80 2e bd 4a 6d 91 bc
       -0.0701023 -0.12503427 -0.04260255 -0.017752308
000180 b6 22 57 3d d3 03 80 3d 6c 04 27 bd 9c aa f0 bd
       0.052523337 0.062507294 -0.0407757 -0.11751291
000190 00 f2 b8 bc b7 4c ae bd f1 a9 36 3d db 28 fb 3b
       -0.022576332 -0.08510726 0.044595663 0.0076647825
0001a0 8f f5 65 bd ef aa a6 3d 43 31 5c bc ea 93 31 bd
       -0.056142386 0.08138072 -0.013439479 -0.043353952
0001b0 1b d7 2a be b3 9c ef 3d 86 f8 91 bd e4 a9 24 3d
       -0.16683619 0.1169981 -0.0712748 0.040201083
0001c0 41 ef c3 3d 82 d2 5f bd 2a af 3e 3b 1c 72 5c bd
       0.095671184 -0.054644115 0.0029096105 -0.05381976
0001d0 66 30 cc 3d b4 90 7e bd eb 74 b9 bd b2 c2 b9 bd
       0.09970169 -0.06214972 -0.090555035 -0.09070338
0001e0 9d 08 32 3a 64 37 2f 3b d7 37 0d 3d 4f 26 c3 3c
       0.00067914446 0.0026735896 0.03447708 0.023821978
0001f0 f1 07 0d be 60 00 37 3d d8 56 3b bc 18 ff 40 bd
       -0.1377256 0.044678092 -0.011434279 -0.047118276
000200 84 93 ac 3d 47 a3 36 bd 86 44 16 3c c9 b0 3d 3c
       0.08426574 -0.044589307 0.009171611 0.011577793
000210 47 4e 18 be 27 5d 04 3d 44 89 8e bc df ab d0 bb
       -0.1487361 0.0323154 -0.017399438 -0.006368145
000220 59 c7 43 3d a5 50 db bb 40 f6 9f bd 00 05 2a bd
       0.047797535 -0.006692963 -0.0781064 -0.041508675
000230 7e 5b 5a 3d 66 47 53 3b 60 89 f8 bd 9c 99 e7 bc
       0.05330991 0.0032238602 -0.12135577 -0.028271489
000240 9c c4 96 bd 1e 75 b2 bd 49 e6 b6 bc 5f 9b 37 3e
       -0.07361719 -0.087137446 -0.022326605 0.17930363
000250 87 eb 94 bd 8c d0 83 bd 9e d4 23 3d 3a 90 af bd
       -0.07271486 -0.064362615 0.03999769 -0.08572431
000260 71 6f b8 bb 63 bb fd 3d c7 96 40 3d 70 68 2b bd
       -0.005628519 0.12389257 0.047018792 -0.041847646
000270 ba 4c 3c 3d 98 51 38 bd 7d 80 1f 3c 50 62 01 bd
       0.04597161 -0.04499969 0.009735224 -0.0315879
000280 45 c5 82 bd f9 93 f1 3c c4 34 d6 3d 1a c2 82 3d
       -0.063852824 0.029489504 0.10459283 0.06384678
000290 e8 7a 80 bd 0b e8 7f 3d 69 11 47 bd e4 eb fd 3c
       -0.062734425 0.062477153 -0.048600588 0.03099627
0002a0 65 56 9e bd 73 0c 96 3d f8 ab 3b 3d e4 a2 0e 3e
       -0.07731322 0.07326593 0.0458183 0.13929325
0002b0 a0 92 b6 39 09 25 bb bb fe 71 1a bd 04 e8 67 3d
       0.0003482299 -0.005711202 -0.037706368 0.05661775
0002c0 ff 7d 94 3d b9 7e 93 3d 06 27 c9 3d 36 a0 d5 3d
       0.07250594 0.07201905 0.09821896 0.104309484
0002d0 76 55 88 bd 88 6c 43 bd 88 2a 0c bd d1 bc 08 3e
       -0.066569254 -0.047710925 -0.03422025 0.13353278
0002e0 d0 74 9b 3d 10 e5 27 3e 3a d3 cb 3d f2 64 03 bc
       0.075906396 0.16395974 0.09952398 -0.008019673
0002f0 d2 70 c3 bd ad 97 f0 bc 57 b4 6a bd 18 b1 68 bd
       -0.09543003 -0.0293692 -0.05730089 -0.056809515
000300 05 03 19 3d 37 18 92 3c dd 55 93 3d 88 26 a5 bd
       0.037356395 0.017833812 0.071941115 -0.0806399
000310 06 2b 22 bd be fd ff bd 4d 82 0c bd d2 91 5a bc
       -0.03959181 -0.12499569 -0.034303952 -0.01334043
000320 9a 0c 05 be 8a bb 38 bc 4c dc 53 bb 94 ac 97 bd
       -0.12993088 -0.011275182 -0.0032327352 -0.074059635
000330 91 80 1c 3d de 6e 12 3d ce b7 eb bb 06 9c ed bb
       0.038208548 0.035750262 -0.007193542 -0.0072512655
000340 9e 70 83 bd 30 52 76 bd d3 55 7e 3c c8 be 0b be
       -0.064179644 -0.060136974 0.015523392 -0.13646996
000350 54 61 67 bd c8 8f 5f 3d b6 16 8d 3c 6e d3 ad 3c
       -0.056489304 0.05458048 0.017222743 0.021218982
000360 db 30 6b 3c 9d df 34 bd fe f3 aa bd f5 06 25 3d
       0.01435491 -0.044158567 -0.08347319 0.040289838
000370 de 70 f1 3b 22 52 13 3d 0e 11 e3 3c ce 47 bf 3d
       0.007368191 0.035967 0.027718093 0.093398675
000380 cd 22 bf bd cc 67 b7 bd 24 fd 09 be 0a 44 32 bd
       -0.093328096 -0.089553446 -0.13475472 -0.04352192
000390 e6 d1 f1 3c e3 2e 61 3d 87 3a be bd 41 81 3f bc
       0.029519033 0.054976355 -0.09288507 -0.011688531
0003a0 48 c9 5c bd 7c 48 35 bd f2 58 1f 3d 4f 0c 78 3c
       -0.053902894 -0.04425858 0.038903184 0.015139653
0003b0 b6 36 f0 bc cf 49 a5 bc ee 60 14 be f8 b4 d3 3d
       -0.029322963 -0.020176796 -0.144901 0.103372514
0003c0 51 0b ec 3c 21 d3 d6 bc d4 8e e3 bc 54 4a 18 3d
       0.02881399 -0.026223721 -0.027778067 0.03718026
0003d0 32 0c 9c bd 3f 2d 69 bd ca a7 ab 3c c1 e5 ad bc
       -0.076195136 -0.056927916 0.020954031 -0.02122772
0003e0 4f 6d 0c be bd 1e d3 3b cc 8b 57 3d 70 74 13 3e
       -0.13713573 0.0064428733 0.052623555 0.14399886
0003f0 14 81 25 bd dc 14 7e 39 fa 79 97 bb 0a f3 c9 bc
       -0.0404063 0.00024231098 -0.004622695 -0.024652023

arith.constant3 f4 [64, 64]
000000 f8 17 86 bd 24 d7 99 3d 62 51 6f 3d 14 6d 6e bd
       -0.065475404 0.07511738 0.058427222 -0.058209494
000010 06 be 23 be f2 b0 71 bd 1c 87 71 3a 71 dc 9f bd
       -0.15990457 -0.05900664 0.0009213553 -0.07805718
000020 a1 3e 26 3d 7d 91 f4 bd 51 11 e1 3d 80 15 cb bb
       0.04058707 -0.11941812 0.10989631 -0.0061976314
000030 ee e1 7b 3d 9d c5 2e 3d f7 11 02 3e d8 f8 14 bd
       0.06149476 0.042668927 0.12702166 -0.03637013
000040 54 81 6e 3d 66 e1 44 bd d7 46 90 3d 6b d4 6e bd
       0.058228806 -0.04806652 0.07044762 -0.058308046
000050 28 b8 a7 bc 0b cf 95 3c 3d cb 0e 3e 77 0b 0b 3d
       -0.020473555 0.018287202 0.13944717 0.03394648
000060 7d 87 97 3d ab 58 1c 3d 6f 64 f1 bd 26 b4 eb bd
       0.07398889 0.038170498 -0.11786734 -0.1150897
000070 bd 31 a9 3c df d2 d0 3c ad 9d b4 bd 13 76 cb 3c
       0.0206536 0.025491176 -0.08819137 0.024836576
000080 87 bf c0 bd 5b 9a 09 3e 35 b2 8b 3d 8c fb 60 3b
       -0.09411531 0.13437788 0.068211 0.003432962
000090 a2 90 8b 3c ad df 9b 3d f5 78 fe 3d 80 d8 dc 3d
       0.01703674 0.07611022 0.124254145 0.107834816
0000a0 8b 74 7f bd 9a 5b 9c bc a1 c8 ad bd f0 a3 ae bd
       -0.062367003 -0.019086648 -0.084855326 -0.08527362
0000b0 81 ff 85 3d c1 38 58 bd fa 8a 12 bd ad c1 33 be
       0.06542874 -0.0527885 -0.03577707 -0.1755435
0000c0 af 2d f4 3d cf 26 25 3b ac c0 88 ba 30 ea 7b 3d
       0.11922776 0.0025200134 -0.0010433397 0.061502635
0000d0 80 e3 05 3e b1 5f a4 3d 20 a1 a6 bd 79 56 8a bd
       0.13075066 0.08026064 -0.08136201 -0.067547746
0000e0 d4 b8 c8 bd 38 3d bb bc 1c 9e be bd 9d 77 af bd
       -0.09800878 -0.02285634 -0.09307501 -0.08567736
0000f0 33 55 1e be 7e 62 3d 3b 16 d1 8f 39 29 94 01 be
       -0.15462188 0.0028897817 0.00027430867 -0.12654175
000100 2e e7 bf 3d 3c 60 0a 3e ac 34 12 bd de e1 67 bd
       0.09370266 0.13513273 -0.035694763 -0.056611888
000110 da 17 ac bd 87 fe 8a 3d 7e 87 28 be dd 46 1c bd
       -0.08402987 0.067868285 -0.16457936 -0.038153518
000120 33 d6 b2 3d 76 3e 7e 3c 04 51 8e 3c bf f7 4c bc
       0.087322615 0.015517822 0.017372616 -0.012510239
000130 29 ba 54 bc dc e7 b6 bc 53 5a 86 bd ce 80 41 bd
       -0.012983837 -0.022327356 -0.06560197 -0.04724198
000140 1d 1c 81 3d 95 54 29 bd ad 53 05 3e 96 57 0c bd
       0.0630419 -0.04134043 0.13020201 -0.034263216
000150 4e dd fb bd ea cc 04 3c c2 a9 c3 3c b0 de 90 bd
       -0.1229807 0.008105496 0.023884658 -0.07073724
000160 b0 83 b2 bd f0 6e 2b 3c 75 76 81 bd c4 66 3b 3e
       -0.08716524 0.010463461 -0.06321422 0.1830092
000170 69 53 01 bd d1 dd e6 bd c6 4e c5 3b f3 77 f7 3d
       -0.031573687 -0.11272777 0.0060213534 0.120834254
000180 9f 7b 11 bd eb b8 34 3d 13 c4 71 bc a5 30 e2 bd
       -0.035518285 0.044121664 -0.01475622 -0.110444345
000190 50 7b 4b 3d 72 29 15 3e 5b 63 6b 3d c4 6b 4d 3d
       0.049678147 0.14566591 0.0574678 0.0501516
0001a0 7d f2 e7 3d 32 92 6a 3d 80 50 63 ba df 46 b4 bd
       0.11325548 0.05726833 -0.0008671358 -0.0880258
0001b0 d0 33 e6 3d e0 e8 2d 3d a6 b8 a7 3d 75 58 c1 3c
       0.11240351 0.042458415 0.08189516 0.02360175
0001c0 47 44 02 bd ed 41 ba bc 2e 02 db 3d b9 78 b7 bc
       -0.031803396 -0.022736514 0.10693775 -0.022396432
0001d0 5e a6 9a bb 6f 64 b4 3d 0f cf ca 3d bd 98 87 bd
       -0.0047195395 0.08808219 0.099027745 -0.066209294
0001e0 f1 76 bd 3d 4f 96 36 3d 21 85 2f 3d 33 18 c4 bd
       0.09251202 0.04457694 0.04285157 -0.09574928
0001f0 4b 84 02 bd ae 7d b6 bc e5 e8 0b bd f8 aa 0a be
       -0.031864446 -0.022276726 -0.034157652 -0.13541782
000200 04 ec 2e 3d 0a 5c f1 3b 0d 30 bd 3c 0b fb 57 be
       0.04270555 0.0073657082 0.023094201 -0.21091859
000210 ed f8 5f bd 4e bb cf 3c 4a a7 a7 3b 71 9f e5 ba
       -0.054680753 0.025357869 0.005116378 -0.0017518831
000220 1a 7f 83 bd eb 2b b4 3d c8 67 b0 bc 49 f7 22 3c
       -0.06420727 0.08797439 -0.021533862 0.009946653
000230 bc 6a 85 bc 9b 35 1c 3d 57 33 32 be af 79 31 be
       -0.016286246 0.03813706 -0.17402397 -0.17331575
000240 45 78 f8 3b 05 cd af 3d 76 31 cf 3b 5c b4 c0 3d
       0.0075826966 0.08584026 0.006323035 0.09409401
000250 96 46 2e bc 3d f7 e4 bc d7 62 cf 3d 4d 14 aa bc
       -0.010636946 -0.027949924 0.10126274 -0.020761633
000260 ce 61 94 3c 42 d7 50 3c b9 53 eb 3c 64 63 21 3e
       0.018113043 0.012746634 0.028726446 0.15760571
000270 53 ae 68 bd 1d 60 1e bd 6b 34 3a bd 7e 61 27 ba
       -0.056806874 -0.03866588 -0.045460146 -0.0006385072
000280 0f 2c e4 bc b6 a9 e0 3a b2 21 05 bd af d5 e3 bc
       -0.02785304 0.0017140422 -0.032502837 -0.027811853
000290 b8 b4 9b 3c 4d fb 62 3d 94 19 d2 3c 4e 68 ba 3d
       0.019007072 0.05541544 0.025646962 0.09101926
0002a0 1c 5e de 3d 23 77 02 3d 91 37 65 3d e8 72 36 bd
       0.10857794 0.0318519 0.055961195 -0.044543177
0002b0 eb f1 ec 3c 27 b6 03 bb 70 bf c9 b9 a7 cd 3a bd
       0.02892395 -0.0020097585 -0.0003848034 -0.04560628
0002c0 54 c7 a1 bb b8 ec f3 3c 02 66 dd 3c 3d e3 52 bd
       -0.004937092 0.029775962 0.02702618 -0.051486243
0002d0 40 4b ab 3d 4d 05 a4 3c 20 40 0f ba ab 25 67 3d
       0.08363962 0.020022059 -0.00054645725 0.056432407
0002e0 c4 35 e2 3b cb c8 2d bd 27 91 08 bc 44 42 92 ba
       0.006903382 -0.04242782 -0.008335388 -0.0011158665
0002f0 6c 86 de 3b bf e5 c6 3c 26 ee b4 3b a4 ab 86 3d
       0.0067909267 0.024279473 0.0055215536 0.065757066
000300 10 67 f6 3d bb 4f d2 3c 03 1b eb 3d b4 f1 aa 3d
       0.12031376 0.025672784 0.114797615 0.083468825
000310 fd 2b 96 bb f9 e7 85 bd ca 1c 87 3c 85 f6 75 bd
       -0.0045828805 -0.06538386 0.01649322 -0.060049552
000320 bd 3c fb bb 03 72 ef bd b6 47 fe 3c 18 1f 11 bd
       -0.0076671527 -0.11691668 0.031040054 -0.035430044
000330 f6 6a f9 3c 1a 6c 86 bc 38 93 e6 3c cf 70 ab bd
       0.03044651 -0.016408969 0.028146371 -0.08371126
000340 c9 09 99 bc 6c b3 8e bd 36 e9 41 3d ca 51 95 3c
       -0.018681424 -0.06967816 0.047341548 0.018227477
000350 bd 8b c8 bc 54 bf 9e bc 58 13 53 bd 00 41 a8 3c
       -0.024480695 -0.019378342 -0.05153212 0.020538807
000360 18 5a 9e bd 8a fc 4d 3d d3 c4 16 bd 0b 7d cd bd
       -0.07732028 0.05028967 -0.0368088 -0.10033616
000370 70 2e 7c bd c4 84 36 bd f5 de 99 bc cb 96 33 bc
       -0.061567724 -0.04456021 -0.018783072 -0.010961245
000380 16 87 f0 bc 76 cf 4f 3d d9 d0 5d 3d 18 ca de 3c
       -0.029361289 0.05073496 0.05415425 0.027195975
000390 2e 45 05 3d 6d 59 7b bd 39 ce e8 bd ce 40 c9 bc
       0.032536678 -0.06136458 -0.11367459 -0.024567034
0003a0 b8 5e db bc 2c 77 70 bd 4a 14 0f be 46 40 70 bd
       -0.026778564 -0.0587074 -0.13972583 -0.058655046
0003b0 20 10 b6 3c c8 2d 2e 3d b2 99 68 bd d6 f8 2f bd
       0.022224486 0.04252413 -0.0567872 -0.042961918
0003c0 0d 92 be 3d aa c3 55 3d 7d 57 9c 3c cb f3 f2 3d
       0.09305201 0.052188553 0.019084686 0.11862906
0003d0 65 c3 83 3d 56 43 f9 bc 67 03 71 3d fb e8 f9 3b
       0.06433753 -0.030427616 0.058841135 0.0076266504
0003e0 38 06 f5 3b d2 57 ee bd 11 95 11 3c a7 0b 7b 3c
       0.007477548 -0.11637844 0.008885638 0.015322602
0003f0 24 89 5f bd 82 01 e4 bc 98 f6 91 3c 43 cc 07 3d
       -0.054574147 -0.02783275 0.01781778 0.033153784
