HAR_APP/app/src/main/assets/dynamic_lstm_cnn.tflite (tflite, 234808 bytes, 32 tensors)

arith.constant3 f4 [128]
0	0xbd821834	-0.06352273
1	0x3cb8155a	0.022471119
2	0x3b3c4094	0.0028725015
3	0xbaaafc23	-0.0013045113
4	0xbd11cc0e	-0.035594992
5	0x3a34e700	0.0006900877
6	0xbba8042b	-0.00512745
7	0xbd5eb134	-0.054368213
8	0xbd011482	-0.0315137
9	0xbd83ede7	-0.06441861
10	0xbd1df155	-0.03856023
11	0x3b8c49ec	0.004281273
12	0xbd47efe4	-0.048812762
13	0xbda379d8	-0.07982224
14	0xbd10b471	-0.035328332
15	0xbd31a47b	-0.04336975
16	0xbc87266f	-0.016497819
17	0xbcca0295	-0.024659434
18	0x3c6941d6	0.014236888
19	0xbd848629	-0.064709015
20	0xbc9781e1	-0.018494548
21	0xbd72c9a9	-0.05927435
22	0xbc37be96	-0.011214873
23	0xbd60871f	-0.05481636
24	0xbd3db358	-0.046313614
25	0xbcc5899b	-0.024113467
26	0xbd269ef7	-0.040678944
27	0xbc94b4e6	-0.018152665
28	0xbd60f341	-0.054919485
29	0xbcf0c183	-0.029389149
30	0xbd9185af	-0.07105576
31	0xbc4b450a	-0.012406597
32	0xbd608f28	-0.054824024
33	0xbd75fdb6	-0.06005641
34	0xbd73e5db	-0.05954538
35	0xbc8a39bc	-0.016873233
36	0xbd863635	-0.06553308
37	0xbbaa5707	-0.0051983627
38	0xbce743b9	-0.028230535
39	0xbd948331	-0.07251585
40	0x3cc92b58	0.0245568
41	0xbc16c289	-0.009201654
42	0xbd279d40	-0.04092145
43	0xbd1d49e4	-0.038400546
44	0x3b432e1a	0.0029782117
45	0x3d5848bf	0.05280375
46	0xbda613c8	-0.08109242
47	0xbd2f8fa0	-0.04286158
48	0xbd2167bd	-0.039405573
49	0xbd421038	-0.04737875
50	0xbd3c667c	-0.045996174
51	0xbd418163	-0.047242533
52	0xbd3d0500	-0.046147346
53	0xbd47fdbf	-0.048825976
54	0xbcfa73dd	-0.030572826
55	0xbd855261	-0.06509853
56	0xbd5d1687	-0.053976562
57	0xbb2035c4	-0.002444611
58	0xbd18f1e7	-0.03734007
59	0xbd9179ea	-0.071033314
60	0xbd15b4b6	-0.036549293
61	0xbce8e26c	-0.028428279
62	0xbd2679f1	-0.040643636
63	0xbd202f2a	-0.03910748
64	0xbd5f84e1	-0.054570083
65	0xbd049553	-0.03236897
66	0xbd95ad76	-0.07308476
67	0xbd437652	-0.04772026
68	0xbc56cbda	-0.013110125
69	0xbd9da73d	-0.07697914
70	0xbd050196	-0.032472216
71	0xbddbf390	-0.10739815
72	0xbd8c21cb	-0.06842383
73	0xbd998457	-0.07495945
74	0xbd011924	-0.031518117
75	0xbd14a774	-0.03629251
76	0xbc49d579	-0.012318962
77	0xbd5c9155	-0.053849537
78	0xbd0cc876	-0.034370862
79	0x3c619f1e	0.013770847
80	0xbcec169b	-0.028819373
81	0xbca896f2	-0.020579789
82	0xbda0f56b	-0.0785931
83	0xbd868249	-0.06567819
84	0xbdee51e4	-0.11636713
85	0xbce2af1f	-0.027671395
86	0xbd0dba9d	-0.034601796
87	0x3cab9a29	0.020947533
88	0xbcdea8d8	-0.02718012
89	0xbd29d2d5	-0.04146083
90	0x3a934369	0.00112353
91	0xbd8903d2	-0.06690182
92	0xbd144580	-0.036199093
93	0xbde4d6ab	-0.11173757
94	0xbd1651fa	-0.036699273
95	0xbd2415f6	-0.040060006
96	0x3d0da1b9	0.03457806
97	0xbd8eb7e9	-0.06968672
98	0xbb9bea35	-0.0047581443
99	0xbcca4e31	-0.024695488
100	0xbde7cc1a	-0.11318226
101	0xbdd2439a	-0.102668
102	0xbd3baf4c	-0.045821473
103	0xbd3659ee	-0.044519357
104	0xbdf207cf	-0.118178956
105	0xbd01eb21	-0.031718377
106	0xbbd5391c	-0.006507052
107	0xbc0a8e98	-0.008456849
108	0x3cd7fd55	0.026365915
109	0xbdfeeec2	-0.12447883
110	0xbd535404	-0.051593795
111	0x3c30219f	0.010750203
112	0x3befcbe2	0.007318006
113	0xbd4863bd	-0.048923243
114	0xbd4e4310	-0.050356925
115	0xbd674f03	-0.056471836
116	0xbca82eed	-0.020530188
117	0xbcc62346	-0.024186742
118	0xbc4230a6	-0.011852419
119	0xbd3907bb	-0.045173388
120	0xbe00dd24	-0.12584358
121	0xbc72726b	-0.014797787
122	0xbd25e9ba	-0.040506102
123	0xbdd4117d	-0.10354898
124	0xbd59a091	-0.053131644
125	0x3d0bd2bc	0.03413652
126	0xbd17ea1f	-0.03708851
127	0xbcdccac6	-0.026952159

arith.constant4 f4 [128]
0	0x3f759caf	0.95942205
1	0x3f80661f	1.0031165
2	0x3f8733da	1.0562699
3	0x3f7bc552	0.9834796
4	0x3f7bf5a5	0.984217
5	0x3f7ea310	0.99467564
6	0x3f84a348	1.036233
7	0x3f7823f4	0.9692986
8	0x3f865b59	1.0496627
9	0x3f764659	0.9620109
10	0x3f854a44	1.0413289
11	0x3f8735ca	1.056329
12	0x3f88ae1f	1.0678138
13	0x3f7f7165	0.997824
14	0x3f778e5f	0.96701616
15	0x3f76331c	0.96171737
16	0x3f7fec4d	0.9996994
17	0x3f7c650d	0.9859169
18	0x3f84df3b	1.0380625
19	0x3f781219	0.96902615
20	0x3f7c47d1	0.98547083
21	0x3f8e078a	1.1096051
22	0x3f88ca82	1.06868
23	0x3f8222bb	1.0166849
24	0x3f7d45b0	0.9893446
25	0x3f7b08ae	0.9806012
26	0x3f86ac19	1.052127
27	0x3f8056d8	1.0026503
28	0x3f831c2e	1.0242975
29	0x3f856780	1.0422211
30	0x3f946073	1.1591934
31	0x3f79f5f1	0.976409
32	0x3f727766	0.9471344
33	0x3f816389	1.0108501
34	0x3f8cbd94	1.0995355
35	0x3f83bed6	1.0292614
36	0x3f85e511	1.046053
37	0x3f818c4b	1.0120939
38	0x3f74ea0d	0.95669633
39	0x3f7ad142	0.9797555
40	0x3f856880	1.0422516
41	0x3f80941a	1.0045197
42	0x3f7c3b03	0.98527545
43	0x3f81f10d	1.0151688
44	0x3f872451	1.0557958
45	0x3f8a9d2a	1.0829213
46	0x3f839872	1.0280898
47	0x3f73325a	0.94998705
48	0x3f844684	1.033402
49	0x3f73f181	0.9529038
50	0x3f7c5513	0.9856731
51	0x3f7349ad	0.95034295
52	0x3f76cf68	0.96410227
53	0x3f793a29	0.9735437
54	0x3f79b0f4	0.97535634
55	0x3f84b033	1.0366272
56	0x3f767ac8	0.962811
57	0x3f85e568	1.0460634
58	0x3f771c2e	0.96527374
59	0x3f739786	0.9515308
60	0x3f89485f	1.0725211
61	0x3f82465d	1.0177723
62	0x3f7ab508	0.9793248
63	0x3f7e61f7	0.9936823
64	0x3f83e846	1.0305259
65	0x3f8ccd01	1.1000062
66	0x3f8a2121	1.079136
67	0x3f784f64	0.9699614
68	0x3f7bae6b	0.98313016
69	0x3f7effda	0.9960915
70	0x3f7ae70f	0.9800882
71	0x3f8fda20	1.1238441
72	0x3f72f72c	0.94908404
73	0x3f826a7f	1.018875
74	0x3f838465	1.0274779
75	0x3f79e158	0.9760947
76	0x3f7f3314	0.99687314
77	0x3f782243	0.9692728
78	0x3f7955f0	0.97396755
79	0x3f85017c	1.0391078
80	0x3f81c16a	1.013715
81	0x3f7c183c	0.9847448
82	0x3f8f2098	1.1181822
83	0x3f89f130	1.077673
84	0x3f76cbb8	0.964046
85	0x3f7c80fa	0.986343
86	0x3f8ddb78	1.1082602
87	0x3f835c00	1.0262451
88	0x3f7f0e7c	0.99631476
89	0x3f754dc4	0.95821786
90	0x3f7ef340	0.9958992
91	0x3f8a5fc5	1.0810477
92	0x3f75b066	0.9597229
93	0x3f9134e8	1.1344271
94	0x3f7c2aa6	0.98502576
95	0x3f8168f3	1.0110153
96	0x3f85c209	1.044984
97	0x3f79c527	0.97566456
98	0x3f80e949	1.0071193
99	0x3f8bad49	1.0912257
100	0x3f8b81ac	1.0898948
101	0x3f9162ec	1.1358314
102	0x3f914fa2	1.1352427
103	0x3f88c46d	1.0684944
104	0x3f895e36	1.0731876
105	0x3f8543a2	1.0411265
106	0x3f87d40c	1.0611587
107	0x3f82ab1e	1.0208471
108	0x3f8414d5	1.0318857
109	0x3f861451	1.047495
110	0x3f7d127f	0.9885635
111	0x3f806370	1.0030346
112	0x3f81af69	1.0131656
113	0x3f774606	0.9659122
114	0x3f76018a	0.960961
115	0x3f798aa9	0.97477204
116	0x3f7e39cf	0.9930696
117	0x3f84d3b8	1.0377111
118	0x3f80d8fd	1.006622
119	0x3f80da10	1.0066547
120	0x3f937c46	1.15223
121	0x3f7c5469	0.985663
122	0x3f7a2462	0.97711766
123	0x3f8ae949	1.0852443
124	0x3f7467b0	0.95470715
125	0x3f823b13	1.0174278
126	0x3f81bf39	1.0136482
127	0x3f86fa33	1.0545105

arith.constant5 f4 [128]
0	0x3c1cbdb2	0.009566711
1	0x3bdefc23	0.0068049594
2	0x3b30224e	0.0026875916
3	0x3bc34a87	0.005959812
4	0xbbce9872	-0.006304794
5	0xbbb59a25	-0.005542057
6	0xbc41384a	-0.0117932055
7	0x3c35bec0	0.011092842
8	0xbcb25fa6	-0.021774124
9	0xbbac5e16	-0.0052602394
10	0x3c28be5e	0.010299293
11	0xbc90379b	-0.01760464
12	0x3cd79715	0.026317159
13	0xbd213269	-0.039354715
14	0xbb42e3fd	-0.0029737942
15	0x3af9c28d	0.0019055173
16	0xbc630625	-0.013856445
17	0xbbcc682b	-0.0062380037
18	0xbc85d2fd	-0.016335959
19	0x3d0d91c9	0.03456286
20	0x3aeb2794	0.0017940872
21	0xba00c561	-0.0004912224
22	0x3c52ea52	0.012873249
23	0x3cf2e30b	0.029649278
24	0x3c197f58	0.00936874
25	0x3bf20786	0.007386151
26	0x3ccfff9b	0.025390437
27	0xbc084018	-0.008316062
28	0xbc9bfe36	-0.019042116
29	0xbb748600	-0.0037311316
30	0x3d06ae3d	0.03288101
31	0x3c0152d0	0.007893279
32	0x3c8413f6	0.0161228
33	0xbccbc232	-0.024872873
34	0x3d1613da	0.036640026
35	0xbb3595c5	-0.0027707678
36	0xbaf58a80	-0.0018733293
37	0xbb3e18fb	-0.0029006589
38	0x3a8bb944	0.0010660072
39	0x3c58322f	0.013195558
40	0xbc61fcce	-0.0137931835
41	0xbb36492b	-0.0027814608
42	0x3c88be04	0.016692169
43	0x3c8dbdfe	0.01730251
44	0x39db2583	0.00041798883
45	0x3c038cab	0.008029143
46	0xbc394f9b	-0.011310483
47	0x3c3ebaf0	0.011641249
48	0x3a71e568	0.00092276046
49	0x3c1ccad8	0.009569846
50	0xbb9d3baf	-0.0047983746
51	0xb9957a26	-0.00028510502
52	0xba9d67b1	-0.0012009052
53	0x3c01c286	0.007919913
54	0xbc5becd8	-0.013423167
55	0x3c4c70de	0.0124780815
56	0xbcd02aff	-0.025411127
57	0x3d544199	0.05182037
58	0xbc3b8605	-0.011445527
59	0xba881a33	-0.0010383785
60	0x3cc54f6f	0.024085728
61	0xbc4ab233	-0.012371588
62	0x3c2ecd3c	0.010669049
63	0xbbd577d7	-0.00651453
64	0x3cdfa84e	0.027301934
65	0x3d0c06dc	0.03418623
66	0x3ced4b8b	0.028966686
67	0x3ba60c93	0.005067417
68	0xbc2ef06a	-0.010677436
69	0xbd27167f	-0.04079294
70	0xbb6f4282	-0.0036508148
71	0xbc777541	-0.015103639
72	0x38f6d29d	0.00011769424
73	0xbc9f084f	-0.019413142
74	0x3a794484	0.0009508806
75	0xbc029476	-0.007969966
76	0x3c89622b	0.016770443
77	0xbbdf4712	-0.006813892
78	0xbc5200e0	-0.012817591
79	0xbd11604b	-0.035492223
80	0xbca3dc59	-0.02000253
81	0x3c494f83	0.0122870235
82	0xbcefeb1f	-0.02928692
83	0xbcb9ffe1	-0.02270502
84	0x3c46779c	0.012113478
85	0x3b22e35f	0.0024854762
86	0x3c0f9892	0.008764403
87	0xbd400cff	-0.046887394
88	0xbc1ef11e	-0.0097010415
89	0xbc45a313	-0.012062806
90	0x3d144d09	0.03620628
91	0xbb655397	-0.003499245
92	0xbbe73f6b	-0.0070571206
93	0x3c2f8680	0.01071322
94	0x3c18f958	0.009336792
95	0xbca145bb	-0.01968657
96	0x3bb57a2c	0.0055382457
97	0x3ccfed70	0.025381774
98	0x3cd0f1a7	0.025505854
99	0xbc97fb45	-0.018552432
100	0x3d11aa04	0.03556253
101	0xbbdbf5a1	-0.006712631
102	0x3ab37481	0.0013691337
103	0xbbe1d0ef	-0.006891362
104	0x3cf6d942	0.030132893
105	0xbaa2525d	-0.0012384165
106	0x3d3af040	0.045639277
107	0xbb16892b	-0.0022969942
108	0xbcba944e	-0.022775795
109	0x3cdc59d9	0.026898311
110	0xbc7ea099	-0.015541219
111	0x3bdca8b3	0.0067339777
112	0xba13aa0d	-0.00056329445
113	0x3c9d03b9	0.019166814
114	0x3c183fbe	0.009292541
115	0x3ca7dce3	0.02049107
116	0xbb639481	-0.0034725966
117	0x3c815812	0.015789066
118	0xbce28f85	-0.027656326
119	0xbae4d950	-0.0017459784
120	0xb91a6409	-0.0001472385
121	0xbbbbacf4	-0.0057274047
122	0x3c420de7	0.011844135
123	0x3c156e14	0.009120483
124	0x3bead79e	0.007166817
125	0x3b0e1d78	0.0021685045
126	0x3b839ee2	0.004016743
127	0x3ca86559	0.020556139

arith.constant6 f4 [128]
0	0xbd794428	-0.060856014
1	0x3d03e1ec	0.032197878
2	0x3c58362e	0.013196511
3	0xbc9930ca	-0.018700022
4	0xbc1b2746	-0.009469813
5	0x3bc542f4	0.0060199443
6	0xbd69cfc1	-0.057082895
7	0xbd827c8f	-0.06371414
8	0xbcc082e8	-0.023499921
9	0xbd3d9619	-0.046285722
10	0xbd4024ff	-0.046910282
11	0x3c0a4398	0.008438967
12	0xbd4d4851	-0.050117794
13	0xbd05417c	-0.032533154
14	0xbd5622e1	-0.052279357
15	0xbca880d5	-0.020569244
16	0xbd72381a	-0.059135534
17	0xbccfe47f	-0.02537751
18	0x3b00a706	0.0019630804
19	0xbce732b9	-0.028222429
20	0x3b62447d	0.0034525685
21	0x3c834f7d	0.016029114
22	0x3c6ee393	0.014580625
23	0xbc922de7	-0.017844154
24	0xbb915d25	-0.0044361525
25	0xbcb84f3d	-0.022498721
26	0xbc3833dc	-0.011242833
27	0xbd8505da	-0.06495257
28	0xbd1eef52	-0.038802452
29	0x3bee7d11	0.0072780927
30	0x3c3fc64b	0.011704992
31	0xbd06f89c	-0.032951936
32	0xbd549043	-0.05189539
33	0xbc6324c8	-0.01386375
34	0x3c85de8d	0.016341472
35	0x3c9ab9ab	0.018887362
36	0xba6149f3	-0.0008594088
37	0x3d178740	0.03699422
38	0xbd780d7c	-0.060559735
39	0x3b9b78e2	0.004744635
40	0xbcc5287a	-0.024067152
41	0xbc82b8ce	-0.015957262
42	0xbd25d981	-0.04049063
43	0xbc9f293f	-0.019428847
44	0xbc8956cd	-0.016765023
45	0xbc8c0ba9	-0.017095404
46	0xbcdf8c38	-0.027288541
47	0xbd3a123e	-0.045427553
48	0xbc1c941a	-0.009556795
49	0xbd5e7223	-0.054308068
50	0xbca0d1ba	-0.019631255
51	0xbd69d88c	-0.05709128
52	0xbd83622d	-0.0641521
53	0xbd3d85a6	-0.046270035
54	0xbd11c47a	-0.035587765
55	0xbc147ab6	-0.00906246
56	0xbd7ab74f	-0.061209973
57	0xbd1e9ca6	-0.03872361
58	0xbd0af1aa	-0.033921875
59	0xbd95561a	-0.07291813
60	0xbd408b48	-0.04700783
61	0xbd7cc74e	-0.06171351
62	0xbd37d547	-0.04488113
63	0xbd44c9a4	-0.048043862
64	0xbc59706f	-0.013271435
65	0x3d08aa51	0.03336555
66	0x3b3973d7	0.0028297806
67	0xbd5a7984	-0.053338543
68	0xbca1a882	-0.019733671
69	0xbd1ec3b6	-0.038760863
70	0xbc977443	-0.018488055
71	0x3d52efa8	0.051498085
72	0xbd89f965	-0.06737021
73	0x3b43858f	0.0029834246
74	0xbcc8ddcc	-0.024519823
75	0xbd035f58	-0.03207335
76	0xbce15444	-0.027506001
77	0xbd3eb704	-0.046561256
78	0xbd12d122	-0.035843976
79	0xbd47fc8c	-0.04882483
80	0xbcb46b3e	-0.022023793
81	0xbc406485	-0.011742716
82	0x3c6aca20	0.014330417
83	0xbbd71b74	-0.006564552
84	0xbd0a6fb3	-0.03379793
85	0xbd7908b6	-0.060799323
86	0x3c6521d7	0.013985119
87	0xbccbf503	-0.024897104
88	0xbc99725f	-0.018731294
89	0xbd1e2976	-0.03861376
90	0x3bcb6f95	0.00620837
91	0x3bbd58c8	0.005778406
92	0xbd9abbe1	-0.07555366
93	0x3c8656b0	0.016398758
94	0xbd0243db	-0.031802993
95	0xbcb3f11f	-0.021965561
96	0xbc046f43	-0.0080831675
97	0xbd255170	-0.040360868
98	0xbcd4364c	-0.025904797
99	0x3c883274	0.01662562
100	0x3d3df980	0.04638052
101	0x3d748805	0.05970003
102	0xbd0684f3	-0.032841634
103	0x3d23b353	0.03996594
104	0xbd13cd5a	-0.03608451
105	0xbace1790	-0.0015723575
106	0xbcfbf958	-0.030758545
107	0xbd7a2c19	-0.06107721
108	0x3bc9fcb6	0.0061641587
109	0xbb351d46	-0.0027635857
110	0xbc6f3bde	-0.014601676
111	0x3cf3794d	0.029720927
112	0xbc0ad243	-0.008472982
113	0xbd119fad	-0.03555267
114	0xbd31a91b	-0.043374162
115	0xbcbbfb1b	-0.022946885
116	0x3c635c1a	0.013876939
117	0xbd54441d	-0.05182277
118	0xbcee4882	-0.029087309
119	0xbd02d4a5	-0.031941075
120	0x3da2cc57	0.07949131
121	0xbcf3f378	-0.02977918
122	0xbcd0eefa	-0.025504578
123	0x3a73e98c	0.00093045156
124	0xbd8ba40c	-0.06818399
125	0xbc1f85d2	-0.009736495
126	0xbc89cbca	-0.016820807
127	0x3a850f0f	0.0010151583

arith.constant7 f4 [64]
0	0x3cb3af7e	0.021934267
1	0xbd0c8866	-0.034309767
2	0x39e418a9	0.00043505922
3	0xbcc5864f	-0.024111895
4	0xbd619ac8	-0.05507925
5	0xbcfc06b8	-0.030764922
6	0xbd307944	-0.043084398
7	0xbbf661b4	-0.0075189713
8	0xbd8ba049	-0.06817681
9	0xbd89b872	-0.06724633
10	0xbd43e267	-0.047823336
11	0xbd8a411e	-0.06750701
12	0x3c370fce	0.011173202
13	0x3be31739	0.0069302586
14	0xbc836593	-0.016039645
15	0xbd92cd25	-0.071680345
16	0xbbf3c7f3	-0.0074396073
17	0x3d2f978d	0.04286914
18	0xbc04632c	-0.008080285
19	0xbc3553b3	-0.011067319
20	0x3cde34c5	0.027124772
21	0xbd09ec39	-0.033672545
22	0xbd1dcc45	-0.038524885
23	0xbd8db79a	-0.06919785
24	0xbd0533f8	-0.032520264
25	0xbda78737	-0.08180087
26	0x3ca393e4	0.01996798
27	0x3c3e9753	0.011632758
28	0xbd3b91dc	-0.0457934
29	0x3c36f655	0.011167129
30	0xbcc5cef3	-0.024146533
31	0xbda7cf94	-0.08193889
32	0xbcb8acbc	-0.022543304
33	0xbd309c70	-0.04311794
34	0xbd19b16a	-0.03752271
35	0xbd1b4126	-0.037903927
36	0xbcd62400	-0.026140213
37	0x3ca805c5	0.020510564
38	0xbd63a12f	-0.05557364
39	0xbe4f6949	-0.20255007
40	0xbc375bba	-0.011191303
41	0xbd5d25a1	-0.053990964
42	0x3c1a68d1	0.009424404
43	0xbd9374f3	-0.07200041
44	0xbcc80af2	-0.024419282
45	0xbcd9a092	-0.026565824
46	0xbd6e5948	-0.058190614
47	0xbe1f71c5	-0.15570743
48	0xbdba61fd	-0.09100721
49	0xbd164baa	-0.036693253
50	0xbd200ad5	-0.03907283
51	0xbd2761bd	-0.040864695
52	0xbd348110	-0.044068396
53	0xbdc2ee6b	-0.09518131
54	0xbd2d6e85	-0.042341728
55	0xbd023384	-0.03178741
56	0xbd73423a	-0.05938933
57	0xbd0f1eb2	-0.034941383
58	0xbcb4d5d5	-0.02207462
59	0xbd7f7944	-0.062371507
60	0xbd50a867	-0.05094185
61	0xbc332acc	-0.010935497
62	0x3b93e9af	0.0045139412
63	0xbcd7db58	-0.026349708

arith.constant8 f4 [64]
0	0x3f8d4155	1.1035563
1	0x3f809d70	1.0048046
2	0x3f92c29a	1.1465638
3	0x3f85a4d7	1.044093
4	0x3f76b951	0.9637652
5	0x3f832885	1.024674
6	0x3f89de39	1.0770942
7	0x3f87f6d2	1.0622199
8	0x3f7a7ce6	0.9784683
9	0x3f8518de	1.0398214
10	0x3f80a009	1.0048839
11	0x3f7e9f5d	0.9946192
12	0x3f840dc2	1.0316699
13	0x3f884247	1.0645226
14	0x3f7d593e	0.989643
15	0x3f8304ac	1.0235801
16	0x3f8786cf	1.0588015
17	0x3f882e78	1.0639181
18	0x3f898f67	1.0746888
19	0x3f7f544f	0.9973802
20	0x3f865d33	1.0497192
21	0x3f7e22ae	0.99271667
22	0x3f8297d3	1.0202583
23	0x3f74a59e	0.9556521
24	0x3f88b23a	1.067939
25	0x3f703e7b	0.9384534
26	0x3f86993b	1.0515512
27	0x3f8ba104	1.0908513
28	0x3f82a3c1	1.0206224
29	0x3f86de38	1.0536566
30	0x3f7b5c76	0.9818796
31	0x3f863922	1.0486186
32	0x3f8d6bfc	1.1048579
33	0x3f77d90b	0.96815556
34	0x3f7e00c2	0.99219906
35	0x3f783ca7	0.9696755
36	0x3f8990e8	1.0747347
37	0x3f8bacf6	1.0912158
38	0x3f8a451e	1.0802343
39	0x3f97ce5e	1.1859853
40	0x3f7ec494	0.99518704
41	0x3f7f8ed7	0.9982733
42	0x3f84bcb4	1.0370088
43	0x3f7423c2	0.9536706
44	0x3f81b5bd	1.0133587
45	0x3f853d19	1.040927
46	0x3f7da56f	0.99080557
47	0x3f8e3d19	1.1112396
48	0x3f8252e6	1.0181549
49	0x3f814b2e	1.0101068
50	0x3f808245	1.0039755
51	0x3f7e21a4	0.9927008
52	0x3f875867	1.0573853
53	0x3f71f24d	0.94510347
54	0x3f7c5a7e	0.9857558
55	0x3f7958ff	0.9740142
56	0x3f7386fe	0.95127857
57	0x3f7d9f52	0.9907123
58	0x3f819982	1.0124972
59	0x3f869abc	1.0515971
60	0x3f7d9aee	0.9906453
61	0x3f855bd3	1.0418648
62	0x3f83b1c2	1.0288622
63	0x3f7f017e	0.9961165

arith.constant9 f4 [64]
0	0xbd44fb68	-0.048091322
1	0x3c82c0c2	0.015961055
2	0xbd3787fa	-0.04480741
3	0x3bb8236e	0.005619458
4	0x3c7124c7	0.014718241
5	0x3cb9af41	0.022666575
6	0x3d3ef55f	0.046620723
7	0xbd330fce	-0.043716244
8	0x3c40c760	0.011766285
9	0x3c7479fa	0.01492166
10	0xbbdb9061	-0.006700561
11	0x3c9eb26e	0.019372191
12	0xbcd951bb	-0.02652823
13	0x3ce9b559	0.028528856
14	0x3d4a284e	0.049354844
15	0x3c193f40	0.009353459
16	0x3bab1a64	0.005221652
17	0xbd36ad6b	-0.044598978
18	0x3cf4cb70	0.029882163
19	0xbca0cc5e	-0.0196287
20	0xbbf1f7ae	-0.007384262
21	0x3c555873	0.013021576
22	0x3c525beb	0.012839298
23	0xbbd5aee4	-0.0065210927
24	0xbccada06	-0.024762165
25	0x3c2a5e8c	0.010398518
26	0x3d5fe070	0.0546574
27	0x3cde90d2	0.027168665
28	0x3b957438	0.0045609735
29	0x3d80927d	0.062779404
30	0x3d03c08e	0.032166056
31	0xbc164140	-0.00917083
32	0x3d078738	0.03308794
33	0x3b5f6d2a	0.0034092166
34	0xbb9b1876	-0.0047331406
35	0x3b35564f	0.0027669852
36	0x3d3e1266	0.046404265
37	0x3d852a76	0.065022394
38	0x3d1c308d	0.03813224
39	0xbc58259b	-0.01319256
40	0xbc3310e9	-0.010929325
41	0x3d186ee8	0.037215143
42	0xbd406cd3	-0.046978783
43	0xbcb869e1	-0.022511424
44	0x3d0cfd07	0.034420993
45	0xbca48ce1	-0.020086708
46	0x3c99e6a4	0.018786736
47	0x3b85d043	0.0040836646
48	0xbd243816	-0.04009255
49	0xbbe14565	-0.0068747276
50	0xbba1a05b	-0.004932446
51	0xbb360211	-0.0027772228
52	0xbcc6c7e2	-0.024265233
53	0x3c656e10	0.014003292
54	0xb916711b	-0.0001434725
55	0xbc7c4edc	-0.015399661
56	0xbbefc56d	-0.007317236
57	0x3c2ca722	0.010537894
58	0x3c4cf63b	0.012509878
59	0x3cd87852	0.02642456
60	0x3baf4bd8	0.0053496175
61	0x3d151fb9	0.036407206
62	0xbd68a695	-0.05679949
63	0xbc92087d	-0.017826313

arith.constant10 f4 [64]
0	0x3ca7cfe9	0.020484881
1	0xbce80690	-0.028323442
2	0xbbb40553	-0.0054937988
3	0xbc3f64eb	-0.011681776
4	0xbcbf74df	-0.023371158
5	0x3c0b1fa4	0.00849143
6	0xbca97618	-0.020686194
7	0x3ce78884	0.028263338
8	0xbca4ca87	-0.020116104
9	0xbd610808	-0.0549393
10	0xbca20fa3	-0.019782847
11	0xbcb9244b	-0.022600314
12	0xbb708048	-0.0036697555
13	0x3bca15a1	0.006167129
14	0xbca3e9f8	-0.020009026
15	0xbd81c95d	-0.06337235
16	0xbcc3c788	-0.023898855
17	0x3d1d9b48	0.038478166
18	0xbce0bd09	-0.027433889
19	0xbb0c571e	-0.002141423
20	0xbc7bc557	-0.015366874
21	0xbc701ada	-0.014654839
22	0xbc97fb85	-0.018552551
23	0xbd855d78	-0.065119684
24	0xbce79944	-0.028271325
25	0xbd65f820	-0.056144834
26	0x3c15075c	0.009095993
27	0x3c494026	0.012283361
28	0xbd011637	-0.031515326
29	0x3ceb24e4	0.028704114
30	0xbbb7931e	-0.0056022545
31	0xbca2f1c8	-0.01989068
32	0x3d313a8b	0.04326872
33	0xbcf3fb22	-0.029782835
34	0xbcef1ad5	-0.0291876
35	0xbd37556e	-0.044759206
36	0xbd2e6faa	-0.04258696
37	0x3c697eb9	0.014251404
38	0xbca1355d	-0.019678766
39	0x3d3a4f56	0.045485817
40	0xbcad4b4c	-0.021154068
41	0xbba7dbfb	-0.0051226593
42	0xbb1d3a00	-0.002399087
43	0xbd5b1fbd	-0.053497065
44	0xbd15545b	-0.0364574
45	0xb9b34726	-0.0003419455
46	0xbd3624c2	-0.04446865
47	0x3d971db3	0.073787116
48	0xbab7ef34	-0.001403308
49	0xbcbe5232	-0.023232553
50	0xbc5c0624	-0.013429198
51	0xbd4e4558	-0.0503591
52	0x3ce6cbc1	0.02817333
53	0xbd7f60fb	-0.062348347
54	0xbd0fab13	-0.03507526
55	0xbd9103e2	-0.07080819
56	0xbd3f2135	-0.046662528
57	0xbca1cc22	-0.019750658
58	0xbc59c7d8	-0.013292275
59	0xbd02f720	-0.031973958
60	0xbd0a44f8	-0.03375718
61	0xbc529a5c	-0.012854185
62	0x3d0e0ee6	0.034682177
63	0xbbf17efd	-0.0073698745

model/dense/BiasAdd/ReadVariableOp f4 [128]
0	0xbcf85bbf	-0.030317185
1	0xbc085a3e	-0.008322297
2	0xbbf46e62	-0.0074594477
3	0x3d644255	0.05572732
4	0xbd39fca0	-0.045406938
5	0xbb123950	-0.0022311993
6	0x3c013bf7	0.007887832
7	0xbc20cdda	-0.009814704
8	0x3cbd5bd1	0.02311507
9	0xb9f249e4	-0.0004621289
10	0xba7c6d50	-0.0009629326
11	0x3cdd9f96	0.027053636
12	0x3d23c4db	0.039982658
13	0xbc6fee70	-0.01464425
14	0x3d306983	0.043069374
15	0x3d46d61d	0.048544038
16	0xbcc2eafc	-0.02379369
17	0x3ca45ce6	0.020063829
18	0x3c816c82	0.01579881
19	0xbbb647e8	-0.005562771
20	0xbd8aef33	-0.06783905
21	0xbc26c15f	-0.010177939
22	0xbd62d931	-0.05538291
23	0xbcfb021e	-0.030640658
24	0xbd33f4ba	-0.04393456
25	0x3c6353eb	0.013874988
26	0xbc751a65	-0.014959906
27	0xbd526113	-0.05136211
28	0x3b0f7996	0.002189254
29	0xbd65db50	-0.056117356
30	0x3c514543	0.012772861
31	0xbd3ec1f0	-0.046571672
32	0xbca9bed5	-0.020720879
33	0xbd2839d2	-0.041070767
34	0xbccc691c	-0.024952464
35	0xbcfdbdfb	-0.030974379
36	0xbd522bb4	-0.05131121
37	0xbd241ded	-0.040067602
38	0xbc6b052e	-0.014344497
39	0xbc26831c	-0.010163095
40	0x3cdae69a	0.026721288
41	0x3aecb1e0	0.0018058382
42	0x3dc05137	0.093904905
43	0xbc23b979	-0.009992951
44	0xbd7152eb	-0.058916967
45	0x3c96b136	0.018395048
46	0xbd3e4914	-0.04645641
47	0xbbafc588	-0.0053641237
48	0xbd10b8b9	-0.035332415
49	0xbd39674a	-0.04526452
50	0xbcd7658c	-0.026293539
51	0x3cca7c1c	0.024717383
52	0xbce9db06	-0.028546821
53	0x3cad14c9	0.021128075
54	0xbc7ec1cb	-0.0155491335
55	0x3c225a5b	0.009909238
56	0xbd84db09	-0.0648709
57	0xbcdb9876	-0.026806097
58	0x3d110a86	0.035410427
59	0xbcb56cff	-0.0221467
60	0xbbeaa9c4	-0.007161351
61	0x3bbc5c63	0.005748318
62	0xbcda0323	-0.026612824
63	0xbca8405b	-0.0205385
64	0xbcadc9cf	-0.021214394
65	0xbcb10582	-0.021609072
66	0xbcb69a3e	-0.022290345
67	0xbc42d3bc	-0.011891302
68	0x3bb6b5d5	0.0055758753
69	0xbcbba6db	-0.022906711
70	0xbcdd22b5	-0.026994089
71	0xbc2fe9b5	-0.010736872
72	0xbcd39800	-0.025829315
73	0x3c9b06c1	0.018924119
74	0xbc1c9ca4	-0.00955883
75	0xbd46a27f	-0.048494812
76	0xbccf30e3	-0.025291866
77	0xbc05dfed	-0.008171064
78	0xbc96283b	-0.01832973
79	0x3a735101	0.0009281785
80	0x3c45c369	0.012070515
81	0xbc7ee99c	-0.0155586265
82	0xbc725442	-0.014790596
83	0xbd005085	-0.03132679
84	0x3c2d0647	0.010560579
85	0xbd08ef1a	-0.03343115
86	0xbd2a9ded	-0.041654516
87	0x3d43e99e	0.047830217
88	0xbc2dad13	-0.010600346
89	0xbc010a32	-0.007875966
90	0xbba8e928	-0.0051547475
91	0xbd231452	-0.0398143
92	0xbd1f895f	-0.038949367
93	0xbcfbe8dd	-0.030750686
94	0xbcd413da	-0.025888372
95	0xbcd2e2a3	-0.025742834
96	0x3d04d2b8	0.03242752
97	0xbcac0c24	-0.021001883
98	0x3dd66e8e	0.104703054
99	0x3bbbafec	0.0057277586
100	0xbd077e36	-0.03307935
101	0x3c2f3a03	0.010694983
102	0xbc99bcba	-0.01876675
103	0xbce3b555	-0.027796427
104	0x3d1fa5a7	0.038976338
105	0xb871d824	-5.7660174e-05
106	0xbd280c6a	-0.041027464
107	0x3c901529	0.017588215
108	0x3c62b789	0.0138377035
109	0x3aae33b4	0.0013290555
110	0xbcebf7ca	-0.028804678
111	0x3ca5ba2f	0.02023038
112	0x3ae61d76	0.0017556387
113	0xbccbd852	-0.024883423
114	0xbc2f92e1	-0.010716171
115	0xbcbea62c	-0.023272596
116	0xbdbf8789	-0.09352023
117	0xbb0287ef	-0.0019917449
118	0xbd242ed6	-0.04008373
119	0x3c71ee65	0.01476631
120	0xbbe809d3	-0.0070812493
121	0xbbfffca7	-0.007812101
122	0x3cb421aa	0.021988709
123	0xbb23fc6b	-0.002502228
124	0xbd20c638	-0.039251536
125	0xbd437f6a	-0.047728933
126	0x3b55072b	0.0032505493
127	0x3ce0ee24	0.027457304

model/batch_normalization_2/batchnorm/mul_1;model/batch_normalization_2/batchnorm/add_1;model/dense_1/MatMul;model/dense_1/BiasAdd f4 [6, 128]
0	0x3f9092da	1.1294816
1	0xbee7f919	-0.45307234
2	0xbf1b821d	-0.6074541
3	0x3f2144a7	0.6299538
4	0x408c1ae4	4.3782825
5	0x3f3ce139	0.7378116
6	0xbe97635f	-0.29568002
7	0x3f21814e	0.6308793
8	0xbcf08e7f	-0.029364822
9	0xbe196654	-0.14980441
10	0xbf3d997f	-0.7406234
11	0x3f63cbc9	0.88982826
12	0xbf08dd95	-0.5346311
13	0xbf11d7a9	-0.56969696
14	0x3ea15e1f	0.3151712
15	0x3ec0ed6c	0.3768114
16	0xbf22c3b8	-0.63579893
17	0xbed8b7bd	-0.4232768
18	0x3d709c99	0.058743093
19	0xbe7c8163	-0.24658732
20	0x3f82ade5	1.0209318
21	0xbed5b35f	-0.41738412
22	0x3f837cf4	1.0272508
23	0x3ef1c5b6	0.47221154
24	0xbf44686f	-0.76721853
25	0x3e310b1f	0.17289399
26	0x3ee8c774	0.4546467
27	0xbea71d51	-0.32639554
28	0x3d0b4d7b	0.034009438
29	0xbf343de4	-0.7040694
30	0x3d40f212	0.047105856
31	0xc01cf39c	-2.4523687
32	0x3f87e187	1.06157
33	0x3e0a813d	0.13525863
34	0xbf60671b	-0.87657326
35	0xc0b3cf10	-5.619026
36	0x40d9e0aa	6.808675
37	0x3f8d5df9	1.1044303
38	0x3f40ea40	0.7535744
39	0xbeca7cdb	-0.39548382
40	0x3f189c18	0.5961318
41	0xbe6f6376	-0.23377785
42	0x3f82c064	1.0214963
43	0xbec261ef	-0.37965342
44	0x406002be	3.5001674
45	0x3d611963	0.05495585
46	0xc0f9c24a	-7.804967
47	0x3fa63563	1.2985042
48	0x3fbb32f1	1.4624921
49	0xc0bb1c3a	-5.8471956
50	0xbfbf9144	-1.4966207
51	0x3edc26f3	0.42998466
52	0xbf05a4f7	-0.5220484
53	0xbf31eae7	-0.6949906
54	0x3fb38ba4	1.402699
55	0xbfaac9c0	-1.3342819
56	0x3f9a25be	1.2042768
57	0x3efece45	0.49766746
58	0xbf53fb65	-0.8280547
59	0xbf1e222b	-0.61770886
60	0xbeff1373	-0.49819526
61	0xbf0edbda	-0.55804217
62	0x3fc585e2	1.5431483
63	0x40b84107	5.757938
64	0xc02ff1e2	-2.7491384
65	0x3ebf87eb	0.37408385
66	0x4103e8b5	8.244313
67	0x3f1ebfd5	0.6201146
68	0x3e8b3b77	0.27193806
69	0xbf024623	-0.5088827
70	0xbf34260e	-0.70370567
71	0xbcc3a841	-0.02388394
72	0x3f7ae554	0.98006177
73	0xbeb6658e	-0.35624355
74	0x3fe952ae	1.8228357
75	0xc05dd836	-3.4663215
76	0xbfb1d955	-1.389445
77	0xbd1236a3	-0.035696637
78	0xc0401394	-3.001195
79	0x3f1802cf	0.59379286
80	0xbe41a8ea	-0.18912092
81	0x3f4c19cf	0.7972688
82	0x3e9961ea	0.29957515
83	0x40232741	2.5492709
84	0xbe076b8e	-0.13224623
85	0xbf9dfabe	-1.2342145
86	0x3f992be6	1.1966522
87	0x3f694c7a	0.9113232
88	0xbe36d77f	-0.17855643
89	0xbf2b8989	-0.67006737
90	0x3f6dde74	0.9291756
91	0x3f51a1a2	0.8188726
92	0xbe9130b1	-0.2835746
93	0x3ee87b4d	0.4540657
94	0x3fd3219b	1.649463
95	0x3edfd33d	0.4371585
96	0xbefd9ee1	-0.49535277
97	0x3f1bcfb3	0.608638
98	0xbcc4e1e3	-0.024033492
99	0x3ec3312d	0.38123456
100	0xbf45228c	-0.7700584
101	0x3e36becf	0.17846225
102	0x3eda6f01	0.42662814
103	0x409fc735	4.9930673
104	0x3f02c174	0.51076436
105	0xbf56e781	-0.83946997
106	0xc02fbe46	-2.7459884
107	0x3ba6b930	0.005087994
108	0x3eeb22b5	0.45924917
109	0x3f0e0ebd	0.5549124
110	0x3fa6fc43	1.3045734
111	0x3f7ff07a	0.99976313
112	0xbeaa239d	-0.33230296
113	0x40e4a5f3	7.1452575
114	0x3f414ddd	0.75509435
115	0xc1075e80	-8.460571
116	0xbf86129c	-1.0474429
117	0xbed90c16	-0.42392033
118	0x3f975b1f	1.1824683
119	0x3eb1ab03	0.34700784
120	0x3d8bdd2a	0.06829293
121	0xbecfaae6	-0.40560073
122	0xbefbd8ab	-0.49188742
123	0x3e85bcd8	0.2612064
124	0x3fb1a3f3	1.3878158
125	0x3e70e63b	0.23525326
126	0xbe0e588b	-0.13900964
127	0xbe021285	-0.12702377
128	0x3f4d9874	0.8031075
129	0x3ef84d37	0.4849641
130	0xbf031b03	-0.5121309
131	0xbec9393f	-0.39301488
132	0xbea9ae49	-0.33140782
133	0xbe975b1c	-0.29561698
134	0x3f41a50d	0.7564247
135	0xbf9ad09d	-1.2094914
136	0xbb961680	-0.004580319
137	0xbf95597e	-1.1667936
138	0xbf345b98	-0.7045226
139	0x3ebfab3c	0.3743533
140	0xbeed1a8e	-0.46309322
141	0x40ac39ea	5.3820696
142	0xbf1f9c7b	-0.62348145
143	0xbeec9068	-0.46203923
144	0x4063756c	3.5540419
145	0xbe9f126c	-0.31068742
146	0x3f582e5a	0.84445727
147	0xbe3af923	-0.182591
148	0x3f4f10bf	0.8088493
149	0x3edff8a7	0.43744394
150	0x40bc226f	5.8792033
151	0xbe7f6f33	-0.24944763
152	0x3e5c9cbb	0.21544163
153	0xbf3f21b1	-0.74660784
154	0x3fb7dc87	1.4364175
155	0x3faf8ef0	1.3715496
156	0x3f72008e	0.94532096
157	0xbf4b40d6	-0.79395807
158	0xbed61ee0	-0.4182043
159	0x3f0b381b	0.54382485
160	0xbeb4dfa6	-0.3532688
161	0xbee35094	-0.44397414
162	0xbedeac5a	-0.4349087
163	0xc08828db	-4.2549872
164	0xbf9bf666	-1.218457
165	0xbe67d134	-0.22638398
166	0xbed9535f	-0.4244642
167	0x3ee78cbf	0.45224568
168	0xbea0c848	-0.31402802
169	0x3f68cbbb	0.9093587
170	0x3f197362	0.59941685
171	0x3e80ebc7	0.25179884
172	0x407043a6	3.754129
173	0x3f6092ab	0.877238
174	0xc00a3b9e	-2.1598887
175	0x3f1630dd	0.5866831
176	0xbf2d038d	-0.67583543
177	0x3fc9a74d	1.5754181
178	0x3f6d43ef	0.92681783
179	0xbf64873c	-0.8926885
180	0xbf3cf1d7	-0.7380652
181	0xbe90cd96	-0.2828185
182	0xbfc591ff	-1.543518
183	0xbefa7660	-0.48918438
184	0x3f0a62f0	0.54057217
185	0x3f9a61a4	1.2061048
186	0x3f7b8f27	0.9826531
187	0xbd340137	-0.04394647
188	0xbf38f9a4	-0.7225592
189	0xbed09393	-0.4073759
190	0xbfbb03c3	-1.4610523
191	0x40d8cde8	6.775135
192	0x4069afc1	3.6513522
193	0x405d72a0	3.4601212
194	0x40995b58	4.7924004
195	0x3fbadceb	1.4598669
196	0xbf18d83a	-0.59704936
197	0xbecf1cf9	-0.40451792
198	0x3d7da206	0.061922096
199	0x3ebe5a18	0.3717811
200	0x3ef391d9	0.4757221
201	0xbf1caffa	-0.6120602
202	0x3fb48991	1.4104482
203	0x3f89f23d	1.077705
204	0xbfe49925	-1.7859236
205	0x3f922a37	1.1419133
206	0x404afdf4	3.17175
207	0xbe5d5757	-0.21615349
208	0x3ef07d27	0.46970484
209	0x3f0cb1ac	0.54958606
210	0x3d337fe8	0.043823153
211	0x3e8f0030	0.2792983
212	0xbf56ca40	-0.8390236
213	0x40b4f9ef	5.6555095
214	0x40b3c763	5.618089
215	0x3e0c7413	0.13716154
216	0x3f263f99	0.6494079
217	0x3f28b86b	0.659064
218	0x3dbcd659	0.09220571
219	0x40191a76	2.39224
220	0xbe4bc0a0	-0.198977
221	0x3e89bfef	0.26904246
222	0xbe70cfa6	-0.23516712
223	0xbd816776	-0.06318562
224	0xbef198a1	-0.4718676
225	0x405a42b3	3.410321
226	0xbeba338f	-0.3636746
227	0xbf1eaa21	-0.61978346
228	0xbf71ffa2	-0.9453069
229	0xbee9f4d0	-0.4569459
230	0xbf929629	-1.1452075
231	0xc0c058ee	-6.0108557
232	0xbf3c6cd6	-0.7360357
233	0xbf919a1c	-1.1375155
234	0xbeaae7bd	-0.33379927
235	0xbe38e2ba	-0.1805524
236	0xbf30a420	-0.69000435
237	0x3d18b825	0.03728499
238	0x3f58925e	0.8459834
239	0xbf0e5c17	-0.5560927
240	0x3e532918	0.20621145
241	0x3fe7c927	1.8108262
242	0x3eac7270	0.3368106
243	0xbf80f0e6	-1.0073516
244	0x3f3fd83a	0.7493931
245	0xbe656d9d	-0.22405095
246	0x3e6b3be6	0.22972068
247	0xbe0428c7	-0.1290618
248	0xbf1e266e	-0.6177739
249	0xbe4bdfeb	-0.19909637
250	0xbf1c5b3f	-0.6107673
251	0x3e1b62bc	0.15174383
252	0x3cb890fd	0.022530073
253	0xc08c4df2	-4.384515
254	0x3ea4a476	0.32156724
255	0xbf3b674b	-0.7320449

model/dense_1/MatMul;model/dense_1/BiasAdd f4 [6]
0	0xc0906f68	-4.5135994
1	0x4006fcb7	2.1091745
2	0x3fecc970	1.8498974
3	0x3eb5a576	0.354778
4	0x3d9ccaf7	0.076559
5	0x3ef623f7	0.48074314

model/re_lu/Relu;model/batch_normalization/batchnorm/add_1;model/conv1d/Conv1D/Squeeze;model/batch_normalization/batchnorm/mul_1;model/conv1d/BiasAdd;model/conv1d/BiasAdd/ReadVariableOp;model/batch_normalization/batchnorm/mul;model/batch_normalization/batchnorm/sub;model/conv1d/Conv1D f4 [64]
0	0xbc129660	-0.008946985
1	0x3bd218a0	0.006411627
2	0x3a45ae00	0.00075408816
3	0x3a556000	0.000813961
4	0xba150bd8	-0.0005685664
5	0xbb87c5c0	-0.0041434467
6	0x3cf81be0	0.03028673
7	0xbdd8a666	-0.10578613
8	0xbc588a20	-0.013216525
9	0x3d554854	0.05207093
10	0x3992a800	0.0002797246
11	0xbe3f9971	-0.18710877
12	0x3bab0220	0.005218759
13	0x3c53f5e0	0.012937039
14	0x3c384780	0.011247516
15	0xbc528620	-0.012849361
16	0x3b99ee80	0.004697621
17	0xbe056b4b	-0.1302921
18	0x3da53340	0.08066416
19	0xbb184d00	-0.0023239255
20	0xbc9e50ab	-0.019325575
21	0x3e0e1404	0.13874823
22	0x3b0017c0	0.0019545406
23	0x3d2bbd3e	0.041928522
24	0xbdacf14c	-0.08444461
25	0x3c13bdc6	0.0090174135
26	0xbdba30b4	-0.09091321
27	0x3a41b200	0.000738889
28	0x3aaf4280	0.0013371259
29	0x3da8b85c	0.08238289
30	0xbdb5812b	-0.088625275
31	0xba5089c0	-0.00079550967
32	0xb940f800	-0.00018402934
33	0x3a2c4000	0.0006570816
34	0x3dc413a0	0.09574056
35	0x3e01b77e	0.12667653
36	0xbdc8ac2e	-0.09798466
37	0x3b6dc320	0.0036279634
38	0x3c07a6e0	0.008279532
39	0x3b2f88e4	0.0026784474
40	0xbc4868e0	-0.012232035
41	0x3b865940	0.004099995
42	0xbde92634	-0.1138424
43	0xbb214300	-0.0024606586
44	0xba706c00	-0.00091713667
45	0x3d960424	0.073250085
46	0x3d977140	0.073946476
47	0xbd61dd58	-0.05514273
48	0x3c822998	0.015888974
49	0x3b768280	0.0037614405
50	0xbbf4a7c0	-0.0074662864
51	0x3e31a740	0.17348957
52	0x3e11dcc2	0.14244369
53	0x3de2d208	0.110752165
54	0x3d148718	0.036261648
55	0x3b20d180	0.0024538934
56	0x3bd18080	0.006393492
57	0x3c2a9be0	0.01041314
58	0xbbb94740	-0.0056542456
59	0xbb0a0b00	-0.0021063685
60	0xba5ca500	-0.0008416921
61	0x3c84ec20	0.016225874
62	0x3b21b200	0.0024672747
63	0xbda2d86c	-0.079514354

model/re_lu_1/Relu;model/batch_normalization_1/batchnorm/add_1;model/conv1d_1/Conv1D/Squeeze;model/batch_normalization_1/batchnorm/mul_1;model/conv1d_1/BiasAdd;model/conv1d_1/BiasAdd/ReadVariableOp;model/batch_normalization_1/batchnorm/mul;model/batch_normalization_1/batchnorm/sub;model/conv1d_1/Conv1D f4 [128]
0	0xbe75433f	-0.23951434
1	0xbf3949e9	-0.723784
2	0x3daae21a	0.08343907
3	0xbc44516a	-0.011982301
4	0x3ea0fbc5	0.31442085
5	0xbe87a213	-0.2649084
6	0x3dd97f7f	0.10620021
7	0xbed6f5bc	-0.41984355
8	0x3d504f9c	0.05085717
9	0x3cb0a238	0.021561727
10	0xbec80973	-0.3906971
11	0x3ea4c04e	0.32177967
12	0x3e1b754a	0.15181461
13	0xbee481ea	-0.44630367
14	0xbe9fa85c	-0.31183136
15	0xbee48b9a	-0.44637758
16	0x3e847dc3	0.258772
17	0xbd8457ba	-0.06462045
18	0x3e82cc33	0.25546417
19	0x3d6c34fc	0.057667717
20	0x3ccde65e	0.025134262
21	0x3efdd19b	0.4957398
22	0x3e821ef3	0.25414237
23	0xbe81e42d	-0.25369397
24	0xbf17213c	-0.59035087
25	0xbd86721c	-0.065647334
26	0xbe5459a5	-0.20737322
27	0xbebd7e29	-0.37010315
28	0x3e23cd32	0.15996245
29	0xbd1b31ce	-0.037889294
30	0x3eb21082	0.3477822
31	0xbe5a6ad5	-0.21329816
32	0x3ef33182	0.4749871
33	0xbdcddc42	-0.100517765
34	0x3da99484	0.0828028
35	0xbda15535	-0.0787758
36	0x3d57edd8	0.05271706
37	0x3dd61a64	0.10454252
38	0x3ef0fc66	0.47067565
39	0x3b16397a	0.0022922442
40	0x3f0ad8ff	0.5423736
41	0x3e8baa88	0.27278543
42	0xbd5ad20d	-0.053422976
43	0x3d9268c8	0.07148892
44	0xbf1d9994	-0.61562467
45	0xbf27e8ce	-0.65589607
46	0x3e5ae154	0.21375018
47	0xbecc36d4	-0.3988558
48	0x3f25e1dc	0.6479776
49	0x3e213f44	0.1574679
50	0xbe8489aa	-0.2588628
51	0x3ef6abf5	0.48178068
52	0x3eb75686	0.358082
53	0xbea24a8b	-0.31697497
54	0xbedeb8cb	-0.4350036
55	0xbec07c09	-0.3759463
56	0xbceaffa5	-0.028686354
57	0xbe41af8a	-0.18914619
58	0xbdef305e	-0.11679147
59	0x3e89584d	0.2682518
60	0xbece0043	-0.40234575
61	0x3e9dc741	0.3081608
62	0xbf219da1	-0.6313115
63	0x3dd72a68	0.10506135
64	0x3e44a3c7	0.19203101
65	0xbe4f04aa	-0.20216623
66	0x3e870abe	0.26375383
67	0x3eaaaf34	0.33336794
68	0xbe5c090e	-0.21487829
69	0xbaf71f87	-0.0018854
70	0x3e7f764d	0.24947472
71	0x3e7aef3c	0.24505323
72	0x3df16549	0.11786897
73	0x3ee66a25	0.45002857
74	0x3f1aac83	0.6041948
75	0xbf13bd35	-0.5771058
76	0x3e621845	0.2207957
77	0x3e8119ec	0.2521509
78	0xbf313bd3	-0.6923191
79	0xbe94df88	-0.2907679
80	0xbdd7df39	-0.10540623
81	0x3e7c6ae1	0.24650146
82	0xbf36b216	-0.7136549
83	0xbe58c464	-0.21168667
84	0x3e99aea0	0.3001604
85	0xbf033cec	-0.51264834
86	0x3f06a869	0.52600724
87	0x3e99a488	0.3000834
88	0xbdfb35ca	-0.12266119
89	0x3f00dcf7	0.50337166
90	0xbec58b36	-0.38582772
91	0x3d9840dc	0.07434246
92	0xbea51955	-0.3224589
93	0x3eb95932	0.36200863
94	0x3d725587	0.059163596
95	0x3d82e0e4	0.06390551
96	0x3e7b8cde	0.24565455
97	0xbe9d02bc	-0.3066615
98	0xbe43e3ae	-0.19129822
99	0xbc93d827	-0.018047405
100	0x3ee8cbce	0.4546799
101	0x3e109936	0.14120945
102	0xbe88b983	-0.26704034
103	0xbe01c479	-0.12672605
104	0xbd581cdc	-0.052761897
105	0x3ef6726e	0.48134178
106	0xbd331f8b	-0.043731254
107	0x3dff9bf4	0.124809176
108	0x3d9d3f4a	0.07678087
109	0x3eff108f	0.4981732
110	0x3ea3eae6	0.3201515
111	0x3f2869d1	0.65786463
112	0x3f22d4d2	0.6360599
113	0xbec5f412	-0.38662773
114	0x3ef4a2ad	0.47780362
115	0xbd9aae33	-0.07552757
116	0xbd449df5	-0.048002202
117	0x3e35403f	0.17700289
118	0x3eaa7a4e	0.33296436
119	0xbec8c388	-0.39211679
120	0x3f08009e	0.5312594
121	0xbf132e14	-0.57492185
122	0xbe9ecd4c	-0.31016004
123	0x3da3ddb9	0.080012746
124	0xbeea9a74	-0.45820963
125	0x3dcb702a	0.09933503
126	0xbe9c7a7f	-0.30562207
127	0x3e464a07	0.19364177

model/batch_normalization/batchnorm/mul_1;model/conv1d/Conv1D/Squeeze;model/conv1d/BiasAdd;model/conv1d/BiasAdd/ReadVariableOp;model/batch_normalization/batchnorm/mul;model/conv1d/Conv1D i1 [64, 1, 5, 6]
0	0x16	22
1	0x7f	127
2	0x81	-127
3	0xfb	-5
4	0x2f	47
5	0xf7	-9
6	0x0b	11
7	0xf0	-16
8	0xd2	-46
9	0x1a	26
10	0xee	-18
11	0xec	-20
12	0xc9	-55
13	0x39	57
14	0x91	-111
15	0x12	18
16	0x2f	47
17	0x2c	44
18	0x1a	26
19	0x69	105
20	0x9e	-98
21	0x2a	42
22	0xeb	-21
23	0x2c	44
24	0x18	24
25	0x26	38
26	0x90	-112
27	0xd7	-41
28	0xf9	-7
29	0x28	40
30	0x01	1
31	0xb9	-71
32	0xe0	-32
33	0x0f	15
34	0x02	2
35	0x1e	30
36	0xd6	-42
37	0x98	-104
38	0x04	4
39	0x0a	10
40	0x22	34
41	0x37	55
42	0x1a	26
43	0xb9	-71
44	0xcd	-51
45	0xf5	-11
46	0xd0	-48
47	0xea	-22
48	0x11	17
49	0x81	-127
50	0xe9	-23
51	0xf1	-15
52	0x29	41
53	0x10	16
54	0xf3	-13
55	0xc3	-61
56	0x0c	12
57	0xfb	-5
58	0xe1	-31
59	0xa6	-90
60	0x1c	28
61	0xdf	-33
62	0xe5	-27
63	0xbd	-67
64	0xe7	-25
65	0x02	2
66	0x47	71
67	0x22	34
68	0x4e	78
69	0x38	56
70	0xcd	-51
71	0x35	53
72	0xfc	-4
73	0xed	-19
74	0x40	64
75	0xf1	-15
76	0x0d	13
77	0x01	1
78	0x40	64
79	0x4d	77
80	0x1b	27
81	0xe8	-24
82	0x1b	27
83	0x1c	28
84	0x7f	127
85	0xdc	-36
86	0x7c	124
87	0x31	49
88	0x3c	60
89	0xb1	-79
90	0xf5	-11
91	0x7f	127
92	0x5f	95
93	0x08	8
94	0x09	9
95	0xee	-18
96	0x45	69
97	0x71	113
98	0x27	39
99	0x1b	27
100	0x35	53
101	0x3f	63
102	0x12	18
103	0x3d	61
104	0x4e	78
105	0xc0	-64
106	0xe5	-27
107	0xdf	-33
108	0x66	102
109	0x39	57
110	0xfd	-3
111	0x21	33
112	0x09	9
113	0x08	8
114	0x63	99
115	0x33	51
116	0x04	4
117	0xe4	-28
118	0xe0	-32
119	0xf5	-11
120	0x18	24
121	0xee	-18
122	0xf8	-8
123	0x26	38
124	0xa9	-87
125	0xc9	-55
126	0xec	-20
127	0x85	-123
128	0xc1	-63
129	0x0d	13
130	0xf2	-14
131	0xd7	-41
132	0xc7	-57
133	0xd5	-43
134	0xbd	-67
135	0xac	-84
136	0xc5	-59
137	0xd0	-48
138	0xec	-20
139	0xe8	-24
140	0x15	21
141	0x13	19
142	0xd6	-42
143	0xbc	-68
144	0x9a	-102
145	0x81	-127
146	0x3c	60
147	0xd3	-45
148	0xf6	-10
149	0x11	17
150	0x25	37
151	0x30	48
152	0x1c	28
153	0xef	-17
154	0xb9	-71
155	0x1a	26
156	0x6f	111
157	0x21	33
158	0xdc	-36
159	0xf4	-12
160	0x10	16
161	0x35	53
162	0x7f	127
163	0x45	69
164	0x43	67
165	0xca	-54
166	0xf4	-12
167	0xd2	-46
168	0x0a	10
169	0x1c	28
170	0x4d	77
171	0xdc	-36
172	0x13	19
173	0x22	34
174	0x47	71
175	0x48	72
176	0x41	65
177	0x64	100
178	0x27	39
179	0x98	-104
180	0xf1	-15
181	0xfd	-3
182	0x55	85
183	0x06	6
184	0xe6	-26
185	0x14	20
186	0xd2	-46
187	0xa7	-89
188	0x56	86
189	0xd9	-39
190	0x19	25
191	0xd0	-48
192	0xdc	-36
193	0xa4	-92
194	0x76	118
195	0xde	-34
196	0xdf	-33
197	0x23	35
198	0xbb	-69
199	0x0d	13
200	0x42	66
201	0xff	-1
202	0xfc	-4
203	0xd5	-43
204	0xe1	-31
205	0xd0	-48
206	0x7f	127
207	0x22	34
208	0x07	7
209	0x07	7
210	0xbe	-66
211	0x7f	127
212	0x28	40
213	0xfb	-5
214	0xe8	-24
215	0x03	3
216	0xc8	-56
217	0x39	57
218	0xdc	-36
219	0xc4	-60
220	0xdc	-36
221	0xd1	-47
222	0x0d	13
223	0x2e	46
224	0xd7	-41
225	0x3f	63
226	0xb5	-75
227	0xa5	-91
228	0x24	36
229	0x23	35
230	0xb2	-78
231	0xb8	-72
232	0xca	-54
233	0xa1	-95
234	0xc9	-55
235	0xcc	-52
236	0xad	-83
237	0x22	34
238	0x37	55
239	0xfe	-2
240	0x01	1
241	0x15	21
242	0x38	56
243	0xda	-38
244	0xbb	-69
245	0x0a	10
246	0x20	32
247	0xd5	-43
248	0xe1	-31
249	0x43	67
250	0xa6	-90
251	0x07	7
252	0x48	72
253	0x39	57
254	0x81	-127
255	0x1e	30

model/batch_normalization_1/batchnorm/mul_1;model/conv1d_1/Conv1D/Squeeze;model/conv1d_1/BiasAdd;model/conv1d_1/BiasAdd/ReadVariableOp;model/batch_normalization_1/batchnorm/mul;model/conv1d_1/Conv1D i1 [128, 1, 3, 64]
0	0x49	73
1	0x3a	58
2	0xc3	-61
3	0xcc	-52
4	0x1f	31
5	0xf6	-10
6	0x25	37
7	0xf2	-14
8	0xfd	-3
9	0xc2	-62
10	0x0c	12
11	0x34	52
12	0x1c	28
13	0x5d	93
14	0xe4	-28
15	0x10	16
16	0xe2	-30
17	0xff	-1
18	0xf0	-16
19	0xeb	-21
20	0xf5	-11
21	0xdc	-36
22	0xf3	-13
23	0x35	53
24	0x54	84
25	0x42	66
26	0xd9	-39
27	0x9d	-99
28	0xcd	-51
29	0xf8	-8
30	0x3a	58
31	0xeb	-21
32	0x2f	47
33	0x11	17
34	0xe6	-26
35	0xce	-50
36	0x9f	-97
37	0x47	71
38	0xd2	-46
39	0xf3	-13
40	0x0d	13
41	0x0c	12
42	0xf2	-14
43	0x1c	28
44	0x13	19
45	0xec	-20
46	0xaf	-81
47	0xbd	-67
48	0xfc	-4
49	0x17	23
50	0xcb	-53
51	0x2c	44
52	0x19	25
53	0xff	-1
54	0xfe	-2
55	0xe0	-32
56	0xeb	-21
57	0xc5	-59
58	0xfc	-4
59	0x14	20
60	0x52	82
61	0x06	6
62	0xff	-1
63	0x39	57
64	0x58	88
65	0x11	17
66	0x1d	29
67	0x2e	46
68	0xd6	-42
69	0x07	7
70	0x51	81
71	0x01	1
72	0x23	35
73	0xc8	-56
74	0xd7	-41
75	0x2e	46
76	0x51	81
77	0x25	37
78	0xe5	-27
79	0xf9	-7
80	0xf3	-13
81	0x34	52
82	0x14	20
83	0x14	20
84	0xc3	-61
85	0x2d	45
86	0x18	24
87	0x16	22
88	0x1d	29
89	0x3f	63
90	0x02	2
91	0xa9	-87
92	0x05	5
93	0xe9	-23
94	0xcb	-53
95	0xf7	-9
96	0x45	69
97	0xf1	-15
98	0x37	55
99	0x08	8
100	0xd0	-48
101	0xd0	-48
102	0xfb	-5
103	0xe7	-25
104	0x2e	46
105	0xe5	-27
106	0x2c	44
107	0x1f	31
108	0xe5	-27
109	0x25	37
110	0xb8	-72
111	0x1b	27
112	0x36	54
113	0xf2	-14
114	0xe3	-29
115	0x37	55
116	0x4a	74
117	0x02	2
118	0x20	32
119	0xe8	-24
120	0xee	-18
121	0x9d	-99
122	0xd1	-47
123	0xef	-17
124	0x2b	43
125	0x17	23
126	0xdd	-35
127	0x2e	46
128	0xec	-20
129	0xf0	-16
130	0xe2	-30
131	0x07	7
132	0xf2	-14
133	0x25	37
134	0x4a	74
135	0xc9	-55
136	0x34	52
137	0x08	8
138	0xd8	-40
139	0x1e	30
140	0xf9	-7
141	0xf9	-7
142	0x17	23
143	0x2f	47
144	0x20	32
145	0x33	51
146	0xfd	-3
147	0xcd	-51
148	0x1b	27
149	0x10	16
150	0xec	-20
151	0x7f	127
152	0x18	24
153	0x04	4
154	0xc9	-55
155	0x17	23
156	0xc9	-55
157	0xdb	-37
158	0x2a	42
159	0xd6	-42
160	0x06	6
161	0xe1	-31
162	0x24	36
163	0xc7	-57
164	0xf4	-12
165	0x06	6
166	0x17	23
167	0x0a	10
168	0xfa	-6
169	0x10	16
170	0x27	39
171	0x25	37
172	0xf3	-13
173	0x32	50
174	0xef	-17
175	0xb8	-72
176	0x35	53
177	0x0d	13
178	0x0d	13
179	0x35	53
180	0x1b	27
181	0x02	2
182	0xed	-19
183	0xb5	-75
184	0x2c	44
185	0x83	-125
186	0xda	-38
187	0x0e	14
188	0xeb	-21
189	0xb8	-72
190	0x0d	13
191	0xc8	-56
192	0x27	39
193	0x0e	14
194	0x68	104
195	0xe0	-32
196	0xed	-19
197	0x62	98
198	0xfa	-6
199	0xe7	-25
200	0x6e	110
201	0x01	1
202	0x14	20
203	0x1d	29
204	0x16	22
205	0x14	20
206	0x52	82
207	0xe2	-30
208	0x0d	13
209	0x15	21
210	0xec	-20
211	0x34	52
212	0xb6	-74
213	0xd1	-47
214	0x2f	47
215	0xf3	-13
216	0xe9	-23
217	0x47	71
218	0x0c	12
219	0xf9	-7
220	0x62	98
221	0x06	6
222	0xff	-1
223	0xe6	-26
224	0xc9	-55
225	0x42	66
226	0xcd	-51
227	0xc0	-64
228	0xdf	-33
229	0xb4	-76
230	0x17	23
231	0x24	36
232	0x06	6
233	0x21	33
234	0xf6	-10
235	0x6b	107
236	0xf7	-9
237	0x31	49
238	0x4c	76
239	0x2d	45
240	0xfd	-3
241	0xeb	-21
242	0x36	54
243	0xdf	-33
244	0x32	50
245	0xf7	-9
246	0xab	-85
247	0x1b	27
248	0x4b	75
249	0x2d	45
250	0x6a	106
251	0xe5	-27
252	0x2c	44
253	0x33	51
254	0x29	41
255	0x06	6

tfl.pseudo_qconst i1 [64, 64] scale=0.0023517774 zero_point=0
0	0xd0	-0.11288531
1	0x1b	0.06349799
2	0x0c	0.028221328
3	0x0a	0.023517774
4	0xf3	-0.030573105
5	0x2d	0.105829984
6	0x06	0.014110664
7	0xf7	-0.021165997
8	0x08	0.01881422
9	0xd8	-0.0940711
10	0x24	0.08466399
11	0xf7	-0.021165997
12	0x14	0.04703555
13	0x25	0.08701576
14	0xf4	-0.028221328
15	0x06	0.014110664
16	0xd1	-0.110533535
17	0xcd	-0.119940646
18	0x21	0.07760865
19	0x2e	0.10818176
20	0x07	0.016462442
21	0x06	0.014110664
22	0xf5	-0.025869552
23	0x25	0.08701576
24	0x07	0.016462442
25	0xfd	-0.007055332
26	0xf1	-0.035276663
27	0xcc	-0.12229242
28	0x1e	0.070553325
29	0xf2	-0.032924883
30	0x0e	0.032924883
31	0x0b	0.025869552
32	0xfe	-0.004703555
33	0x17	0.05409088
34	0x12	0.042331994
35	0x10	0.03762844
36	0xfc	-0.00940711
37	0xfc	-0.00940711
38	0x22	0.07996043
39	0x4f	0.18579042
40	0x2a	0.09877465
41	0xe4	-0.065849766
42	0x1e	0.070553325
43	0xe6	-0.06114621
44	0xd7	-0.09642287
45	0xf6	-0.023517774
46	0xeb	-0.049387325
47	0xde	-0.07996043
48	0x18	0.056442656
49	0xfd	-0.007055332
50	0xeb	-0.049387325
51	0x22	0.07996043
52	0x13	0.04468377
53	0xdb	-0.08701576
54	0xf7	-0.021165997
55	0x00	0.0
56	0x00	0.0
57	0x0c	0.028221328
58	0xf3	-0.030573105
59	0x00	0.0
60	0xf7	-0.021165997
61	0xb4	-0.17873508
62	0xda	-0.08936754
63	0xe5	-0.06349799
64	0xfd	-0.007055332
65	0xde	-0.07996043
66	0xf1	-0.035276663
67	0x17	0.05409088
68	0xe0	-0.07525688
69	0x26	0.08936754
70	0xec	-0.04703555
71	0x15	0.049387325
72	0xe8	-0.056442656
73	0xd1	-0.110533535
74	0x3b	0.13875486
75	0x18	0.056442656
76	0x17	0.05409088
77	0xcf	-0.115237094
78	0x14	0.04703555
79	0xd8	-0.0940711
80	0xe4	-0.065849766
81	0x16	0.051739104
82	0x1e	0.070553325
83	0x0c	0.028221328
84	0xfc	-0.00940711
85	0xee	-0.042331994
86	0xf6	-0.023517774
87	0xfe	-0.004703555
88	0x37	0.12934776
89	0xdc	-0.08466399
90	0x11	0.039980214
91	0xfd	-0.007055332
92	0x3e	0.1458102
93	0xef	-0.039980214
94	0xec	-0.04703555
95	0xf6	-0.023517774
96	0xf5	-0.025869552
97	0xef	-0.039980214
98	0xd4	-0.10347821
99	0x1f	0.0729051
100	0x20	0.07525688
101	0x01	0.0023517774
102	0xf2	-0.032924883
103	0xd5	-0.101126425
104	0xfa	-0.014110664
105	0xe2	-0.070553325
106	0x1e	0.070553325
107	0x27	0.09171932
108	0x1a	0.06114621
109	0x2e	0.10818176
110	0x00	0.0
111	0xdb	-0.08701576
112	0x02	0.004703555
113	0xc4	-0.14110665
114	0x1e	0.070553325
115	0x0c	0.028221328
116	0xbe	-0.1552173
117	0x09	0.021165997
118	0x0d	0.030573105
119	0x17	0.05409088
120	0xdc	-0.08466399
121	0x0c	0.028221328
122	0x11	0.039980214
123	0x0d	0.030573105
124	0xce	-0.11758887
125	0xd0	-0.11288531
126	0x43	0.15756908
127	0x28	0.0940711
128	0xbe	-0.1552173
129	0x1e	0.070553325
130	0x19	0.058794435
131	0x16	0.051739104
132	0x30	0.11288531
133	0x03	0.007055332
134	0xf4	-0.028221328
135	0xea	-0.051739104
136	0xfe	-0.004703555
137	0x2a	0.09877465
138	0x1c	0.065849766
139	0x03	0.007055332
140	0x01	0.0023517774
141	0xfa	-0.014110664
142	0x0f	0.035276663
143	0x4f	0.18579042
144	0xf2	-0.032924883
145	0x1e	0.070553325
146	0xf0	-0.03762844
147	0x10	0.03762844
148	0xed	-0.04468377
149	0x38	0.13169953
150	0x25	0.08701576
151	0xf1	-0.035276663
152	0x12	0.042331994
153	0x31	0.115237094
154	0x9e	-0.23047419
155	0xd9	-0.09171932
156	0x2e	0.10818176
157	0xe0	-0.07525688
158	0x0d	0.030573105
159	0xf0	-0.03762844
160	0xe7	-0.058794435
161	0x36	0.12699598
162	0xc9	-0.12934776
163	0x34	0.12229242
164	0x33	0.119940646
165	0xdd	-0.08231221
166	0x19	0.058794435
167	0x12	0.042331994
168	0x0a	0.023517774
169	0xc3	-0.14345843
170	0x03	0.007055332
171	0xc6	-0.13640308
172	0x06	0.014110664
173	0xf1	-0.035276663
174	0x04	0.00940711
175	0xbe	-0.1552173
176	0x0c	0.028221328
177	0xf1	-0.035276663
178	0x0b	0.025869552
179	0xca	-0.12699598
180	0xf2	-0.032924883
181	0xf9	-0.016462442
182	0x17	0.05409088
183	0xff	-0.0023517774
184	0x2f	0.110533535
185	0xde	-0.07996043
186	0x00	0.0
187	0xf1	-0.035276663
188	0xe3	-0.06820154
189	0xfd	-0.007055332
190	0x01	0.0023517774
191	0xd5	-0.101126425
192	0xe9	-0.05409088
193	0x1b	0.06349799
194	0xd0	-0.11288531
195	0x04	0.00940711
196	0x04	0.00940711
197	0xe7	-0.058794435
198	0x01	0.0023517774
199	0x19	0.058794435
200	0x03	0.007055332
201	0x09	0.021165997
202	0xf6	-0.023517774
203	0xff	-0.0023517774
204	0x19	0.058794435
205	0xea	-0.051739104
206	0xfc	-0.00940711
207	0x10	0.03762844
208	0x2e	0.10818176
209	0x1a	0.06114621
210	0xfa	-0.014110664
211	0xdd	-0.08231221
212	0xc7	-0.13405131
213	0xcc	-0.12229242
214	0xea	-0.051739104
215	0xf0	-0.03762844
216	0x0a	0.023517774
217	0xf7	-0.021165997
218	0x09	0.021165997
219	0x04	0.00940711
220	0xc3	-0.14345843
221	0xef	-0.039980214
222	0x22	0.07996043
223	0x0f	0.035276663
224	0x33	0.119940646
225	0xec	-0.04703555
226	0x15	0.049387325
227	0x03	0.007055332
228	0xff	-0.0023517774
229	0x02	0.004703555
230	0xf4	-0.028221328
231	0xf0	-0.03762844
232	0x00	0.0
233	0xbf	-0.15286553
234	0x09	0.021165997
235	0x24	0.08466399
236	0xd1	-0.110533535
237	0x33	0.119940646
238	0xf0	-0.03762844
239	0x00	0.0
240	0x1e	0.070553325
241	0x10	0.03762844
242	0x26	0.08936754
243	0x1f	0.0729051
244	0x2b	0.101126425
245	0xea	-0.051739104
246	0xe5	-0.06349799
247	0x09	0.021165997
248	0xe5	-0.06349799
249	0xe4	-0.065849766
250	0x27	0.09171932
251	0xf0	-0.03762844
252	0xf9	-0.016462442
253	0xec	-0.04703555
254	0x1f	0.0729051
255	0xc8	-0.13169953
