HAR_APP/app/src/main/assets/dynamic_gru.tflite (tflite, 82832 bytes, 20 tensors)

model_3/dense_7/MatMul;model_3/dense_7/BiasAdd f4 [6]
00000000: 0b2f 9ec0 ffd1 b0c0 ba83 b4c0 b784 d040
00000010: 3ede fd40 0e72 b040
-4.9432425 -5.5256343 -5.64108 6.5162005 7.933379 5.5139227

model_3/batch_normalization_3/batchnorm/mul_1;model_3/batch_normalization_3/batchnorm/add_1;model_3/dense_7/MatMul;model_3/dense_7/BiasAdd f4 [6, 128]
00000000: 6929 f5bd 649b 8140 8ab3 883f 20cf 92be
00000010: 3c2e 3b3f bdc1 8cbf ef3d 71bf 6912 25c0
00000020: c2c5 6ac0 406b bcc0 680e fdbe 31dd 05bf
00000030: fd3d 023e b392 d6bf 59dd 6abe 81d9 73be
00000040: 2836 ad3f f5f1 863d 71cd 9c40 7376 89c0
00000050: 6d0e 053f b101 f33f bbae cbbf 664c 96bf
00000060: 0357 723e 7352 00c0 720e c43f f81f 383f
00000070: 1c9d 1cbf 1f9e 50c0 377e d93c 8b0a cfbe
00000080: 1e8e 873e 5891 f9bf 9f61 153f b8d2 20c0
00000090: a07d 65bf 6745 283f a7d6 ba3f f14d 4e40
000000a0: 387d 70c0 7233 5640 2479 9cbf 3cea 9e3c
000000b0: 36f2 333d 0c13 383f 42a6 2e40 704b d1bf
000000c0: 5b17 1f3f 4002 a1bf 09b9 1340 0ff4 4bc0
000000d0: e7c9 d7be 0bb4 9f40 141f 8c3f 3474 acbd
000000e0: c0b5 3a3f 1fe7 60bf 0555 433f 661c 3dbf
000000f0: 55b5 92bd 99c0 cbbf b537 6a3d baa5 dc3e
00000100: 25d9 8d3f e813 02be f125 56bf 808f c53f
00000110: c901 113f 54fa e53e b5d3 36c0 7ecb 00c0
00000120: 07d1 25c0 c38e aebf 99e7 dd3e f611 593f
00000130: 359c 89bf 47b2 853f cde3 8fbf a2f2 273d
00000140: f021 173f 5bd2 cc3e e9d3 2b3e 6cb5 adbe
00000150: 62b7 7440 f7cc b2be 2982 21c0 616f aabd
00000160: 3a54 9dbe 5cbc d8bf c9ed 343f 0331 b03f
00000170: e276 713e f3b4 a1bd 3b3c bf3e 058c c93e
00000180: ce62 3b3e 1457 543f 59cd 21be 9405 e5be
00000190: 7a8d 4e3f 32ed a7bf e13b 59bf 4581 a43f
000001a0: 55cd 8f3e 0c67 b6c0 e8c1 c23e c62c 51bf
000001b0: ff94 173f 4be7 3a3f 0110 723f 7237 6c3f
000001c0: 0831 863e 047c c0bd 5204 da3e 728f e03e
000001d0: e393 953f 924f 493f de25 8cbf 1886 003f
000001e0: 055e 0fbe 729b 02bf b532 543e 0b7e 9f3f
000001f0: e2c2 d63e d2a9 d1bd 6e9c d33f 3ead a9bf
00000200: ffaa 293e 83d6 7a3f 5f18 ddbd d0b2 bbbe
00000210: 6b1a 5ebe a268 723e a5cd 853f 220c b2be
00000220: c96f 0841 c07b 2ec0 27b7 483f 1bc4 25bd
00000230: 186f 923d d9dd 0c3f 1ae7 dfbf 51d4 123e
00000240: 28cd b13f 0c5b 7d3f f309 5340 93f4 94c0
00000250: 7b29 63bf d29f 11be 7285 f0bf 3d80 573f
00000260: 49fa 6fbe 9f2d c9bd 938e 94bf c022 d0be
00000270: 845b 503e af11 2cc0 e767 0dbf 74be 9ebe
00000280: 4867 ee3d 1c41 a93f f0c3 353f afce 0fc0
00000290: 4ce8 7a3f 4540 ea3e fddb 7d3f 9b58 0dc0
000002a0: 4e70 83be 586e a8c0 6eed dfbf 3945 9bbf
000002b0: ad1e 61be 41a1 2abe 5c9b 97be 8c7c 4fbf
000002c0: 18bf e03e 9469 7e3f aacc 7f40 1d0a 2a3f
000002d0: a54a 7e3f 9dc5 8e3f 4726 8abf 520d a53f
000002e0: 4f25 703f a18b 993f 4ccd 1cbf 26d2 6ebe
000002f0: 53d0 083f f296 843b 0dbe 89bf fc84 263d
00000300: b0ef 893f 50b9 be3e 8ff4 0540 e117 1e3f
00000310: 7cf0 28bf 4940 0f3e 64cc 863f 38f7 56bf
00000320: 96a7 4c40 6a0d 5240 1e4f 543f df32 cb3e
00000330: 6f55 de3f ace3 4bbf 4cbf 3a3f 4fe5 933f
00000340: 1668 133f ca50 ec3e 2cbb 703f 9f7e 57bf
00000350: 5979 c8bf eb34 3a3f 6277 bdc0 f79f 1bbf
00000360: 43a6 2b3e 60a7 bcbf c571 e83e 933a fe3f
00000370: f215 1bbf e637 9e3f c106 ed3e 64d4 d53e
00000380: 934d eebd 8e52 563f 0509 eabe 83d7 cd3c
00000390: 20a6 1c3f ed40 ef3e 8fa5 f7be 0c25 b83e
000003a0: 5ac5 493f 8a4c 4ac0 c756 513f f070 213f
000003b0: 4461 96bc d67c 573f cfb6 4a3f 586d 2dbf
000003c0: 6afe 513f 7cbe d7be db9f e63e 0639 22bf
000003d0: d64d f5bf ab38 dc3d 2c42 003f a83c 003f
000003e0: b59e 61bf f9fb b6be 70c9 6abf 71c1 0040
000003f0: 73ea 1a3f 496e 573f a0df 2340 f3c9 df3f
-0.11970789 4.0502186 1.0679791 -0.2867365 0.73117423 -1.0996624 -0.9423513 -2.5792487
-3.6683202 -5.888092 -0.49425054 -0.52290636 0.12718959 -1.6763519 -0.22936 -0.2381344
1.3532152 0.065891184 4.9000783 -4.295709 0.51975137 1.8984891 -1.5912699 -1.1742065
0.23666005 -2.0050323 1.5316908 0.7192378 -0.6117723 -3.259651 0.026549442 -0.4043773
0.26475614 -1.949748 0.5835208 -2.5128613 -0.89644814 0.657309 1.4596757 3.2235072
-3.7576427 3.34689 -1.2224469 0.019398801 0.043932162 0.71904063 2.7288976 -1.6351147
0.6214501 -1.2578812 2.3081686 -3.1867712 -0.42146227 4.990728 1.0946984 -0.084206015
0.7293358 -0.8785266 0.76301605 -0.7387146 -0.071634926 -1.5918151 0.057182033 0.4309519
1.1081892 -0.12702906 -0.83651644 1.5434418 0.5664335 0.44917548 -2.8566716 -2.0124202
-2.590883 -1.3637317 0.43340757 0.8479303 -1.0750796 1.0445031 -1.1241394 0.041002877
0.5903616 0.40004238 0.16780056 -0.33927476 3.8236928 -0.34922 -2.5235693 -0.08322025
-0.30728322 -1.6932483 0.7067533 1.3764957 0.23580506 -0.078958414 0.3735064 0.3936464
0.1829941 0.8294537 -0.1580099 -0.44730818 0.80684626 -1.3119261 -0.8485699 1.285195
0.28086343 -5.700079 0.38038564 -0.81708944 0.59211725 0.73009175 0.9455567 0.922721
0.26209283 -0.09398654 0.4258142 0.4385944 1.1685756 0.7863704 -1.0949056 0.5020461
-0.1400071 -0.5101844 0.20722468 1.246034 0.4194556 -0.10237469 1.6532114 -1.3255994
0.16569136 0.9798357 -0.10795664 -0.3665986 -0.21689765 0.23672727 1.0453383 -0.34774882
8.527291 -2.726303 0.7840447 -0.040470224 0.07150096 0.5502601 -1.7492402 0.14338805
1.3890734 0.9896705 3.2974823 -4.6548553 -0.8873517 -0.14221123 -1.8790724 0.8418005
-0.2343532 -0.09823155 -1.160601 -0.40651512 0.2034741 -2.6885793 -0.5523667 -0.3100468
0.11640793 1.3222995 0.710021 -2.24699 0.98010707 0.4575216 0.991638 -2.208533
-0.2567162 -5.2634697 -1.7494333 -1.21305 -0.21984358 -0.16663076 -0.29610717 -0.8104942
0.43895793 0.9937985 3.9968667 0.6642168 0.9933265 1.1154057 -1.0792931 1.289469
0.9380693 1.1995736 -0.6125076 -0.23322353 0.5344288 0.0040463144 -1.0761124 0.040654168
1.0776272 0.37250757 2.0930517 0.61755186 -0.6599195 0.13989367 1.0531125 -0.83970976
3.1977286 3.2820687 0.82933223 0.3968725 1.7369822 -0.79644275 0.72948146 1.1554354
0.575807 0.46155387 0.940356 -0.84177583 -1.5662032 0.72736996 -5.920823 -0.6079096
0.16762643 -1.4738579 0.453993 1.9861625 -0.6058036 1.2360809 0.46294215 0.41763604
-0.1163589 0.8371972 -0.45710006 0.025127178 0.61190987 0.46729222 -0.483685 0.35965765
0.7881676 -3.1609216 0.81773037 0.63062954 -0.018356927 0.8417486 0.79185194 -0.6774497
0.8202883 -0.42137516 0.45043835 -0.6336826 -1.9164379 0.10752996 0.5010097 0.50092554
-0.8813279 -0.35739115 -0.9171362 2.0118067 0.6051399 0.84152657 2.560524 1.7483505

TensorArrayV2_1 f4 [1, 1, 32]
00000000: 0000 0000 0000 0000 0000 0000 0000 0000
00000010: 0000 0000 0000 0000 0000 0000 0000 0000
00000020: 0000 0000 0000 0000 0000 0000 0000 0000
00000030: 0000 0000 0000 0000 0000 0000 0000 0000
00000040: 0000 0000 0000 0000 0000 0000 0000 0000
00000050: 0000 0000 0000 0000 0000 0000 0000 0000
00000060: 0000 0000 0000 0000 0000 0000 0000 0000
00000070: 0000 0000 0000 0000 0000 0000 0000 0000
0.0 0.0 0.0 0.0 0.0 0.0 0.0 0.0
0.0 0.0 0.0 0.0 0.0 0.0 0.0 0.0
0.0 0.0 0.0 0.0 0.0 0.0 0.0 0.0
0.0 0.0 0.0 0.0 0.0 0.0 0.0 0.0

TensorArrayV2_11 f4 [128, 1, 64]
00000000: 0000 0000 0000 0000 0000 0000 0000 0000
00000010: 0000 0000 0000 0000 0000 0000 0000 0000
00000020: 0000 0000 0000 0000 0000 0000 0000 0000
00000030: 0000 0000 0000 0000 0000 0000 0000 0000
00000040: 0000 0000 0000 0000 0000 0000 0000 0000
00000050: 0000 0000 0000 0000 0000 0000 0000 0000
00000060: 0000 0000 0000 0000 0000 0000 0000 0000
00000070: 0000 0000 0000 0000 0000 0000 0000 0000
00000080: 0000 0000 0000 0000 0000 0000 0000 0000
00000090: 0000 0000 0000 0000 0000 0000 0000 0000
000000a0: 0000 0000 0000 0000 0000 0000 0000 0000
000000b0: 0000 0000 0000 0000 0000 0000 0000 0000
000000c0: 0000 0000 0000 0000 0000 0000 0000 0000
000000d0: 0000 0000 0000 0000 0000 0000 0000 0000
000000e0: 0000 0000 0000 0000 0000 0000 0000 0000
000000f0: 0000 0000 0000 0000 0000 0000 0000 0000
00000100: 0000 0000 0000 0000 0000 0000 0000 0000
00000110: 0000 0000 0000 0000 0000 0000 0000 0000
00000120: 0000 0000 0000 0000 0000 0000 0000 0000
00000130: 0000 0000 0000 0000 0000 0000 0000 0000
00000140: 0000 0000 0000 0000 0000 0000 0000 0000
00000150: 0000 0000 0000 0000 0000 0000 0000 0000
00000160: 0000 0000 0000 0000 0000 0000 0000 0000
00000170: 0000 0000 0000 0000 0000 0000 0000 0000
00000180: 0000 0000 0000 0000 0000 0000 0000 0000
00000190: 0000 0000 0000 0000 0000 0000 0000 0000
000001a0: 0000 0000 0000 0000 0000 0000 0000 0000
000001b0: 0000 0000 0000 0000 0000 0000 0000 0000
000001c0: 0000 0000 0000 0000 0000 0000 0000 0000
000001d0: 0000 0000 0000 0000 0000 0000 0000 0000
000001e0: 0000 0000 0000 0000 0000 0000 0000 0000
000001f0: 0000 0000 0000 0000 0000 0000 0000 0000
00000200: 0000 0000 0000 0000 0000 0000 0000 0000
00000210: 0000 0000 0000 0000 0000 0000 0000 0000
00000220: 0000 0000 0000 0000 0000 0000 0000 0000
00000230: 0000 0000 0000 0000 0000 0000 0000 0000
00000240: 0000 0000 0000 0000 0000 0000 0000 0000
00000250: 0000 0000 0000 0000 0000 0000 0000 0000
00000260: 0000 0000 0000 0000 0000 0000 0000 0000
00000270: 0000 0000 0000 0000 0000 0000 0000 0000
00000280: 0000 0000 0000 0000 0000 0000 0000 0000
00000290: 0000 0000 0000 0000 0000 0000 0000 0000
000002a0: 0000 0000 0000 0000 0000 0000 0000 0000
000002b0: 0000 0000 0000 0000 0000 0000 0000 0000
000002c0: 0000 0000 0000 0000 0000 0000 0000 0000
000002d0: 0000 0000 0000 0000 0000 0000 0000 0000
000002e0: 0000 0000 0000 0000 0000 0000 0000 0000
000002f0: 0000 0000 0000 0000 0000 0000 0000 0000
00000300: 0000 0000 0000 0000 0000 0000 0000 0000
00000310: 0000 0000 0000 0000 0000 0000 0000 0000
00000320: 0000 0000 0000 0000 0000 0000 0000 0000
00000330: 0000 0000 0000 0000 0000 0000 0000 0000
00000340: 0000 0000 0000 0000 0000 0000 0000 0000
00000350: 0000 0000 0000 0000 0000 0000 0000 0000
00000360: 0000 0000 0000 0000 0000 0000 0000 0000
00000370: 0000 0000 0000 0000 0000 0000 0000 0000
00000380: 0000 0000 0000 0000 0000 0000 0000 0000
00000390: 0000 0000 0000 0000 0000 0000 0000 0000
000003a0: 0000 0000 0000 0000 0000 0000 0000 0000
000003b0: 0000 0000 0000 0000 0000 0000 0000 0000
000003c0: 0000 0000 0000 0000 0000 0000 0000 0000
000003d0: 0000 0000 0000 0000 0000 0000 0000 0000
000003e0: 0000 0000 0000 0000 0000 0000 0000 0000
000003f0: 0000 0000 0000 0000 0000 0000 0000 0000
0.0 0.0 0.0 0.0 0.0 0.0 0.0 0.0
0.0 0.0 0.0 0.0 0.0 0.0 0.0 0.0
0.0 0.0 0.0 0.0 0.0 0.0 0.0 0.0
0.0 0.0 0.0 0.0 0.0 0.0 0.0 0.0
0.0 0.0 0.0 0.0 0.0 0.0 0.0 0.0
0.0 0.0 0.0 0.0 0.0 0.0 0.0 0.0
0.0 0.0 0.0 0.0 0.0 0.0 0.0 0.0
0.0 0.0 0.0 0.0 0.0 0.0 0.0 0.0
0.0 0.0 0.0 0.0 0.0 0.0 0.0 0.0
0.0 0.0 0.0 0.0 0.0 0.0 0.0 0.0
0.0 0.0 0.0 0.0 0.0 0.0 0.0 0.0
0.0 0.0 0.0 0.0 0.0 0.0 0.0 0.0
0.0 0.0 0.0 0.0 0.0 0.0 0.0 0.0
0.0 0.0 0.0 0.0 0.0 0.0 0.0 0.0
0.0 0.0 0.0 0.0 0.0 0.0 0.0 0.0
0.0 0.0 0.0 0.0 0.0 0.0 0.0 0.0
0.0 0.0 0.0 0.0 0.0 0.0 0.0 0.0
0.0 0.0 0.0 0.0 0.0 0.0 0.0 0.0
0.0 0.0 0.0 0.0 0.0 0.0 0.0 0.0
0.0 0.0 0.0 0.0 0.0 0.0 0.0 0.0
0.0 0.0 0.0 0.0 0.0 0.0 0.0 0.0
0.0 0.0 0.0 0.0 0.0 0.0 0.0 0.0
0.0 0.0 0.0 0.0 0.0 0.0 0.0 0.0
0.0 0.0 0.0 0.0 0.0 0.0 0.0 0.0
0.0 0.0 0.0 0.0 0.0 0.0 0.0 0.0
0.0 0.0 0.0 0.0 0.0 0.0 0.0 0.0
0.0 0.0 0.0 0.0 0.0 0.0 0.0 0.0
0.0 0.0 0.0 0.0 0.0 0.0 0.0 0.0
0.0 0.0 0.0 0.0 0.0 0.0 0.0 0.0
0.0 0.0 0.0 0.0 0.0 0.0 0.0 0.0
0.0 0.0 0.0 0.0 0.0 0.0 0.0 0.0
0.0 0.0 0.0 0.0 0.0 0.0 0.0 0.0

model_3/dense_6/BiasAdd/ReadVariableOp f4 [128]
00000000: 65cc c83d 80d1 16bd 61d6 07be c66f dc3c
00000010: 0023 25bd f253 5b3d 07a0 89bd 2962 d53b
00000020: 51fe 5abd 6df9 80bd b443 b23d adc3 023d
00000030: 09ad 10bd 222c bb3c 11bc 45bc c5fb c2bc
00000040: b015 9c3d 460d 17bd 5c28 00be adab 0ebe
00000050: 9119 713d fdf3 a8bd da66 783d b158 753c
00000060: c276 ba3c 88c8 433b 2b6f 9cbd 3b15 9fba
00000070: baf4 0dbe 958e d3bd 299d 093c 7463 fa3c
00000080: 1f13 c93c bb15 0bbe 858a 3b3b bddf 5abd
00000090: 6c38 f8bd 6df7 a4bd 67fa 86bc 1f10 d1bd
000000a0: bc2b a3bd 6971 3bbe d34b 7b3d 2a8e 1a3c
000000b0: c585 cb3c 14fc 763d 4b1a 1dbe 5ce1 8d3d
000000c0: cac3 1c3d ed9d b2bd 94ed 3bbd e2b6 10be
000000d0: 4b45 aabd 4e6e 44be 9116 373d 4db0 9a3c
000000e0: ee6b ddbd 2966 40bd df47 44bd c7ef 573d
000000f0: 8348 b5bc da82 e5bc 91bf 2abd aebb 38bb
00000100: 8c0e dbbd afc7 dd3c c98e f2bd 4113 b7bd
00000110: 4aaf ac3d bfe9 a0bb 39d2 adbd b622 0f3d
00000120: 2e59 02be 2369 24bd 3c06 cbbc b2d8 d43c
00000130: ac06 94bd 2aa0 743d f1a0 173c da29 eb3d
00000140: f862 c83d 0c0b a8bb a253 783d 373e 923c
00000150: 1d60 2ebe 7bd8 02bb a71d 53be ab98 0f3c
00000160: 09aa 0ebe 9381 cebd 9efa 0a3d 7102 b5bd
00000170: e569 0a3d b065 27be b2c4 023d b16e db3b
00000180: 0618 f0bd ac35 02be a643 c1bc 56fe ee3c
00000190: 972f 71bd a251 383c 809a 6a3c d217 e3bc
000001a0: 140f 923c 9546 3ebe a22b a53b a5ef 94bd
000001b0: 86ad c63c 2376 a8bd 4cfe a43d 9dc9 783c
000001c0: 36da 173d c71f 8c3d 3cb5 793c 5d3d 39bd
000001d0: 906e c43c b297 cebc 4f88 14be fd1d d1bc
000001e0: 593b d9bc c7cb b5bd cf79 833d 4fc9 cabd
000001f0: ef82 843d 30a6 473d 5a73 bcbd 4ed4 63bb
0.0980461 -0.03682089 -0.13265373 0.026908766 -0.04031658 0.053546853 -0.06719976 0.0065119457
-0.05346519 -0.06297574 0.087043196 0.031924892 -0.03532127 0.022848193 -0.012068764 -0.023801694
0.07621324 -0.036877893 -0.12515396 -0.13932677 0.058862273 -0.08249662 0.060644962 0.014974759
0.022761706 0.0029874165 -0.07638391 -0.0012137064 -0.13862887 -0.1032993 0.008399286 0.030565001
0.02454525 -0.13582508 0.00286165 -0.05343603 -0.121201366 -0.08055005 -0.016476823 -0.10208153
-0.07967326 -0.18304981 0.06135161 0.009433309 0.02484406 0.060298994 -0.15342061 0.069277495
0.038272657 -0.08721528 -0.04588087 -0.14132264 -0.08313998 -0.19182703 0.044699255 0.018882895
-0.108116016 -0.046972428 -0.047920104 0.052718904 -0.022129303 -0.028016496 -0.0416866 -0.0028188038
-0.10696134 0.027072756 -0.1184364 -0.08939219 0.08431871 -0.004910677 -0.084873624 0.034945212
-0.12729332 -0.04013933 -0.024783246 0.025982235 -0.07227835 0.059723057 0.00925468 0.11482592
0.09784502 -0.00512827 0.060626633 0.017851932 -0.17028852 -0.0019965458 -0.2061678 0.008764426
-0.13932051 -0.10083308 0.033930413 -0.08838356 0.033792395 -0.16347384 0.031925865 0.006696545
-0.11723332 -0.12715787 -0.023591828 0.029174011 -0.058883276 0.0112499315 0.014319062 -0.02772132
0.017829455 -0.18581612 0.005040602 -0.07272271 0.024252664 -0.08225658 0.08056316 0.015184787
0.037073337 0.068419985 0.015240964 -0.045224536 0.023978502 -0.025218818 -0.14505123 -0.025526995
-0.026517557 -0.08876758 0.064197175 -0.09901678 0.06470286 0.048742473 -0.09201689 -0.0034763995

model_3/gru_9/zeros f4 [1, 64]
00000000: 0000 0000 0000 0000 0000 0000 0000 0000
00000010: 0000 0000 0000 0000 0000 0000 0000 0000
00000020: 0000 0000 0000 0000 0000 0000 0000 0000
00000030: 0000 0000 0000 0000 0000 0000 0000 0000
00000040: 0000 0000 0000 0000 0000 0000 0000 0000
00000050: 0000 0000 0000 0000 0000 0000 0000 0000
00000060: 0000 0000 0000 0000 0000 0000 0000 0000
00000070: 0000 0000 0000 0000 0000 0000 0000 0000
00000080: 0000 0000 0000 0000 0000 0000 0000 0000
00000090: 0000 0000 0000 0000 0000 0000 0000 0000
000000a0: 0000 0000 0000 0000 0000 0000 0000 0000
000000b0: 0000 0000 0000 0000 0000 0000 0000 0000
000000c0: 0000 0000 0000 0000 0000 0000 0000 0000
000000d0: 0000 0000 0000 0000 0000 0000 0000 0000
000000e0: 0000 0000 0000 0000 0000 0000 0000 0000
000000f0: 0000 0000 0000 0000 0000 0000 0000 0000
0.0 0.0 0.0 0.0 0.0 0.0 0.0 0.0
0.0 0.0 0.0 0.0 0.0 0.0 0.0 0.0
0.0 0.0 0.0 0.0 0.0 0.0 0.0 0.0
0.0 0.0 0.0 0.0 0.0 0.0 0.0 0.0
0.0 0.0 0.0 0.0 0.0 0.0 0.0 0.0
0.0 0.0 0.0 0.0 0.0 0.0 0.0 0.0
0.0 0.0 0.0 0.0 0.0 0.0 0.0 0.0
0.0 0.0 0.0 0.0 0.0 0.0 0.0 0.0

model_3/gru_10/zeros f4 [1, 32]
00000000: 0000 0000 0000 0000 0000 0000 0000 0000
00000010: 0000 0000 0000 0000 0000 0000 0000 0000
00000020: 0000 0000 0000 0000 0000 0000 0000 0000
00000030: 0000 0000 0000 0000 0000 0000 0000 0000
00000040: 0000 0000 0000 0000 0000 0000 0000 0000
00000050: 0000 0000 0000 0000 0000 0000 0000 0000
00000060: 0000 0000 0000 0000 0000 0000 0000 0000
00000070: 0000 0000 0000 0000 0000 0000 0000 0000
0.0 0.0 0.0 0.0 0.0 0.0 0.0 0.0
0.0 0.0 0.0 0.0 0.0 0.0 0.0 0.0
0.0 0.0 0.0 0.0 0.0 0.0 0.0 0.0
0.0 0.0 0.0 0.0 0.0 0.0 0.0 0.0

unstack f4 [96]
00000000: 22df 203f bb86 1bbd d5d9 153f 3d11 943f
00000010: 3b19 e23e 68c1 8f3e ff71 223f eb42 4b3f
00000020: 2735 ba3e aa81 663d f68e da3e 3cb4 893e
00000030: 78c5 133f 0a68 8e3e 7575 403e 124a 1b3e
00000040: a475 da3e 6b19 683f 6136 2b3e c506 903e
00000050: 5158 a33e 8d0b 5c3f 1bef 31be 2108 9c3e
00000060: 58e3 b0bd ae91 183f 00b8 123f f9e2 b1bd
00000070: bb82 0bbe 7339 713f ff26 6f3e 3a9f ea3d
00000080: 0b64 163d ec10 e6bd 7c49 183d 9e4b be3d
00000090: f817 ca3d 4e66 363d 36dc 5a3d 1d02 b03d
000000a0: f912 c4ba bf02 cb3d 5589 fc3c 929d 2abc
000000b0: b8af 8f3e de84 5b3d 793d b9bc 768c e63d
000000c0: 83b2 113e c2ae 873d 74f4 213e 160c aa3b
000000d0: 6e60 2d3d 63d1 ab3d 8530 a13e 08d5 a9bc
000000e0: 8ff4 643c ea12 963d a285 083e 08ba 553e
000000f0: 21c5 553e c63a 863e da21 9c3d e6ea 3cbd
00000100: 762c 1e3c 0952 6b3c a4cd 98bc 576a 9ebc
00000110: 2e0c 93bb c2cf cbbb 1cf0 093c 7d04 6d3d
00000120: 829f 90bc c471 08bd b1ae 723c 7c54 bfbc
00000130: 991f 713d 97e3 48ba d679 013d 34e9 bf3b
00000140: 807f acbc a3f3 203d 683f 71bc a4e9 66bc
00000150: b70b c63b d030 e7bb 7514 1a3d d2e2 553d
00000160: f448 343d 148e d73b ab03 ce3b 1630 17bd
00000170: d2a8 68bc 7cd4 b7bc f8bb 8fbc f171 213d
0.62840474 -0.037970286 0.5853551 1.1567761 0.44159874 0.28077245 0.63455194 0.79398984
0.36368677 0.056276 0.42687196 0.2689532 0.5772319 0.2781375 0.18794806 0.15164974
0.42667878 0.90663785 0.16719963 0.28130165 0.31903318 0.85955125 -0.17376368 0.30474952
-0.086371124 0.5959729 0.5731201 -0.0868587 -0.13624088 0.94228286 0.2335472 0.11456151
0.036716502 -0.11233696 0.037179455 0.092917666 0.09867853 0.04453116 0.053432666 0.08594153
-0.0014959268 0.09912633 0.030827204 -0.010413544 0.2806375 0.05359351 -0.02261232 0.112572595
0.14228253 0.06625129 0.15815908 0.005189429 0.04232829 0.08389547 0.3148233 -0.020731464
0.013974323 0.07327826 0.13332227 0.20871747 0.2087598 0.26216716 0.07623644 -0.046122454
0.009654155 0.01436282 -0.018652745 -0.019337816 -0.004487536 -0.006219835 0.008419063 0.05786561
-0.017654184 -0.03331162 0.0148121575 -0.023355715 0.058868024 -0.0007663308 0.031610332 0.0058566574
-0.02105689 0.03929485 -0.01472459 -0.01409379 0.006043877 -0.0070553795 0.037617166 0.052218266
0.044014886 0.0065782163 0.0062870583 -0.036911093 -0.014200406 -0.022440188 -0.017545685 0.039415304

unstack1 f4 [96]
00000000: 22df 203f bb86 1bbd d5d9 153f 3d11 943f
00000010: 3b19 e23e 68c1 8f3e ff71 223f eb42 4b3f
00000020: 2735 ba3e aa81 663d f68e da3e 3cb4 893e
00000030: 78c5 133f 0a68 8e3e 7575 403e 124a 1b3e
00000040: a475 da3e 6b19 683f 6136 2b3e c506 903e
00000050: 5158 a33e 8d0b 5c3f 1bef 31be 2108 9c3e
00000060: 58e3 b0bd ae91 183f 00b8 123f f9e2 b1bd
00000070: bb82 0bbe 7339 713f ff26 6f3e 3a9f ea3d
00000080: 0b64 163d ec10 e6bd 7c49 183d 9e4b be3d
00000090: f817 ca3d 4e66 363d 36dc 5a3d 1d02 b03d
000000a0: f912 c4ba bf02 cb3d 5589 fc3c 929d 2abc
000000b0: b8af 8f3e de84 5b3d 793d b9bc 768c e63d
000000c0: 83b2 113e c2ae 873d 74f4 213e 160c aa3b
000000d0: 6e60 2d3d 63d1 ab3d 8530 a13e 08d5 a9bc
000000e0: 8ff4 643c ea12 963d a285 083e 08ba 553e
000000f0: 21c5 553e c63a 863e da21 9c3d e6ea 3cbd
00000100: 5ccd e93b 8f32 6e3c b9c7 78bc aa74 8abc
00000110: 6861 2cbc 9d4b 45bb d9a4 263b d0b1 683d
00000120: 98d4 ebbc bd77 fabc ee4f 523c 146e e5bc
00000130: 111e 4f3d 92be 56bc d496 213d 1430 223b
00000140: f372 f2bc 741a d53c 4bfb 85bb 7c76 65bc
00000150: a625 c13b 5ddd 3abb 3d3d d83c b0ac 873d
00000160: 6a78 573d 6c6a 663b beee 063c 932c 17bd
00000170: 1c02 33bc cc50 aebc 58b2 a6bc 5605 5a3d
0.62840474 -0.037970286 0.5853551 1.1567761 0.44159874 0.28077245 0.63455194 0.79398984
0.36368677 0.056276 0.42687196 0.2689532 0.5772319 0.2781375 0.18794806 0.15164974
0.42667878 0.90663785 0.16719963 0.28130165 0.31903318 0.85955125 -0.17376368 0.30474952
-0.086371124 0.5959729 0.5731201 -0.0868587 -0.13624088 0.94228286 0.2335472 0.11456151
0.036716502 -0.11233696 0.037179455 0.092917666 0.09867853 0.04453116 0.053432666 0.08594153
-0.0014959268 0.09912633 0.030827204 -0.010413544 0.2806375 0.05359351 -0.02261232 0.112572595
0.14228253 0.06625129 0.15815908 0.005189429 0.04232829 0.08389547 0.3148233 -0.020731464
0.013974323 0.07327826 0.13332227 0.20871747 0.2087598 0.26216716 0.07623644 -0.046122454
0.0071350764 0.014538421 -0.015184336 -0.016901333 -0.01052127 -0.0030104883 0.0025427847 0.0568102
-0.028787896 -0.030574674 0.01283644 -0.02800659 0.050565783 -0.013106959 0.03945048 0.0024747895
-0.029595828 0.02601359 -0.0040887943 -0.0140053 0.0058943806 -0.002851329 0.026396388 0.066247344
0.05260507 0.0035158647 0.0082356315 -0.036907744 -0.010925796 -0.021278761 -0.020348713 0.053227745

unstack2 f4 [192]
00000000: 2f67 b83b ea0d bc3d d1e4 a53e b456 0a3e
00000010: 5841 0e3e eee3 11be ac16 07bf af49 12be
00000020: 0c70 9e3d c5ff 1cbc 76f0 d7bd 5436 45be
00000030: 6700 ebbd bd00 103e f7bd 0dbd 9296 8abe
00000040: d365 373d fcf5 12be a3f8 973d f798 9d3b
00000050: d985 a1bd 8d6e c53d d973 eb3d 241c c9bd
00000060: 47ca b2bd a6ab ef3d 3c37 27be 8807 60be
00000070: e264 38be f1a8 8f3d e42f 9c3d 6ada 6cbe
00000080: 4e24 6d3e dee8 27be c5d1 dbbd 2361 753e
00000090: 6846 8fbd 6034 1d3e b8a4 133d ecd8 043e
000000a0: 0de0 5f3e 4401 663d a62e 0cbe a183 96be
000000b0: 10b3 55be b995 fd3e fb7f dc3e f448 733d
000000c0: aa4b 8ebe 551c 71bd e3bf 863e c185 88bc
000000d0: e8aa c8bd 56cd ddbe e7ac 0bbe f3d8 a2bc
000000e0: da79 443e ceed 49be 090e c03d 99fb 0a3d
000000f0: 7a48 383c 3cc6 0fbe 432a f4bc f9f2 95be
00000100: eb90 6b3d d6cf 263e f1a5 15be 315f b73d
00000110: 3da1 a5bd 4ec5 babd d8e1 5a3d 90f4 4c3d
00000120: f65c b7bd 787b 3c3c 55d4 1dbd aeeb 283c
00000130: 847a 443c 71b3 0ebe 7689 81bc 33e3 8e3c
00000140: a02b 89bd 8041 383c ce9b 6dbd 8047 b5bb
00000150: 59c0 993e 7043 91bd 3d7c 4fbe 8d59 5ebe
00000160: ea12 4f3e a0e0 c03c 4cc5 37be 4a11 7cbe
00000170: 2c7b e33d 8251 65bd c8fc c3bd cff8 1bbe
00000180: 56cc 3fbd 2c2a 363d 8151 d43d 7cde 16be
00000190: 6946 11bb b6c8 99be 3682 933d 7c4d 02be
000001a0: d9fa e93d 4e20 8d3d b30a bcbc a10f ee3d
000001b0: 2d0a 85bd 358a f83d 6271 683d c461 88bc
000001c0: 8f35 f73b 95f7 f8bc 730f b0bd 7a64 12bc
000001d0: 8b5f de3c c061 ebbd e4ea 52bc 878e 83bd
000001e0: 6141 c53c fcbe 2cbd 3f6a 6b3d 4bfb a43d
000001f0: de53 34bd 5262 233e efcb 2fbd 1f3a 9d3c
00000200: 3668 34bb 45aa af3b c231 32bb 3d6d 3e3b
00000210: befe e0bb dcb9 26bb 47ad 50b9 03b9 5cbb
00000220: b481 c6b8 7d64 d63a 7cd3 563b 7421 6d3b
00000230: a096 073b 3f89 873a c56d 33ba f910 b53b
00000240: 6f09 3a39 25a0 0dba 25d1 953c c963 cb3a
00000250: 0d8a 52bc 1581 4db9 f2fb f43a ca51 e3ba
00000260: e454 5f3b 43f7 eebb 8a46 b8ba 7205 0bbb
00000270: da0b c63a 8e10 b0bb 84f0 56b9 942f 123b
00000280: 8323 23bb 0981 543b bdf8 17bc 53b9 88bb
00000290: 24cb 663a 993c 243b 32d5 df3a 25c8 f53b
000002a0: c0d5 56bc ee89 e83a c7e1 cbba 106c 94ba
000002b0: ad26 bbbb baa0 b8ba ecd6 61bb 4b56 553b
000002c0: e675 a539 b6b7 273b 0c89 e93b fd63 4b3b
000002d0: cb5c 8d3b b88c f7b8 e555 64bb 12d5 34bb
000002e0: 084b 62bb f6a6 d23a dc2d 073c 8274 59ba
000002f0: 2e2e ebbb d33f 22bb ac4d 6ebb 5cc4 d43a
0.005627535 0.091823414 0.32401136 0.13509637 0.13892114 -0.14247105 -0.5276897 -0.1428592
0.07736215 -0.009582465 -0.10543911 -0.19259006 -0.11474686 0.14062782 -0.034604993 -0.27068
0.04477484 -0.14351648 0.074204706 0.0048094946 -0.078868575 0.096402265 0.114967056 -0.098198205
-0.087299876 0.11702661 -0.16329664 -0.21877873 -0.18007234 0.07014645 0.07626322 -0.23130193
0.2315838 -0.16397426 -0.1073337 0.23962836 -0.06995851 0.1535201 0.03604576 0.12973374
0.21862812 0.05615355 -0.1368967 -0.293973 -0.20869088 0.49528292 0.4306639 0.059395745
-0.27792102 -0.05886491 0.26318273 -0.016665341 -0.09798223 -0.4332072 -0.13640176 -0.01987884
0.19187108 -0.19719622 0.09377677 0.03393135 0.0112477485 -0.14040464 -0.029805308 -0.29286936
0.05751125 0.1629022 -0.14614083 0.08953703 -0.080873944 -0.09119664 0.053438038 0.05003792
-0.08953278 0.011504047 -0.038532574 0.010310097 0.011992101 -0.13935639 -0.015812617 0.017442321
-0.06697774 0.011246085 -0.058009915 -0.005532205 0.30029562 -0.07092941 -0.20262237 -0.21713848
0.20222059 0.02354461 -0.17946357 -0.2461597 0.111074775 -0.055985935 -0.095696986 -0.15231632
-0.04682573 0.044473812 0.10367108 -0.14733309 -0.0022167212 -0.30035943 0.0720257 -0.1272487
0.114247985 0.06890927 -0.02295432 0.11624075 -0.064960815 0.12135736 0.056748755 -0.01664818
0.0075442265 -0.030391494 -0.08596697 -0.008935088 0.027145168 -0.11493254 -0.012873385 -0.06423669
0.024079027 -0.042174324 0.05747437 0.08055743 -0.044025294 0.15955475 -0.042919096 0.019192753
-0.0027527935 0.005360874 -0.0027190302 0.002905681 -0.006866305 -0.002544037 -0.00019900977 -0.0033679612
-9.465535e-05 0.0016356852 0.0032779863 0.003618327 0.0020689145 0.0010340585 -0.0006844665 0.005525705
0.00017741857 -0.00054025865 0.018288204 0.0015517409 -0.012850297 -0.0001959841 0.0018690808 -0.0017343101
0.0034077698 -0.0072926595 -0.0014059108 -0.0021212962 0.0015109733 -0.005373067 -0.0002049823 0.002230619
-0.0024892993 0.0032425544 -0.009275612 -0.004172483 0.0008804074 0.0025060533 0.0017077087 0.0075006657
-0.013112485 0.0017741302 -0.0015554958 -0.0011323709 -0.0057113976 -0.0014085986 -0.0034460379 0.0032552655
0.00031559094 0.0025591678 0.007126933 0.003103494 0.0043140403 -0.00011804089 -0.0034841236 -0.002759282
-0.0034529585 0.0016071487 0.00825068 -0.0008295254 -0.007177136 -0.002475728 -0.0036362214 0.0016232836

unstack3 f4 [192]
00000000: 2f67 b83b ea0d bc3d d1e4 a53e b456 0a3e
00000010: 5841 0e3e eee3 11be ac16 07bf af49 12be
00000020: 0c70 9e3d c5ff 1cbc 76f0 d7bd 5436 45be
00000030: 6700 ebbd bd00 103e f7bd 0dbd 9296 8abe
00000040: d365 373d fcf5 12be a3f8 973d f798 9d3b
00000050: d985 a1bd 8d6e c53d d973 eb3d 241c c9bd
00000060: 47ca b2bd a6ab ef3d 3c37 27be 8807 60be
00000070: e264 38be f1a8 8f3d e42f 9c3d 6ada 6cbe
00000080: 4e24 6d3e dee8 27be c5d1 dbbd 2361 753e
00000090: 6846 8fbd 6034 1d3e b8a4 133d ecd8 043e
000000a0: 0de0 5f3e 4401 663d a62e 0cbe a183 96be
000000b0: 10b3 55be b995 fd3e fb7f dc3e f448 733d
000000c0: aa4b 8ebe 551c 71bd e3bf 863e c185 88bc
000000d0: e8aa c8bd 56cd ddbe e7ac 0bbe f3d8 a2bc
000000e0: da79 443e ceed 49be 090e c03d 99fb 0a3d
000000f0: 7a48 383c 3cc6 0fbe 432a f4bc f9f2 95be
00000100: eb90 6b3d d6cf 263e f1a5 15be 315f b73d
00000110: 3da1 a5bd 4ec5 babd d8e1 5a3d 90f4 4c3d
00000120: f65c b7bd 787b 3c3c 55d4 1dbd aeeb 283c
00000130: 847a 443c 71b3 0ebe 7689 81bc 33e3 8e3c
00000140: a02b 89bd 8041 383c ce9b 6dbd 8047 b5bb
00000150: 59c0 993e 7043 91bd 3d7c 4fbe 8d59 5ebe
00000160: ea12 4f3e a0e0 c03c 4cc5 37be 4a11 7cbe
00000170: 2c7b e33d 8251 65bd c8fc c3bd cff8 1bbe
00000180: 56cc 3fbd 2c2a 363d 8151 d43d 7cde 16be
00000190: 6946 11bb b6c8 99be 3682 933d 7c4d 02be
000001a0: d9fa e93d 4e20 8d3d b30a bcbc a10f ee3d
000001b0: 2d0a 85bd 358a f83d 6271 683d c461 88bc
000001c0: 8f35 f73b 95f7 f8bc 730f b0bd 7a64 12bc
000001d0: 8b5f de3c c061 ebbd e4ea 52bc 878e 83bd
000001e0: 6141 c53c fcbe 2cbd 3f6a 6b3d 4bfb a43d
000001f0: de53 34bd 5262 233e efcb 2fbd 1f3a 9d3c
00000200: cfab dbb8 041e 53bb bf0c f0ba b059 56bb
00000210: fa1d f3ba fa20 d2bb 09ec d43a 5efb e6ba
00000220: 7fa0 943a 597c 97ba 1a2e 30ba 1bff 23ba
00000230: 1e66 47ba ea41 b6ba ebe8 df39 07e7 51bb
00000240: 9739 883a ebf2 4a3a d74b 01bc 72ce 3abb
00000250: f855 fdbb 271f 1d39 68df 44ba 955f 3638
00000260: 8349 c0bb b5bb d13b 488e a83b 7d15 afba
00000270: 331c 86bb 4c1a b0ba cbc2 ab3a 4253 bcba
00000280: c4e0 773a c04a 463b 5d7b 77ba 3038 f63a
00000290: bd4e ea39 205b 9639 4184 4b3b 3d6f e7ba
000002a0: e07d beba fb96 b53b 9fa0 aeb6 8af5 73ba
000002b0: cb73 dcbb 0f42 90bb 2e78 72bb 938e 55bb
000002c0: 9cb2 8f3a a560 513b 8a2a 2f3a ae0d bd38
000002d0: 885b bc3a 8103 49ba c53f a638 727d a33a
000002e0: 0447 9739 c4be 13b9 975c 3eba dc98 fe3a
000002f0: 2ad3 a1bb 2d3a 8db9 6e9e 823a 05bf 5839
0.005627535 0.091823414 0.32401136 0.13509637 0.13892114 -0.14247105 -0.5276897 -0.1428592
0.07736215 -0.009582465 -0.10543911 -0.19259006 -0.11474686 0.14062782 -0.034604993 -0.27068
0.04477484 -0.14351648 0.074204706 0.0048094946 -0.078868575 0.096402265 0.114967056 -0.098198205
-0.087299876 0.11702661 -0.16329664 -0.21877873 -0.18007234 0.07014645 0.07626322 -0.23130193
0.2315838 -0.16397426 -0.1073337 0.23962836 -0.06995851 0.1535201 0.03604576 0.12973374
0.21862812 0.05615355 -0.1368967 -0.293973 -0.20869088 0.49528292 0.4306639 0.059395745
-0.27792102 -0.05886491 0.26318273 -0.016665341 -0.09798223 -0.4332072 -0.13640176 -0.01987884
0.19187108 -0.19719622 0.09377677 0.03393135 0.0112477485 -0.14040464 -0.029805308 -0.29286936
0.05751125 0.1629022 -0.14614083 0.08953703 -0.080873944 -0.09119664 0.053438038 0.05003792
-0.08953278 0.011504047 -0.038532574 0.010310097 0.011992101 -0.13935639 -0.015812617 0.017442321
-0.06697774 0.011246085 -0.058009915 -0.005532205 0.30029562 -0.07092941 -0.20262237 -0.21713848
0.20222059 0.02354461 -0.17946357 -0.2461597 0.111074775 -0.055985935 -0.095696986 -0.15231632
-0.04682573 0.044473812 0.10367108 -0.14733309 -0.0022167212 -0.30035943 0.0720257 -0.1272487
0.114247985 0.06890927 -0.02295432 0.11624075 -0.064960815 0.12135736 0.056748755 -0.01664818
0.0075442265 -0.030391494 -0.08596697 -0.008935088 0.027145168 -0.11493254 -0.012873385 -0.06423669
0.024079027 -0.042174324 0.05747437 0.08055743 -0.044025294 0.15955475 -0.042919096 0.019192753
-0.000104747356 -0.0032213936 -0.0018314346 -0.0032707267 -0.0018548362 -0.0064126225 0.001624466 -0.0017622521
0.0011339335 -0.0011557444 -0.0006720737 -0.000625597 -0.0007606464 -0.0013905142 0.00042707412 -0.0032028572
0.001039314 0.0007741886 -0.007891617 -0.0028504399 -0.0077311955 0.00014984292 -0.0007510097 4.34812e-05
-0.0058681383 0.0064005502 0.0051439144 -0.0013357844 -0.004092717 -0.0013435571 0.0013104317 -0.0014368074
0.0009455795 0.0030256957 -0.0009440685 0.0018785056 0.00044690623 0.00028678123 0.0031054171 -0.0017657053
-0.0014533363 0.00554168 -5.204303e-06 -0.00093063025 -0.006727671 -0.004402406 -0.0036997902 -0.0032586202
0.0010963264 0.0031948474 0.0006682059 9.01477e-05 0.001437054 -0.00076680636 7.927375e-05 0.0012473299
0.00028853875 -0.00014090078 -0.0007261722 0.0019424218 -0.004938503 -0.0002693696 0.0009965429 0.00020670526

model_3/dense_6/MatMul i1 [128, 32] scale=0.0035277666 zero_point=0
00000000: ebe8 eade 1c1f 16de 0606 03df f906 3d06
00000010: e9bd ba13 f9fc 2e3b 50e6 3811 f2d8 cdf9
00000020: e6e3 214b 13b9 1ebf 15fd 3ff0 d9d2 fc16
00000030: 04f8 c2f6 fb17 f4da 0db3 24fe 4430 ea35
00000040: 24f2 7fec f105 e3f8 da1b 0016 0b00 e2dd
00000050: 0313 08cc 20d3 00e9 cedf f613 04e8 1cb8
00000060: c605 ffef f6ca d210 faf5 0623 17ef 4933
00000070: 29e0 c50b 22f3 2515 20e9 0c0e c6da cb34
00000080: 25ea ee1d f719 28ec 29f5 0df3 0208 3c09
00000090: 2f23 1ec4 29db c73d 14dc 063a 3ddd d31b
000000a0: f615 0dc7 d6db e704 0f0f ff2a f73d ea03
000000b0: 1b11 e5d7 e618 d633 52d0 5b47 dbef 3032
000000c0: 0dd5 d761 ddf8 e7ea d9d7 fa23 0be3 0602
000000d0: e5d9 d806 28e6 29f7 bd23 f22b cd5c e8cf
000000e0: c350 ebfc e4e5 c225 f20b 211d 130c 2ef7
000000f0: d0f6 0ef8 2600 ff1f 3b02 ff20 cdff 2537
-0.0740831 -0.0846664 -0.077610865 -0.119944066 0.098777466 0.10936076 0.077610865 -0.119944066
0.0211666 0.0211666 0.0105833 -0.1164163 -0.024694366 0.0211666 0.21519376 0.0211666
-0.08113863 -0.23636036 -0.24694365 0.06702756 -0.024694366 -0.014111066 0.16227727 0.20813823
0.28222132 -0.09172193 0.19755493 0.059972033 -0.049388733 -0.14111066 -0.1799161 -0.024694366
-0.09172193 -0.10230523 0.1164163 0.26458248 0.06702756 -0.2504714 0.105832994 -0.22930482
0.0740831 -0.0105833 0.2222493 -0.056444265 -0.1375829 -0.16227727 -0.014111066 0.077610865
0.014111066 -0.028222132 -0.21872152 -0.035277665 -0.017638832 0.08113863 -0.0423332 -0.13405512
0.045860965 -0.27163804 0.1269996 -0.007055533 0.23988813 0.1693328 -0.077610865 0.18697163
0.1269996 -0.049388733 0.44802636 -0.07055533 -0.052916497 0.017638832 -0.10230523 -0.028222132
-0.13405512 0.0952497 0.0 0.077610865 0.038805433 0.0 -0.105832994 -0.12347183
0.0105833 0.06702756 0.028222132 -0.18344386 0.11288853 -0.15874949 0.0 -0.08113863
-0.17638832 -0.1164163 -0.035277665 0.06702756 0.014111066 -0.0846664 0.098777466 -0.2539992
-0.20461047 0.017638832 -0.0035277666 -0.059972033 -0.035277665 -0.1904994 -0.16227727 0.056444265
-0.0211666 -0.038805433 0.0211666 0.12347183 0.08113863 -0.059972033 0.25752696 0.1799161
0.14463843 -0.11288853 -0.20813823 0.038805433 0.119944066 -0.045860965 0.13052736 0.0740831
0.11288853 -0.08113863 0.0423332 0.049388733 -0.20461047 -0.13405512 -0.18697163 0.18344386
0.13052736 -0.077610865 -0.0634998 0.10230523 -0.0317499 0.08819416 0.14111066 -0.07055533
0.14463843 -0.038805433 0.045860965 -0.045860965 0.007055533 0.028222132 0.21166599 0.0317499
0.16580503 0.12347183 0.105832994 -0.21166599 0.14463843 -0.13052736 -0.20108269 0.21519376
0.07055533 -0.1269996 0.0211666 0.20461047 0.21519376 -0.12347183 -0.15874949 0.0952497
-0.035277665 0.0740831 0.045860965 -0.20108269 -0.1481662 -0.13052736 -0.08819416 0.014111066
0.052916497 0.052916497 -0.0035277666 0.1481662 -0.0317499 0.21519376 -0.077610865 0.0105833
0.0952497 0.059972033 -0.0952497 -0.14463843 -0.09172193 0.0846664 -0.1481662 0.1799161
0.28927687 -0.1693328 0.32102674 0.2504714 -0.13052736 -0.059972033 0.1693328 0.17638832
0.045860965 -0.15169396 -0.14463843 0.34219337 -0.12347183 -0.028222132 -0.08819416 -0.077610865
-0.1375829 -0.14463843 -0.0211666 0.12347183 0.038805433 -0.10230523 0.0211666 0.007055533
-0.0952497 -0.1375829 -0.14111066 0.0211666 0.14111066 -0.09172193 0.14463843 -0.0317499
-0.23636036 0.12347183 -0.049388733 0.15169396 -0.1799161 0.32455453 -0.0846664 -0.17286056
-0.21519376 0.28222132 -0.0740831 -0.014111066 -0.098777466 -0.0952497 -0.21872152 0.13052736
-0.049388733 0.038805433 0.1164163 0.10230523 0.06702756 0.0423332 0.16227727 -0.0317499
-0.1693328 -0.035277665 0.049388733 -0.028222132 0.13405512 0.0 -0.0035277666 0.10936076
0.20813823 0.007055533 -0.0035277666 0.11288853 -0.1799161 -0.0035277666 0.13052736 0.19402716

unstack4 f4 [192]
00000000: 2f67 b83b ea0d bc3d d1e4 a53e b456 0a3e
00000010: 5841 0e3e eee3 11be ac16 07bf af49 12be
00000020: 0c70 9e3d c5ff 1cbc 76f0 d7bd 5436 45be
00000030: 6700 ebbd bd00 103e f7bd 0dbd 9296 8abe
00000040: d365 373d fcf5 12be a3f8 973d f798 9d3b
00000050: d985 a1bd 8d6e c53d d973 eb3d 241c c9bd
00000060: 47ca b2bd a6ab ef3d 3c37 27be 8807 60be
00000070: e264 38be f1a8 8f3d e42f 9c3d 6ada 6cbe
00000080: 4e24 6d3e dee8 27be c5d1 dbbd 2361 753e
00000090: 6846 8fbd 6034 1d3e b8a4 133d ecd8 043e
000000a0: 0de0 5f3e 4401 663d a62e 0cbe a183 96be
000000b0: 10b3 55be b995 fd3e fb7f dc3e f448 733d
000000c0: aa4b 8ebe 551c 71bd e3bf 863e c185 88bc
000000d0: e8aa c8bd 56cd ddbe e7ac 0bbe f3d8 a2bc
000000e0: da79 443e ceed 49be 090e c03d 99fb 0a3d
000000f0: 7a48 383c 3cc6 0fbe 432a f4bc f9f2 95be
00000100: eb90 6b3d d6cf 263e f1a5 15be 315f b73d
00000110: 3da1 a5bd 4ec5 babd d8e1 5a3d 90f4 4c3d
00000120: f65c b7bd 787b 3c3c 55d4 1dbd aeeb 283c
00000130: 847a 443c 71b3 0ebe 7689 81bc 33e3 8e3c
00000140: a02b 89bd 8041 383c ce9b 6dbd 8047 b5bb
00000150: 59c0 993e 7043 91bd 3d7c 4fbe 8d59 5ebe
00000160: ea12 4f3e a0e0 c03c 4cc5 37be 4a11 7cbe
00000170: 2c7b e33d 8251 65bd c8fc c3bd cff8 1bbe
00000180: 56cc 3fbd 2c2a 363d 8151 d43d 7cde 16be
00000190: 6946 11bb b6c8 99be 3682 933d 7c4d 02be
000001a0: d9fa e93d 4e20 8d3d b30a bcbc a10f ee3d
000001b0: 2d0a 85bd 358a f83d 6271 683d c461 88bc
000001c0: 8f35 f73b 95f7 f8bc 730f b0bd 7a64 12bc
000001d0: 8b5f de3c c061 ebbd e4ea 52bc 878e 83bd
000001e0: 6141 c53c fcbe 2cbd 3f6a 6b3d 4bfb a43d
000001f0: de53 34bd 5262 233e efcb 2fbd 1f3a 9d3c
00000200: cfab dbb8 041e 53bb bf0c f0ba b059 56bb
00000210: fa1d f3ba fa20 d2bb 09ec d43a 5efb e6ba
00000220: 7fa0 943a 597c 97ba 1a2e 30ba 1bff 23ba
00000230: 1e66 47ba ea41 b6ba ebe8 df39 07e7 51bb
00000240: 9739 883a ebf2 4a3a d74b 01bc 72ce 3abb
00000250: f855 fdbb 271f 1d39 68df 44ba 955f 3638
00000260: 8349 c0bb b5bb d13b 488e a83b 7d15 afba
00000270: 331c 86bb 4c1a b0ba cbc2 ab3a 4253 bcba
00000280: c4e0 773a c04a 463b 5d7b 77ba 3038 f63a
00000290: bd4e ea39 205b 9639 4184 4b3b 3d6f e7ba
000002a0: e07d beba fb96 b53b 9fa0 aeb6 8af5 73ba
000002b0: cb73 dcbb 0f42 90bb 2e78 72bb 938e 55bb
000002c0: 9cb2 8f3a a560 513b 8a2a 2f3a ae0d bd38
000002d0: 885b bc3a 8103 49ba c53f a638 727d a33a
000002e0: 0447 9739 c4be 13b9 975c 3eba dc98 fe3a
000002f0: 2ad3 a1bb 2d3a 8db9 6e9e 823a 05bf 5839
0.005627535 0.091823414 0.32401136 0.13509637 0.13892114 -0.14247105 -0.5276897 -0.1428592
0.07736215 -0.009582465 -0.10543911 -0.19259006 -0.11474686 0.14062782 -0.034604993 -0.27068
0.04477484 -0.14351648 0.074204706 0.0048094946 -0.078868575 0.096402265 0.114967056 -0.098198205
-0.087299876 0.11702661 -0.16329664 -0.21877873 -0.18007234 0.07014645 0.07626322 -0.23130193
0.2315838 -0.16397426 -0.1073337 0.23962836 -0.06995851 0.1535201 0.03604576 0.12973374
0.21862812 0.05615355 -0.1368967 -0.293973 -0.20869088 0.49528292 0.4306639 0.059395745
-0.27792102 -0.05886491 0.26318273 -0.016665341 -0.09798223 -0.4332072 -0.13640176 -0.01987884
0.19187108 -0.19719622 0.09377677 0.03393135 0.0112477485 -0.14040464 -0.029805308 -0.29286936
0.05751125 0.1629022 -0.14614083 0.08953703 -0.080873944 -0.09119664 0.053438038 0.05003792
-0.08953278 0.011504047 -0.038532574 0.010310097 0.011992101 -0.13935639 -0.015812617 0.017442321
-0.06697774 0.011246085 -0.058009915 -0.005532205 0.30029562 -0.07092941 -0.20262237 -0.21713848
0.20222059 0.02354461 -0.17946357 -0.2461597 0.111074775 -0.055985935 -0.095696986 -0.15231632
-0.04682573 0.044473812 0.10367108 -0.14733309 -0.0022167212 -0.30035943 0.0720257 -0.1272487
0.114247985 0.06890927 -0.02295432 0.11624075 -0.064960815 0.12135736 0.056748755 -0.01664818
0.0075442265 -0.030391494 -0.08596697 -0.008935088 0.027145168 -0.11493254 -0.012873385 -0.06423669
0.024079027 -0.042174324 0.05747437 0.08055743 -0.044025294 0.15955475 -0.042919096 0.019192753
-0.000104747356 -0.0032213936 -0.0018314346 -0.0032707267 -0.0018548362 -0.0064126225 0.001624466 -0.0017622521
0.0011339335 -0.0011557444 -0.0006720737 -0.000625597 -0.0007606464 -0.0013905142 0.00042707412 -0.0032028572
0.001039314 0.0007741886 -0.007891617 -0.0028504399 -0.0077311955 0.00014984292 -0.0007510097 4.34812e-05
-0.0058681383 0.0064005502 0.0051439144 -0.0013357844 -0.004092717 -0.0013435571 0.0013104317 -0.0014368074
0.0009455795 0.0030256957 -0.0009440685 0.0018785056 0.00044690623 0.00028678123 0.0031054171 -0.0017657053
-0.0014533363 0.00554168 -5.204303e-06 -0.00093063025 -0.006727671 -0.004402406 -0.0036997902 -0.0032586202
0.0010963264 0.0031948474 0.0006682059 9.01477e-05 0.001437054 -0.00076680636 7.927375e-05 0.0012473299
0.00028853875 -0.00014090078 -0.0007261722 0.0019424218 -0.004938503 -0.0002693696 0.0009965429 0.00020670526

unstack5 f4 [192]
00000000: 2f67 b83b ea0d bc3d d1e4 a53e b456 0a3e
00000010: 5841 0e3e eee3 11be ac16 07bf af49 12be
00000020: 0c70 9e3d c5ff 1cbc 76f0 d7bd 5436 45be
00000030: 6700 ebbd bd00 103e f7bd 0dbd 9296 8abe
00000040: d365 373d fcf5 12be a3f8 973d f798 9d3b
00000050: d985 a1bd 8d6e c53d d973 eb3d 241c c9bd
00000060: 47ca b2bd a6ab ef3d 3c37 27be 8807 60be
00000070: e264 38be f1a8 8f3d e42f 9c3d 6ada 6cbe
00000080: 4e24 6d3e dee8 27be c5d1 dbbd 2361 753e
00000090: 6846 8fbd 6034 1d3e b8a4 133d ecd8 043e
000000a0: 0de0 5f3e 4401 663d a62e 0cbe a183 96be
000000b0: 10b3 55be b995 fd3e fb7f dc3e f448 733d
000000c0: aa4b 8ebe 551c 71bd e3bf 863e c185 88bc
000000d0: e8aa c8bd 56cd ddbe e7ac 0bbe f3d8 a2bc
000000e0: da79 443e ceed 49be 090e c03d 99fb 0a3d
000000f0: 7a48 383c 3cc6 0fbe 432a f4bc f9f2 95be
00000100: eb90 6b3d d6cf 263e f1a5 15be 315f b73d
00000110: 3da1 a5bd 4ec5 babd d8e1 5a3d 90f4 4c3d
00000120: f65c b7bd 787b 3c3c 55d4 1dbd aeeb 283c
00000130: 847a 443c 71b3 0ebe 7689 81bc 33e3 8e3c
00000140: a02b 89bd 8041 383c ce9b 6dbd 8047 b5bb
00000150: 59c0 993e 7043 91bd 3d7c 4fbe 8d59 5ebe
00000160: ea12 4f3e a0e0 c03c 4cc5 37be 4a11 7cbe
00000170: 2c7b e33d 8251 65bd c8fc c3bd cff8 1bbe
00000180: 56cc 3fbd 2c2a 363d 8151 d43d 7cde 16be
00000190: 6946 11bb b6c8 99be 3682 933d 7c4d 02be
000001a0: d9fa e93d 4e20 8d3d b30a bcbc a10f ee3d
000001b0: 2d0a 85bd 358a f83d 6271 683d c461 88bc
000001c0: 8f35 f73b 95f7 f8bc 730f b0bd 7a64 12bc
000001d0: 8b5f de3c c061 ebbd e4ea 52bc 878e 83bd
000001e0: 6141 c53c fcbe 2cbd 3f6a 6b3d 4bfb a43d
000001f0: de53 34bd 5262 233e efcb 2fbd 1f3a 9d3c
00000200: 3668 34bb 45aa af3b c231 32bb 3d6d 3e3b
00000210: befe e0bb dcb9 26bb 47ad 50b9 03b9 5cbb
00000220: b481 c6b8 7d64 d63a 7cd3 563b 7421 6d3b
00000230: a096 073b 3f89 873a c56d 33ba f910 b53b
00000240: 6f09 3a39 25a0 0dba 25d1 953c c963 cb3a
00000250: 0d8a 52bc 1581 4db9 f2fb f43a ca51 e3ba
00000260: e454 5f3b 43f7 eebb 8a46 b8ba 7205 0bbb
00000270: da0b c63a 8e10 b0bb 84f0 56b9 942f 123b
00000280: 8323 23bb 0981 543b bdf8 17bc 53b9 88bb
00000290: 24cb 663a 993c 243b 32d5 df3a 25c8 f53b
000002a0: c0d5 56bc ee89 e83a c7e1 cbba 106c 94ba
000002b0: ad26 bbbb baa0 b8ba ecd6 61bb 4b56 553b
000002c0: e675 a539 b6b7 273b 0c89 e93b fd63 4b3b
000002d0: cb5c 8d3b b88c f7b8 e555 64bb 12d5 34bb
000002e0: 084b 62bb f6a6 d23a dc2d 073c 8274 59ba
000002f0: 2e2e ebbb d33f 22bb ac4d 6ebb 5cc4 d43a
0.005627535 0.091823414 0.32401136 0.13509637 0.13892114 -0.14247105 -0.5276897 -0.1428592
0.07736215 -0.009582465 -0.10543911 -0.19259006 -0.11474686 0.14062782 -0.034604993 -0.27068
0.04477484 -0.14351648 0.074204706 0.0048094946 -0.078868575 0.096402265 0.114967056 -0.098198205
-0.087299876 0.11702661 -0.16329664 -0.21877873 -0.18007234 0.07014645 0.07626322 -0.23130193
0.2315838 -0.16397426 -0.1073337 0.23962836 -0.06995851 0.1535201 0.03604576 0.12973374
0.21862812 0.05615355 -0.1368967 -0.293973 -0.20869088 0.49528292 0.4306639 0.059395745
-0.27792102 -0.05886491 0.26318273 -0.016665341 -0.09798223 -0.4332072 -0.13640176 -0.01987884
0.19187108 -0.19719622 0.09377677 0.03393135 0.0112477485 -0.14040464 -0.029805308 -0.29286936
0.05751125 0.1629022 -0.14614083 0.08953703 -0.080873944 -0.09119664 0.053438038 0.05003792
-0.08953278 0.011504047 -0.038532574 0.010310097 0.011992101 -0.13935639 -0.015812617 0.017442321
-0.06697774 0.011246085 -0.058009915 -0.005532205 0.30029562 -0.07092941 -0.20262237 -0.21713848
0.20222059 0.02354461 -0.17946357 -0.2461597 0.111074775 -0.055985935 -0.095696986 -0.15231632
-0.04682573 0.044473812 0.10367108 -0.14733309 -0.0022167212 -0.30035943 0.0720257 -0.1272487
0.114247985 0.06890927 -0.02295432 0.11624075 -0.064960815 0.12135736 0.056748755 -0.01664818
0.0075442265 -0.030391494 -0.08596697 -0.008935088 0.027145168 -0.11493254 -0.012873385 -0.06423669
0.024079027 -0.042174324 0.05747437 0.08055743 -0.044025294 0.15955475 -0.042919096 0.019192753
-0.0027527935 0.005360874 -0.0027190302 0.002905681 -0.006866305 -0.002544037 -0.00019900977 -0.0033679612
-9.465535e-05 0.0016356852 0.0032779863 0.003618327 0.0020689145 0.0010340585 -0.0006844665 0.005525705
0.00017741857 -0.00054025865 0.018288204 0.0015517409 -0.012850297 -0.0001959841 0.0018690808 -0.0017343101
0.0034077698 -0.0072926595 -0.0014059108 -0.0021212962 0.0015109733 -0.005373067 -0.0002049823 0.002230619
-0.0024892993 0.0032425544 -0.009275612 -0.004172483 0.0008804074 0.0025060533 0.0017077087 0.0075006657
-0.013112485 0.0017741302 -0.0015554958 -0.0011323709 -0.0057113976 -0.0014085986 -0.0034460379 0.0032552655
0.00031559094 0.0025591678 0.007126933 0.003103494 0.0043140403 -0.00011804089 -0.0034841236 -0.002759282
-0.0034529585 0.0016071487 0.00825068 -0.0008295254 -0.007177136 -0.002475728 -0.0036362214 0.0016232836

while/MatMul_1 i1 [192, 64] scale=0.0062352363 zero_point=0
00000000: 0bf9 fc04 0b11 e5e6 2103 ee1e fb0c 0a05
00000010: db31 f0ff f018 1104 f8f8 001c 0cfb f914
00000020: 0707 ef1e d0e6 eefb fc18 090b dd10 f618
00000030: 0fe1 edf7 e70f ff2f 06fd fffa ee07 d907
00000040: 0945 07de 2c1f 282b 182a e80d e647 d839
00000050: d4fe 05ef f116 dbfb 3ce6 f4ea 0025 0f04
00000060: 5cf9 2e15 ea2c 04ee 08d6 efe0 de28 0ffa
00000070: 03ec c1f5 1e01 e739 e511 2623 da1d ed12
00000080: 08e9 100b 12da 010e 180b fcee 0ecf ec06
00000090: 160f e5dc f2fa 24dc e1fb 1113 e715 09e5
000000a0: e0e6 e700 19db d0ea 02fa 14e4 ee17 eedb
000000b0: e62b 09e3 e41d e31f 25eb f325 e1d0 e8e8
000000c0: d3e0 1b47 1fe3 0a10 3304 0321 e61b fe1a
000000d0: fc16 d2de e812 08f7 e715 0618 1115 1506
000000e0: fdf6 0731 0ef7 f7e7 17e4 edda ef0f f5e2
000000f0: f312 e40a fc0b e427 1c08 f6f3 f8ce 0a18
0.0685876 -0.043646656 -0.024940945 0.024940945 0.0685876 0.105999015 -0.16835138 -0.16211614
0.2057628 0.018705709 -0.11223425 0.1870571 -0.031176182 0.074822836 0.062352363 0.031176182
-0.23070374 0.30552658 -0.09976378 -0.0062352363 -0.09976378 0.14964567 0.105999015 0.024940945
-0.04988189 -0.04988189 0.0 0.17458662 0.074822836 -0.031176182 -0.043646656 0.124704726
0.043646656 0.043646656 -0.105999015 0.1870571 -0.29929134 -0.16211614 -0.11223425 -0.031176182
-0.024940945 0.14964567 0.056117125 0.0685876 -0.21823327 0.09976378 -0.062352363 0.14964567
0.09352855 -0.19329232 -0.11846949 -0.056117125 -0.15588091 0.09352855 -0.0062352363 0.2930561
0.037411418 -0.018705709 -0.0062352363 -0.037411418 -0.11223425 0.043646656 -0.24317421 0.043646656
0.056117125 0.4302313 0.043646656 -0.21199803 0.2743504 0.19329232 0.24940945 0.26811516
0.14964567 0.26187992 -0.14964567 0.08105807 -0.16211614 0.4427018 -0.24940945 0.35540846
-0.2743504 -0.012470473 0.031176182 -0.105999015 -0.09352855 0.1371752 -0.23070374 -0.031176182
0.3741142 -0.16211614 -0.074822836 -0.1371752 0.0 0.23070374 0.09352855 0.024940945
0.5736417 -0.043646656 0.28682086 0.13093996 -0.1371752 0.2743504 0.024940945 -0.11223425
0.04988189 -0.26187992 -0.105999015 -0.19952756 -0.21199803 0.24940945 0.09352855 -0.037411418
0.018705709 -0.124704726 -0.39281988 -0.0685876 0.1870571 0.0062352363 -0.15588091 0.35540846
-0.16835138 0.105999015 0.23693898 0.21823327 -0.23693898 0.18082185 -0.11846949 0.11223425
0.04988189 -0.14341043 0.09976378 0.0685876 0.11223425 -0.23693898 0.0062352363 0.08729331
0.14964567 0.0685876 -0.024940945 -0.11223425 0.08729331 -0.30552658 -0.124704726 0.037411418
0.1371752 0.09352855 -0.16835138 -0.2244685 -0.08729331 -0.037411418 0.2244685 -0.2244685
-0.19329232 -0.031176182 0.105999015 0.11846949 -0.15588091 0.13093996 0.056117125 -0.16835138
-0.19952756 -0.16211614 -0.15588091 0.0 0.15588091 -0.23070374 -0.29929134 -0.1371752
0.012470473 -0.037411418 0.124704726 -0.17458662 -0.11223425 0.14341043 -0.11223425 -0.23070374
-0.16211614 0.26811516 0.056117125 -0.18082185 -0.17458662 0.18082185 -0.18082185 0.19329232
0.23070374 -0.13093996 -0.08105807 0.23070374 -0.19329232 -0.29929134 -0.14964567 -0.14964567
-0.28058565 -0.19952756 0.16835138 0.4427018 0.19329232 -0.18082185 0.062352363 0.09976378
0.31799704 0.024940945 0.018705709 0.2057628 -0.16211614 0.16835138 -0.012470473 0.16211614
-0.024940945 0.1371752 -0.28682086 -0.21199803 -0.14964567 0.11223425 0.04988189 -0.056117125
-0.15588091 0.13093996 0.037411418 0.14964567 0.105999015 0.13093996 0.13093996 0.037411418
-0.018705709 -0.062352363 0.043646656 0.30552658 0.08729331 -0.056117125 -0.056117125 -0.15588091
0.14341043 -0.17458662 -0.11846949 -0.23693898 -0.105999015 0.09352855 -0.0685876 -0.1870571
-0.08105807 0.11223425 -0.17458662 0.062352363 -0.024940945 0.0685876 -0.17458662 0.24317421
0.17458662 0.04988189 -0.062352363 -0.08105807 -0.04988189 -0.31176183 0.062352363 0.14964567
