HAR_APP/app/src/main/assets/har_cnnlstm.tflite (tflite, 113524 bytes, 5 tensors)

model_1/conv1d_2/BiasAdd/ReadVariableOp f4 [64]
0	0x00000000	0.0
1	0x00000000	0.0
2	0x00000000	0.0
3	0x00000000	0.0
4	0x00000000	0.0
5	0x00000000	0.0
6	0x00000000	0.0
7	0x00000000	0.0
8	0x00000000	0.0
9	0x00000000	0.0
10	0x00000000	0.0
11	0x00000000	0.0
12	0x00000000	0.0
13	0x00000000	0.0
14	0x00000000	0.0
15	0x00000000	0.0
16	0x00000000	0.0
17	0x00000000	0.0
18	0x00000000	0.0
19	0x00000000	0.0
20	0x00000000	0.0
21	0x00000000	0.0
22	0x00000000	0.0
23	0x00000000	0.0
24	0x00000000	0.0
25	0x00000000	0.0
26	0x00000000	0.0
27	0x00000000	0.0
28	0x00000000	0.0
29	0x00000000	0.0
30	0x00000000	0.0
31	0x00000000	0.0
32	0x00000000	0.0
33	0x00000000	0.0
34	0x00000000	0.0
35	0x00000000	0.0
36	0x00000000	0.0
37	0x00000000	0.0
38	0x00000000	0.0
39	0x00000000	0.0
40	0x00000000	0.0
41	0x00000000	0.0
42	0x00000000	0.0
43	0x00000000	0.0
44	0x00000000	0.0
45	0x00000000	0.0
46	0x00000000	0.0
47	0x00000000	0.0
48	0x00000000	0.0
49	0x00000000	0.0
50	0x00000000	0.0
51	0x00000000	0.0
52	0x00000000	0.0
53	0x00000000	0.0
54	0x00000000	0.0
55	0x00000000	0.0
56	0x00000000	0.0
57	0x00000000	0.0
58	0x00000000	0.0
59	0x00000000	0.0
60	0x00000000	0.0
61	0x00000000	0.0
62	0x00000000	0.0
63	0x00000000	0.0

model_1/conv1d_3/BiasAdd/ReadVariableOp f4 [128]
0	0x00000000	0.0
1	0x00000000	0.0
2	0x00000000	0.0
3	0x00000000	0.0
4	0x00000000	0.0
5	0x00000000	0.0
6	0x00000000	0.0
7	0x00000000	0.0
8	0x00000000	0.0
9	0x00000000	0.0
10	0x00000000	0.0
11	0x00000000	0.0
12	0x00000000	0.0
13	0x00000000	0.0
14	0x00000000	0.0
15	0x00000000	0.0
16	0x00000000	0.0
17	0x00000000	0.0
18	0x00000000	0.0
19	0x00000000	0.0
20	0x00000000	0.0
21	0x00000000	0.0
22	0x00000000	0.0
23	0x00000000	0.0
24	0x00000000	0.0
25	0x00000000	0.0
26	0x00000000	0.0
27	0x00000000	0.0
28	0x00000000	0.0
29	0x00000000	0.0
30	0x00000000	0.0
31	0x00000000	0.0
32	0x00000000	0.0
33	0x00000000	0.0
34	0x00000000	0.0
35	0x00000000	0.0
36	0x00000000	0.0
37	0x00000000	0.0
38	0x00000000	0.0
39	0x00000000	0.0
40	0x00000000	0.0
41	0x00000000	0.0
42	0x00000000	0.0
43	0x00000000	0.0
44	0x00000000	0.0
45	0x00000000	0.0
46	0x00000000	0.0
47	0x00000000	0.0
48	0x00000000	0.0
49	0x00000000	0.0
50	0x00000000	0.0
51	0x00000000	0.0
52	0x00000000	0.0
53	0x00000000	0.0
54	0x00000000	0.0
55	0x00000000	0.0
56	0x00000000	0.0
57	0x00000000	0.0
58	0x00000000	0.0
59	0x00000000	0.0
60	0x00000000	0.0
61	0x00000000	0.0
62	0x00000000	0.0
63	0x00000000	0.0
64	0x00000000	0.0
65	0x00000000	0.0
66	0x00000000	0.0
67	0x00000000	0.0
68	0x00000000	0.0
69	0x00000000	0.0
70	0x00000000	0.0
71	0x00000000	0.0
72	0x00000000	0.0
73	0x00000000	0.0
74	0x00000000	0.0
75	0x00000000	0.0
76	0x00000000	0.0
77	0x00000000	0.0
78	0x00000000	0.0
79	0x00000000	0.0
80	0x00000000	0.0
81	0x00000000	0.0
82	0x00000000	0.0
83	0x00000000	0.0
84	0x00000000	0.0
85	0x00000000	0.0
86	0x00000000	0.0
87	0x00000000	0.0
88	0x00000000	0.0
89	0x00000000	0.0
90	0x00000000	0.0
91	0x00000000	0.0
92	0x00000000	0.0
93	0x00000000	0.0
94	0x00000000	0.0
95	0x00000000	0.0
96	0x00000000	0.0
97	0x00000000	0.0
98	0x00000000	0.0
99	0x00000000	0.0
100	0x00000000	0.0
101	0x00000000	0.0
102	0x00000000	0.0
103	0x00000000	0.0
104	0x00000000	0.0
105	0x00000000	0.0
106	0x00000000	0.0
107	0x00000000	0.0
108	0x00000000	0.0
109	0x00000000	0.0
110	0x00000000	0.0
111	0x00000000	0.0
112	0x00000000	0.0
113	0x00000000	0.0
114	0x00000000	0.0
115	0x00000000	0.0
116	0x00000000	0.0
117	0x00000000	0.0
118	0x00000000	0.0
119	0x00000000	0.0
120	0x00000000	0.0
121	0x00000000	0.0
122	0x00000000	0.0
123	0x00000000	0.0
124	0x00000000	0.0
125	0x00000000	0.0
126	0x00000000	0.0
127	0x00000000	0.0

model_1/conv1d_2/Conv1D f4 [64, 1, 5, 6]
0	0x3c248350	0.010041073
1	0xbd9894e0	-0.07450271
2	0xbc7716e0	-0.015081137
3	0x3e03b94d	0.12863655
4	0xbdd8bc52	-0.10582794
5	0x3d8c332c	0.06845698
6	0x3cd58628	0.026064947
7	0xbd0a4dfe	-0.033765785
8	0x3d27e718	0.040991873
9	0x3da2fa18	0.07957858
10	0x3dac2432	0.08405341
11	0x3d94a20c	0.072574705
12	0xbd7a6dfa	-0.061140038
13	0xbd4b5316	-0.049639784
14	0x3d080ec0	0.03321719
15	0xbd9bceda	-0.07607813
16	0x3d7d4ec0	0.06184268
17	0xbdad6765	-0.084669866
18	0x3d6d6ccc	0.057965085
19	0xbdd6a14c	-0.10479984
20	0xbd58ca88	-0.052927524
21	0x3d94246e	0.07233511
22	0x3d6f3a2c	0.058405086
23	0xbdbe150c	-0.09281358
24	0xbde17130	-0.11007917
25	0x3cc19a40	0.023633122
26	0x3d1a21c8	0.037629873
27	0xbbf38cf0	-0.0074325725
28	0x3db16912	0.08662619
29	0x3d1761d4	0.03695853
30	0xbbb02e80	-0.005376637
31	0xbd9a448a	-0.07532604
32	0x3dbf2562	0.09333302
33	0x3d90c19a	0.070681766
34	0xbd937f04	-0.07201961
35	0xbdff6fc9	-0.12472493
36	0xbe006703	-0.12539296
37	0xbcd187a4	-0.025577374
38	0x3cf42138	0.029800996
39	0x3dbfbabe	0.0936179
40	0x3da35666	0.079754636
41	0x3dcaf358	0.099096954
42	0x3c95c5c0	0.018282771
43	0xbd9768b8	-0.073930204
44	0xbdb31754	-0.08744684
45	0xbc7116e8	-0.014714934
46	0x3c941bd8	0.018079683
47	0x3da77432	0.08176459
48	0x3d974998	0.07387084
49	0xbdfd106e	-0.12356649
50	0x3da752aa	0.08170064
51	0x3ccff470	0.025385112
52	0xbd835fb0	-0.06414735
53	0xbd9b9f7e	-0.0759878
54	0x3d98f460	0.07468486
55	0xbdada7aa	-0.08479245
56	0x3d9921e0	0.07477164
57	0x3d2d97fc	0.04238127
58	0xbce7ed6c	-0.028311454
59	0x3def27ac	0.11677489
60	0x3d8f3914	0.06993309
61	0xbd95c45e	-0.07312845
62	0x3dc9e666	0.09858398
63	0x3c8fc030	0.017547697
64	0x3a8d4c80	0.0010780245
65	0x3d5b3ae8	0.053522974
66	0x3d9843ea	0.074348286
67	0x3cc58628	0.024111822
68	0x3d73ff54	0.05956967
69	0xbc7e30b8	-0.015514545
70	0x3da40c04	0.08010104
71	0xbb1b2bc0	-0.00236772
72	0xbd4ec48c	-0.05048041
73	0x3c75f2c0	0.015011489
74	0x3cc810d8	0.024422094
75	0xbdd86285	-0.10565666
76	0xbdbb70be	-0.09152363
77	0xbe0556bb	-0.13021366
78	0xbd37a2c8	-0.044832975
79	0xbb8283c0	-0.003982991
80	0xbcd3552c	-0.025797449
81	0x3d13a1c8	0.03604296
82	0xbdbff1a6	-0.09372263
83	0x3d8595ee	0.065227374
84	0x3dc504a6	0.09620027
85	0xbdb45266	-0.08804779
86	0xbdb70790	-0.08936989
87	0xbc8adfb0	-0.016952366
88	0xbd3986fe	-0.045294754
89	0xbdddde43	-0.10833409
90	0x3dc12734	0.094313055
91	0xbdd76dd8	-0.10518998
92	0xbdc0872c	-0.09400782
93	0xbd4af9c2	-0.049554594
94	0x3c451950	0.012029961
95	0xbc0bcc58	-0.008532606
96	0x3d7a57b8	0.06111881
97	0xb9692000	-0.00022232533
98	0xbda702f5	-0.08154861
99	0xbd288dc4	-0.041150823
100	0xbd0fe27c	-0.0351281
101	0x3d506588	0.050878078
102	0x3e02e76f	0.12783597
103	0xbd816ad0	-0.06319201
104	0x3dbd7fce	0.092528924
105	0x3d5c3d6c	0.053769514
106	0xbcdf7090	-0.027275354
107	0xbde1bf74	-0.11022845
108	0x3ca78db0	0.020453304
109	0x3dd1ba14	0.1024057
110	0x3da98e5e	0.082791075
111	0x3dcb53a6	0.09928064
112	0x3da46f22	0.080290094
113	0xbd9e444e	-0.07727872
114	0xbe05c3dd	-0.13062997
115	0xbdedc652	-0.11610092
116	0xbd99dff8	-0.07513422
117	0xbdb38d09	-0.08767135
118	0xbdc5e33f	-0.096624844
119	0xbdf7536c	-0.12076458
120	0xbde53a5f	-0.11192774
121	0xbdbdbac5	-0.09264139
122	0xbd877f44	-0.06616071
123	0x3d9f9b8a	0.077933386
124	0xbd27fb7a	-0.04101131
125	0x3db218b4	0.08696118
126	0xbdbde260	-0.09271693
127	0xbdb5f807	-0.08885198
128	0xbde5845d	-0.11206887
129	0xbb84ff40	-0.0040587485
130	0xbcb31c58	-0.021864101
131	0x3ccea5d8	0.025225565
132	0x3d001b68	0.031276137
133	0xbd584ff2	-0.052810617
134	0x3cf14848	0.029453412
135	0xbcb71a94	-0.02235154
136	0xbdc4f57e	-0.096171364
137	0xbcd26e88	-0.025687471
138	0xbdfa77ba	-0.12229867
139	0xbd91d2e0	-0.07120299
140	0x3d5d8208	0.054079086
141	0xbdfeeaec	-0.124471515
142	0xbd9c6c33	-0.07637825
143	0xbd001758	-0.031272262
144	0xbd0e57b2	-0.0347516
145	0x3daca618	0.08430117
146	0x3d5faa0c	0.05460553
147	0x3c942588	0.018084303
148	0x3c0c4160	0.0085605085
149	0xbd7889ba	-0.06067822
150	0x3c093890	0.008375302
151	0x3c93f450	0.018060833
152	0xbb02cdc0	-0.0019959062
153	0xbdfdbe78	-0.12389845
154	0xbd39198a	-0.04519037
155	0xbccdc450	-0.025118023
156	0x3dd41492	0.10355486
157	0x3a136900	0.0005623251
158	0xbdfde845	-0.123978175
159	0x3d74f488	0.059803516
160	0x3dc2af18	0.09506053
161	0xbd78d2ca	-0.0607479
162	0xbda3e885	-0.08003334
163	0x3d842632	0.06452598
164	0x3da27a96	0.07933538
165	0x3d07f634	0.033193782
166	0xbdee1ffa	-0.11627193
167	0xbdf61c33	-0.12017097
168	0x3cb731e0	0.02236265
169	0xbd402872	-0.04691357
170	0xbda34e44	-0.07973912
171	0x3deebe38	0.11657375
172	0x3d72dd48	0.05929306
173	0xbda535a4	-0.08066872
174	0xbc97e728	-0.018542841
175	0xbd8734b0	-0.06601846
176	0x3d22c1b4	0.03973551
177	0xbd18c428	-0.037296444
178	0x3d2eaae0	0.042643428
179	0x3d8a9aca	0.06767805
180	0x3db74226	0.08948164
181	0xbcab5d54	-0.020918526
182	0xbc6813c8	-0.0141648725
183	0x3d88f2c0	0.06686926
184	0x3d9e86c0	0.07740545
185	0x3d7db790	0.061942637
186	0xbd6e00e2	-0.05810631
187	0xbd6e70fe	-0.058213226
188	0xbc3c6c30	-0.011500403
189	0x3c904df8	0.017615303
190	0x3dd1c216	0.10242097
191	0x3d9ba2d0	0.075994134
192	0x3da2cadc	0.079488486
193	0x3e046155	0.12927754
194	0x3d485954	0.048913315
195	0x3dd32e56	0.10311572
196	0xbc91741c	-0.01775556
197	0x3d28d20c	0.04121594
198	0xbd2706b4	-0.040777877
199	0x3dff6f9e	0.12472461
200	0x3d472dac	0.04862754
201	0x3dab4fbe	0.08364819
202	0xbdd76b96	-0.10518567
203	0x3dba5072	0.09097375
204	0xbdb5a600	-0.088695526
205	0xbdcfc67b	-0.10145279
206	0xbdd2c5de	-0.102916464
207	0xbdad1e5e	-0.08453058
208	0xbd2250de	-0.039627902
209	0x3ce016a8	0.027354553
210	0x3dadef3c	0.08492896
211	0xbd4adcdc	-0.049527034
212	0x3e031e9d	0.12804647
213	0x3cebb8b8	0.028774604
214	0xbcbdce7c	-0.023169748
215	0xbdb081a3	-0.08618476
216	0x3d2dcc6c	0.04243128
217	0x3d851496	0.06498067
218	0x3dfb5622	0.12272288
219	0x3ddccedc	0.10781643
220	0xbdb33f2a	-0.08752282
221	0xbd2e1b14	-0.042506292
222	0x3ddb51b8	0.10708946
223	0x3da0ff36	0.078611776
224	0xbd981ad2	-0.074269906
225	0x3dd2a7bc	0.10285899
226	0x3d8a22be	0.06744908
227	0xbcb161fc	-0.021653168
228	0xbdd80576	-0.105479166
229	0x3dba7848	0.09104973
230	0x3c742c70	0.014903173
231	0x3c3df970	0.011595115
232	0x3dafdfe8	0.085876286
233	0x3d9a871a	0.075453
234	0x3d9a18e0	0.07524276
235	0xbcee9614	-0.029124297
236	0xbde7ba47	-0.113148265
237	0xbda64104	-0.081178695
238	0xbb136380	-0.0022489727
239	0xbe057052	-0.13031128
240	0x3d640bd4	0.055675343
241	0xbd9deafe	-0.07710837
242	0xbdd29358	-0.1028201
243	0x3df64df6	0.120265886
244	0x3db443cc	0.08801994
245	0x3ddf7084	0.109101325
246	0x3d2c5498	0.042072862
247	0xbd240738	-0.040045947
248	0x3ddbf0c8	0.10739285
249	0xbd843a71	-0.06456459
250	0x3d67a5bc	0.05655454
251	0x3df6da3e	0.12053345
252	0x3d7c9764	0.061667815
253	0xbdca56d6	-0.09879844
254	0x3d5dbf0c	0.054137275
255	0x3ce391b0	0.02777943

model_1/conv1d_3/Conv1D f4 [128, 1, 3, 64]
0	0x3d3d0790	0.04614979
1	0x3d1f73e8	0.038928896
2	0x3da5bf40	0.08093119
3	0xbd7bfdb0	-0.061521232
4	0xbda5960b	-0.08085259
5	0xbd80525d	-0.062657095
6	0xbdbdb45a	-0.09262915
7	0xbdb74ffa	-0.08950801
8	0xbcc1eab0	-0.023671478
9	0x3d40a1f8	0.047029465
10	0xbd81a193	-0.06329646
11	0xbdaa0ae1	-0.08302856
12	0xbca9c28c	-0.02072265
13	0x3dcf791e	0.10130523
14	0x3cafbfac	0.021453701
15	0x3dc06f1c	0.093961924
16	0x3db9b1e6	0.090671346
17	0xbda041a3	-0.07825019
18	0xbda797fa	-0.08183284
19	0xbba9a8f0	-0.0051776096
20	0xbbebac90	-0.007192202
21	0xbdcdd88a	-0.10051067
22	0x3d3af11c	0.045640096
23	0x3d041018	0.03224191
24	0x3cd6aa40	0.026204228
25	0x3d9925fa	0.074779466
26	0xbcae34e4	-0.021265455
27	0x3d8639ea	0.06554015
28	0xbd0a8dd6	-0.03382667
29	0x3d2a5774	0.041587308
30	0x3d8afca6	0.0678647
31	0x3d289118	0.041153997
32	0x3d97e14a	0.07416017
33	0xba3a0d80	-0.00070973486
34	0x3dc38690	0.0954715
35	0x3d0664e4	0.03281106
36	0x3dcc0a5c	0.099629134
37	0xbb90f2f0	-0.0044234917
38	0x3cbba454	0.022905506
39	0x3da1b05c	0.07894966
40	0x3cceb4c8	0.025232688
41	0xbd63edfc	-0.05564688
42	0x3d25b0e4	0.0404519
43	0xbd909560	-0.07059741
44	0x3d687bd0	0.0567587
45	0x3d726fcc	0.05918865
46	0x391dea00	0.00015059859
47	0xbc743b20	-0.014906675
48	0x3d3f0f44	0.046645418
49	0xbc647488	-0.013943799
50	0xbc76bbf8	-0.015059464
51	0xbda30342	-0.07959606
52	0xbda1b342	-0.07895519
53	0xbb413700	-0.0029482245
54	0xbc956290	-0.018235475
55	0x3dc35512	0.0953771
56	0x3c6fac58	0.014628492
57	0xbd815d9a	-0.06316681
58	0x3d1eb66c	0.03874819
59	0x3d83c95c	0.06434891
60	0xbd564caa	-0.052319206
61	0x3db3f510	0.08786976
62	0xbd8b8ec4	-0.0681434
63	0x3d8437c8	0.06455952
64	0x3ca029dc	0.01955121
65	0x3dafe07e	0.0858774
66	0x3d5618c4	0.052269712
67	0x3cf1bcf0	0.029509038
68	0xbbd1a0a0	-0.006397322
69	0xbc6ebdd8	-0.014571629
70	0xbd320800	-0.04346466
71	0x3dba411c	0.0909445
72	0x3d469e0c	0.04849057
73	0xbdcf8ff1	-0.101348765
74	0xbd8daedf	-0.0691812
75	0x3d357560	0.04430139
76	0xbd484c72	-0.04890103
77	0x3d9f1b74	0.07768908
78	0x3db6ce72	0.08926095
79	0xbd97aaa2	-0.074055925
80	0x3c076930	0.008264825
81	0xbd8c73f2	-0.06858052
82	0x3c7142e0	0.014725417
83	0xbd8eef56	-0.069792435
84	0x3c81c5d0	0.015841395
85	0x3d079adc	0.03310667
86	0x3d41d828	0.047325283
87	0x3dbf6000	0.093444824
88	0x3c1f6558	0.009728752
89	0xbca213dc	-0.01978486
90	0xbcbb9560	-0.022898376
91	0xbc2ac358	-0.01042255
92	0x3d61258c	0.054967448
93	0xbda564b5	-0.08075849
94	0x3aae74c0	0.0013309941
95	0xbd25e0b7	-0.040497508
96	0x3b13ade0	0.0022534057
97	0x3cdf96c0	0.027293563
98	0x3d08df80	0.03341627
99	0x3cea7ac0	0.028622985
100	0xbd9297a7	-0.07157832
101	0x3da21fb8	0.07916206
102	0x3dca7e1e	0.09887336
103	0x3c864bdc	0.016393594
104	0xbd9a9803	-0.07548525
105	0x3d4b71f8	0.049669236
106	0x3d5148e0	0.05109489
107	0x3d2641c0	0.040590048
108	0x3c9aaf2c	0.018882357
109	0xbd8b8c86	-0.06813912
110	0xbdc3ce42	-0.09560825
111	0x3d2aaaa8	0.041666657
112	0xbba501e0	-0.005035624
113	0x3d55c500	0.052189827
114	0x3d4b458c	0.049626872
115	0x3d803e0a	0.06261833
116	0xbda5b518	-0.080911815
117	0xbdaba83b	-0.08381697
118	0x3cc58508	0.024111286
119	0xbd31f4bc	-0.043446288
120	0x3dbfadc4	0.09359315
121	0x3db5c58e	0.08875571
122	0x3b1f3e80	0.0024298728
123	0x3d712868	0.058876425
124	0xbd14da0c	-0.03634076
125	0xbdab2dcb	-0.08358344
126	0xbc296d20	-0.010340959
127	0xbd948311	-0.072515614
128	0x3bc79f20	0.006091967
129	0x3cd3fd90	0.025877744
130	0xbdd05de0	-0.10174155
131	0x3d53870c	0.051642463
132	0xbdb49495	-0.08817402
133	0xbbd57ac0	-0.006514877
134	0x3d7902fc	0.06079386
135	0x3dbd81ba	0.09253259
136	0xbdc5a5b9	-0.0965075
137	0xbd9771d6	-0.07394759
138	0x3ce4dbb8	0.027936801
139	0x3d22fd24	0.039792195
140	0x3db939a6	0.09044199
141	0xbca4dbcc	-0.020124339
142	0xbda2f1ff	-0.07956313
143	0x3dc4dbae	0.09612213
144	0xbdcb8723	-0.09937885
145	0x3db46a3e	0.088093266
146	0xbd9e549d	-0.077309825
147	0xbdca0520	-0.09864259
148	0x3c978344	0.01849521
149	0xbc32af18	-0.010906003
150	0xbcf19a98	-0.029492661
151	0xbc959d24	-0.018263407
152	0x3d59a4c4	0.05313565
153	0x3d88c7bc	0.06678721
154	0xbd333b6f	-0.043757852
155	0x3cc19918	0.023632571
156	0xbb72d5a0	-0.00370536
157	0x3d9664ac	0.073434204
158	0xbd35a5ee	-0.044347696
159	0xbd56f3eb	-0.052478712
160	0x3d8cb66a	0.0687073
161	0xbd8baee4	-0.06820467
162	0x3da46846	0.08027701
163	0x3d92a768	0.071608365
164	0x3cde86a0	0.027163804
165	0x3c7122e8	0.014717795
166	0x3c937b10	0.018003017
167	0xbc7e6758	-0.015527569
168	0x3d824826	0.063614175
169	0xbdc023c9	-0.093818255
170	0xbd60b9fe	-0.054864876
171	0xbd193b00	-0.037409782
172	0x3dc3d1aa	0.095614746
173	0x3d06aab0	0.032877624
174	0x3dc4de00	0.09612656
175	0x3c4cdff8	0.01250457
176	0xbd4d05ce	-0.050054364
177	0xbdafcc5d	-0.08583901
178	0xbd9cfba5	-0.07665185
179	0x3d61b900	0.05510807
180	0x3cd45a20	0.025921881
181	0x3cc34d98	0.02384071
182	0x3d704cc0	0.058666945
183	0xbd8501fa	-0.064945176
184	0x39870700	0.00025754422
185	0xbda10374	-0.07861987
186	0xbd47dcd7	-0.048794594
187	0xbd8d5ef5	-0.06902877
188	0xbdc07e0f	-0.09399044
189	0xbc8137e8	-0.015773728
190	0xbd57421f	-0.052553292
191	0xbd17a7fa	-0.03702543
192	0x3c913b14	0.017728366
193	0xbdb2be0d	-0.087276556
194	0x3d265fac	0.040618584
195	0xbdcb3c29	-0.09923584
196	0xbd41f751	-0.047355
197	0x3cef8d30	0.029242128
198	0x3dbed24e	0.09317456
199	0xbc0c1da0	-0.008551985
200	0xbd81d306	-0.06339078
201	0x3d853f22	0.06506182
202	0xbda6d5c4	-0.08146241
203	0xbdcabf1c	-0.098997325
204	0xbdcf3178	-0.10116857
205	0xbd9bc397	-0.07605665
206	0x3d4f9224	0.05067648
207	0xbcd8b9b4	-0.026455738
208	0xbd28ab8e	-0.041179232
209	0xbdcd3b01	-0.1002102
210	0xbd88dcb6	-0.06682722
211	0x3d702af4	0.058634713
212	0xbcc0a3d4	-0.02351562
213	0xbdb5b3d0	-0.08872187
214	0xbd372659	-0.044714306
215	0xbda41290	-0.08011353
216	0x3dbcf30c	0.09226045
217	0xbd58997c	-0.05288075
218	0x3d48a2d8	0.048983425
219	0xbdc53b9a	-0.09630509
220	0x3c53feb0	0.01293914
221	0x3da19818	0.07890338
222	0xbca15aac	-0.019696556
223	0x3db36784	0.087599784
224	0xbcb09c2c	-0.021558844
225	0xbc74cc28	-0.014941253
226	0xbda2e3e9	-0.07953627
227	0xbd7e65c9	-0.06210879
228	0xbc6505f8	-0.013978474
229	0x3cf3c890	0.029758722
230	0xbdb632e8	-0.08896428
231	0xbcd94fbc	-0.026527278
232	0xbd0f43c0	-0.03497672
233	0x3dc8365c	0.09775993
234	0x3cb17888	0.02166392
235	0xbd0a6208	-0.033784896
236	0x3d3de0cc	0.04635696
237	0xbcce0110	-0.025146991
238	0x3da354f2	0.079751864
239	0xbc7a62e0	-0.015282363
240	0xbd34435e	-0.04400956
241	0x3d30a064	0.04312171
242	0x3d0e5660	0.034750342
243	0x3d9e54ec	0.07731041
244	0x3c48edd8	0.012263738
245	0x3d7a7714	0.061148718
246	0xbd8607de	-0.06544469
247	0xbdbc3978	-0.09190649
248	0xbcd4252c	-0.025896631
249	0xbd88e4ac	-0.06684241
250	0x3d6c3864	0.057670966
251	0x3d98567e	0.07438372
252	0x3d82bb7e	0.063834175
253	0xbd4792f9	-0.04872415
254	0xbd946fd1	-0.0724789
255	0xbc8fa8e4	-0.017536588

model_1/dense_2/MatMul1 f4 [6, 128]
0	0xbe309a5f	-0.17246388
1	0xbc50ed90	-0.012751952
2	0xbcba70b0	-0.022758812
3	0x3d5d162c	0.053976223
4	0xbde7a76a	-0.113112286
5	0x3dd11d5a	0.102106765
6	0xbcafce88	-0.021460786
7	0xbdf8ebd7	-0.12154358
8	0xbd9daa00	-0.076984406
9	0xbc325760	-0.01088509
10	0xbdbf3ec5	-0.09338144
11	0xbb4418c0	-0.0029921979
12	0x3df2d206	0.11856465
13	0xbe1a1a30	-0.15049052
14	0x3e2a7529	0.16646256
15	0x3d8616c6	0.065473124
16	0x3e1b63f5	0.1517485
17	0x3de741da	0.11291857
18	0xbb4043c0	-0.0029337257
19	0x3e18bb75	0.14915259
20	0xbe293aee	-0.16526386
21	0x3c9df980	0.01928401
22	0x3dfe77de	0.124252066
23	0x3d0ce604	0.034399047
24	0x3e124627	0.14284573
25	0xbd498878	-0.049202412
26	0xbe48004d	-0.19531365
27	0x3e324aff	0.17411421
28	0x3e52825b	0.20557539
29	0x3e4fe1f9	0.20301045
30	0x3e43d5ad	0.1912448
31	0xbdde8742	-0.10865642
32	0x3ad13b00	0.0015963018
33	0xbded0f1e	-0.11575149
34	0x3e48dd0b	0.19615571
35	0xbc393890	-0.011304989
36	0x3e15a88d	0.14615078
37	0x3db614ee	0.08890711
38	0xbc2315a0	-0.009953886
39	0xbdd0d38e	-0.10196601
40	0x3e52f755	0.20602162
41	0x3d4e799c	0.050408944
42	0x3c850748	0.016238824
43	0x3e47c033	0.19506912
44	0xbe5842bf	-0.21119212
45	0x3dc60816	0.09669511
46	0x3d5196ec	0.05116932
47	0x3e3dac5f	0.18522786
48	0x3e13056f	0.14357542
49	0xbbcbf380	-0.006224096
50	0xbd8de320	-0.06928086
51	0x3d087100	0.03331089
52	0xbe28869b	-0.16457598
53	0x3df3e8a6	0.119096085
54	0xbe31a914	-0.17349654
55	0x3e3c8d87	0.18413363
56	0xbd7c46a8	-0.06159082
57	0xbe2268ba	-0.15860263
58	0xbe2b6ab4	-0.16739923
59	0xbe23950f	-0.1597483
60	0xbdef0bc2	-0.116721645
61	0x3e076319	0.13221397
62	0x3e1d3cf9	0.1535529
63	0x3d24b40c	0.04021077
64	0xbe34624c	-0.17615622
65	0x3e45c7f9	0.19314565
66	0xbe50eda9	-0.2040316
67	0xbd9eb99e	-0.077502474
68	0xbe3eb218	-0.18622625
69	0x3e4f243b	0.20228665
70	0xbb91dce0	-0.004451379
71	0x3d3779ec	0.044794008
72	0x3d1dd59c	0.038533792
73	0x3e13491b	0.14383356
74	0xbe12fa74	-0.14353353
75	0x3e41b579	0.18916883
76	0x3a5db900	0.0008458048
77	0x3d83ae16	0.06429689
78	0x3e08d865	0.13363798
79	0x3e170de3	0.14751391
80	0x3d998c7a	0.07497497
81	0xbdda0c2e	-0.10646854
82	0xbd6981ac	-0.05700843
83	0x3dc6ecba	0.09713121
84	0xbc92c900	-0.01791811
85	0x3e1c7021	0.15277149
86	0xbd7e7a88	-0.062128574
87	0xbe3cddaf	-0.1844394
88	0xbce596b8	-0.02802597
89	0xbd334630	-0.043768108
90	0x3e4ac237	0.1980065
91	0x3e07f71d	0.1327786
92	0xbe06158e	-0.1309416
93	0x3dbbad9e	0.09163974
94	0xbd97dcfe	-0.07415198
95	0xbe415574	-0.18880254
96	0x3d48a0b4	0.048981383
97	0x3cf27ab0	0.029599518
98	0x3d455b8c	0.04818301
99	0xbe39ecfc	-0.18156809
100	0xbe3be9f1	-0.1835096
101	0xbd79066c	-0.06079714
102	0xbe29f37a	-0.16596785
103	0xbbbf4800	-0.0058374405
104	0x3dbe5922	0.092943445
105	0xbe22ad31	-0.1588638
106	0xbc8ce240	-0.017197728
107	0x3e09c323	0.13453345
108	0xbe139aff	-0.14414595
109	0x3dd1dd8a	0.10247333
110	0xbd8f05ec	-0.069835514
111	0x3d4ce854	0.050026253
112	0x3cba2eb0	0.02272734
113	0x3e21d12b	0.15802447
114	0xbe48fb14	-0.19627029
115	0xbd9dda90	-0.07707703
116	0xbe4b3b25	-0.1984678
117	0x3d33d75c	0.043906555
118	0x3d5d5ac4	0.05404164
119	0xbdab6414	-0.08368698
120	0x3e1c5109	0.15265287
121	0xbe09df42	-0.13464072
122	0x3e003ea1	0.12523891
123	0x3e49f993	0.19724111
124	0xbcc374c0	-0.023859382
125	0xbe04c3dd	-0.12965341
126	0x3cc26c40	0.023733258
127	0x3dcc6db2	0.0998186
128	0x3e4011cf	0.18756793
129	0x3e4dd1ad	0.20099516
130	0xbe295ad8	-0.1653856
131	0xbdbacb2e	-0.09120785
132	0x3e208769	0.15676655
133	0xbe2a4c19	-0.16630591
134	0xbbc832e0	-0.0061095804
135	0xbd1dfb20	-0.03856957
136	0x3d97b4ca	0.0740753
137	0x3e34e737	0.17666326
138	0x3d827492	0.0636989
139	0xbd4d3a30	-0.05010432
140	0xbd9dd626	-0.07706861
141	0xbdbdd24f	-0.09268629
142	0x3d91e63a	0.0712399
143	0x3e508e7b	0.20366852
144	0xbdbaca55	-0.09120623
145	0xbdfe7f30	-0.12426603
146	0xbe41e03d	-0.18933196
147	0x3df596ae	0.119916305
148	0xbd96247c	-0.073311776
149	0x3c8f24b0	0.017473549
150	0xbd77f160	-0.060532928
151	0xbd0d8744	-0.034552827
152	0xbce89e58	-0.028395817
153	0xbd83b7de	-0.06431554
154	0x3da3b0a6	0.079926774
155	0x3d94d27a	0.07266708
156	0x3d9f7526	0.07786016
157	0x3d3efcc4	0.046627775
158	0x3e462301	0.1934929
159	0x3dc39fb2	0.09551944
160	0x3dd59b1a	0.10429974
161	0xbe2f75a5	-0.17134722
162	0xbc904008	-0.017608657
163	0xbd3c98a8	-0.04604402
164	0x3d11ebb8	0.03562519
165	0x3e390db1	0.18071629
166	0x3df7e29a	0.12103768
167	0x3ccb71b0	0.024834484
168	0xbcd0bf90	-0.02548197
169	0x3defd7d2	0.11711086
170	0x3d7e6274	0.06210561
171	0xbdc80464	-0.097664624
172	0xbbd64820	-0.0065393597
173	0xbdaaafde	-0.08334325
174	0xbd018ef8	-0.031630486
175	0xbe0cd12c	-0.13751668
176	0xbe276fcb	-0.1635124
177	0xbe04fe22	-0.12987569
178	0x3d5d99e4	0.05410184
179	0x3d2aba94	0.04168184
180	0x3e1bbdf1	0.15209176
181	0xbdf0eb55	-0.11763636
182	0xbd35fc94	-0.04443033
183	0x3d8c69fe	0.06856154
184	0xbdebaba6	-0.11507349
185	0x3d43d254	0.047808006
186	0x3cc19c08	0.023633972
187	0x3d0fee14	0.03513916
188	0x3d11bb6c	0.03557913
189	0xbd9eb76c	-0.07749829
190	0xbd091f24	-0.033476964
191	0xbe19f4e1	-0.1503482
192	0xbe3cfaa2	-0.18454984
193	0x3df5856a	0.11988337
194	0xbe1a2875	-0.15054496
195	0x3cb5c740	0.022189736
196	0x3d134c34	0.035961345
197	0x3e11b679	0.14229764
198	0x3e0099a1	0.12558605
199	0x3da361e6	0.07977657
200	0xbd8ae45a	-0.06781836
201	0x3dc19ac6	0.09453349
202	0xbe4d7d4c	-0.20067328
203	0x3e46d4d7	0.1941713
204	0x3deced42	0.11568691
205	0x3ccc4d20	0.02493912
206	0xbe408536	-0.18800816
207	0xbbe9ffc0	-0.0071410835
208	0xbccc7c88	-0.024961725
209	0x3e19bd7b	0.15013687
210	0x3d968e0e	0.073513135
211	0xbbe35340	-0.0069374144
212	0x3d4450ec	0.047928736
213	0x3e06e11b	0.13171808
214	0x3db52b62	0.08846165
215	0xbe12e9b3	-0.14346962
216	0x3d9b28fa	0.07576175
217	0x3ca13ab0	0.019681305
218	0x3d9bc3e6	0.07605724
219	0xbd860a36	-0.06544916
220	0xbd4436c0	-0.047903776
221	0xbe306be2	-0.17228654
222	0xbe0f4776	-0.13992104
223	0x3d4ef0bc	0.05052255
224	0x3e52de05	0.20592506
225	0x3d501bd4	0.05080779
226	0x3d8a7f5e	0.067625746
227	0x3dfc9ca6	0.12334566
228	0xbe106926	-0.14102611
229	0x3dc20f9a	0.09475632
230	0xbdbb6c80	-0.09151554
231	0x3e333063	0.17498927
232	0x3dddf21a	0.10837193
233	0xbdffaf28	-0.1248458
234	0x3e2d4979	0.16922559
235	0x3d5bfb1c	0.053706273
236	0xbcf2c030	-0.029632658
237	0xbcf7a828	-0.03023155
238	0xbe32dea1	-0.17467739
239	0xbd4cf4ac	-0.050038025
240	0x3e1e6b73	0.15470676
241	0x3c5840d0	0.013199046
242	0xbe2baa51	-0.1676419
243	0x3ddb179e	0.10697864
244	0x3dbd34fa	0.0923862
245	0xbcc3ee88	-0.023917452
246	0x3e07f4ff	0.13277052
247	0x3e2b8589	0.16750158
248	0x3c9359f8	0.017987236
249	0xbb7e2540	-0.0038779527
250	0x3c845ca0	0.016157448
251	0x3e48a60d	0.19594593
252	0xbd5206a4	-0.051275864
253	0x3d393f34	0.04522629
254	0xbdffda75	-0.12492839
255	0xbddafe5c	-0.106930465
